saved_models/CNN_model_dropout.pth (torch_old, 919761 bytes, 12 tensors)

convs.0.weight f4 [100, 1, 3, 91]
-0.0035733096 -0.053565472 0.054150503 0.049666803 0.02835882 -0.0439278 -0.050796658 0.022029202
-0.034980856 0.04856694 -0.04783666 -0.021571774 -0.03349141 0.04216822 -0.021969855 -0.05131991
0.055215638 -0.044884793 0.043689836 -0.030268779 -0.026940703 0.055538822 -0.0049780123 -0.056827374
-0.007996462 0.02376433 0.048318084 0.017657254 0.0054858215 -0.031645596 0.02163801 -0.057770625
-0.024365686 -0.05903328 -0.05608295 0.02762137 0.0071786083 0.02343766 -0.031458996 -0.018498894
0.043903705 0.013837654 0.044204894 0.046174187 -0.039308958 0.0033359788 0.005272735 -0.057232253
0.038680445 -0.033572257 0.048715483 0.051489186 0.010626208 0.034778144 -0.060456753 0.05755231
0.00997686 0.026279245 0.03325079 0.04665948 0.009791244 -0.054502584 -0.051205963 0.03673948
-0.029057473 0.014723655 -0.001277864 0.027360234 0.013648797 -0.038566053 -0.037439547 0.042712655
0.02729128 -0.015163891 0.049259763 -0.015449882 0.027646285 -0.033589713 0.03723817 0.026385527
0.007183019 -0.013972543 0.021099057 -0.014613304 -0.014314298 -0.04401663 -0.011096362 0.044446032
-0.017375682 -0.055823907 0.006728228 0.011497837 0.035081673 0.015967932 0.010784481 0.011038255
-0.050612837 0.00229254 0.032824073 -0.0471002 -0.01614666 0.045252193 0.0010648519 0.055020574
0.05404536 -0.045722194 0.01552156 -0.05977856 0.0041739456 0.04837631 -0.030983955 0.05915
0.04481099 -0.056071617 0.00013605878 0.047398325 0.032787148 0.05093955 -0.013556577 -0.04757103
0.044789452 0.014207941 0.003707271 0.056623366 0.053437036 0.047106247 -0.060449205 0.047830198
-0.014687203 -0.021384887 -0.016306445 -0.014698964 0.023844693 0.052919667 -0.033998027 0.026955832
0.00753187 0.035361726 -0.04041016 0.05839714 0.011674445 -0.046960697 -0.01146245 -0.0064360574
-0.03911161 -0.058372814 0.044330467 0.0120948665 -0.0494942 -0.04742536 0.05374608 0.0591211
-0.023091998 -0.033186898 0.0114525445 -0.043151625 -0.057367392 0.013492484 -0.043712717 -0.003352657
0.057923693 -0.051854003 -0.059375905 -0.023169272 0.0012368597 -0.048590038 0.047299217 0.055491563
-0.00093876943 -0.05933542 -0.0077174716 0.038095873 -0.023326937 0.045988727 0.009987462 0.058986682
0.048521433 0.047558364 0.03344753 0.023070421 -0.0025479123 0.058266032 -0.006801665 -0.048352048
0.048821043 0.025342207 0.04466177 -0.002152551 -0.0068916976 0.01946633 -0.05642324 0.04119662
0.04514342 -0.004464183 -0.010828696 -0.023732506 -0.028225109 0.04682796 -0.03849612 0.018065374
0.027978312 -0.01598464 0.047186743 -0.020401962 0.011210863 0.050980527 -0.012148902 0.007980105
-0.042954117 0.040094245 -0.043988686 0.0048843063 -0.026695441 -0.04243271 -0.034655496 0.03106146
-0.026933026 -0.0070065223 0.0128146745 0.026747521 -0.060156498 0.04321946 -0.055678874 0.027175922
0.03223155 0.024648894 -0.051059596 -0.0056655295 0.03723665 0.019693214 0.056431483 0.016361322
0.025350127 -0.050635345 -0.027005326 0.008755226 0.04695007 0.056973595 -0.036678873 -0.03996728
0.016184803 -0.05708539 0.02809475 0.036939222 0.025060061 0.008449499 -0.02208652 -0.021024425
0.03956485 0.019445296 -0.047309246 0.033771288 -0.050492182 -0.023647234 0.05477025 -0.037381053
00000000: 302e 6abb 7867 5bbd ebcc 5d3d 6b6f 4b3d
00000010: c250 e83c a3ed 33bd 2810 50bd 9676 b43c
00000020: 1648 0fbd 21ee 463d 60f0 43bd 4ab7 b0bc
00000030: 4a2e 09bd 95b8 2c3d 20fa b3bc d334 52bd
00000040: cb29 623d 1ed9 37bd 1df4 323d 3bf6 f7bc
00000050: c0b2 dcbc ad7c 633d 981e a3bb d2c3 68bd
00000060: 9803 03bc 6aad c23c 2fe9 453d f2a5 903c
00000070: 68c2 b33b d09e 01bd 3242 b13c e4a0 6cbd
00000080: 8c9a c7bc e1cc 71bd 3cb7 65bd 3646 e23c
00000090: 883a eb3b 5600 c03c 26db 00bd fe8a 97bc
000000a0: 5fd4 333d 54b7 623c 3110 353d 2521 3d3d
000000b0: 6e02 21bd 70a0 5a3b e8c6 ac3b 5e6c 6abd
000000c0: 636f 1e3d 1083 09bd e389 473d 53e6 523d
000000d0: 8c19 2e3c 8773 0e3d 80a1 77bd f9bb 6b3d
000000e0: fc75 233c 9247 d73c fb31 083d 031e 3f3d
000000f0: 746b 203c 1a3e 5fbd 58bd 51bd 237c 163d
00000100: f009 eebc 7c3b 713c 007e a7ba 9222 e03c
00000110: 349f 5f3c 70f7 1dbd 365a 19bd 77f3 2e3d
00000120: f691 df3c f871 78bc 9bc4 493d 8021 7dbc
00000130: 767a e23c 5e95 09bd 0d87 183d 7626 d83c
00000140: 885f eb3b 18ed 64bc eed7 ac3c a46c 6fbc
00000150: 8486 6abc c84a 34bd 84cd 35bc 0b0d 363d
00000160: 7257 8ebc 9ca7 64bd 7878 dc3b 6c61 3c3c
00000170: cdb1 0f3d 2ecf 823c 64b1 303c ccd9 343c
00000180: 684f 4fbd 703e 163b 8972 063d 24ec 40bd
00000190: 0046 84bc 5d5a 393d 8092 8b3a 415d 613d
000001a0: ab5e 5d3d 3247 3bbd 244e 7e3c 5dda 74bd
000001b0: 98c5 883b 3d26 463d 10d2 fdbc 4547 723d
000001c0: bb8b 373d 5aab 65bd 00ab 0e39 bf24 423d
000001d0: d14b 063d fda5 503d 681c 5ebc d7d9 42bd
000001e0: 2575 373d 6cc8 683c b0f5 723b e7ed 673d
000001f0: cbe0 5a3d 7bf2 403d 9699 77bd 99e9 433d
00000200: 98a2 70bc 5c2f afbc 1895 85bc ecd3 70bc
00000210: f255 c33c 4bc2 583d 8441 0bbd 7ad2 dc3c
00000220: e8cd f63b 75d7 103d 2085 25bd d731 6f3d
00000230: 2c46 3f3c dc59 40bd 00cd 3bbc 90e5 d2bb
00000240: 7f33 20bd 5518 6fbd dd93 353d 8c29 463c
00000250: 6eba 4abd 1841 42bd d924 5c3d f728 723d
00000260: 6e2b bdbc fcee 07bd 74a3 3b3c c2bf 30bd
00000270: 12fa 6abd 940f 5d3c 1b0c 33bd 40b8 5bbb
00000280: 6541 6d3d dd64 54bd 2634 73bd 7ccd bdbc
00000290: 201e a23a 5906 47bd d3bc 413d 1f4b 633d
000002a0: c017 76ba b309 73bd d8e2 fcbb 6b0a 1c3d
000002b0: 2218 bfbc ad5e 3c3d 74a2 233c 059c 713d
000002c0: 69be 463d 8fcc 423d 4700 093d 2efe bc3c
000002d0: e0fa 26bb 5da8 6e3d 80e0 debb cc0c 46bd
000002e0: 93f8 473d 769a cf3c 43ef 363d d011 0dbb
000002f0: c0d3 e1bb da77 9f3c 0e1c 67bd c9bd 283d
00000300: 4fe8 383d 4848 92bb d86a 31bc ac6a c2bc
00000310: 5838 e7bc adce 3f3d 1cae 1dbd d6fd 933c
00000320: c632 e53c 38f2 82bc e346 413d 0422 a7bc
00000330: c4ad 373c f5d0 503d 300c 47bc fcbe 023c
00000340: a8f0 2fbd dd39 243d 7b2d 34bd 880c a03b
00000350: 66b0 dabc eccd 2dbd ecf2 0dbd 9a74 fe3c
00000360: a6a2 dcbc f896 e5bb a4f4 513c 9e1d db3c
00000370: a966 76bd e306 313d 880f 64bd 0aa0 de3c
00000380: 3b05 043d 7aec c93c de23 51bd e8a5 b9bb
00000390: 7585 183d aa53 a13c b324 673d 2e08 863c
000003a0: 12ab cf3c 0267 4fbd 463a ddbc 1472 0f3c
000003b0: b74e 403d 255d 693d 963c 16bd bbb4 23bd
000003c0: fe95 843c 5fd2 69bd f626 e63c 954d 173d
000003d0: c24a cd3c c46f 0a3c caee b4bc 6a3b acbc
000003e0: c10e 223d be4b 9f3c 57c7 41bd c353 0a3d
000003f0: e4d0 4ebd d8b7 c1bc c556 603d e01c 19bd

convs.0.bias f4 [100]
-0.0019068681 0.04276258 0.027872052 0.06022339 0.05188008 -0.01666947 -0.04808141 0.028786007
0.016115744 0.05873807 0.0026915558 -0.019390468 -0.03419563 -0.04936747 0.0043467246 0.0374708
0.014273707 -0.007333249 0.025562692 0.02283923 -0.0042844526 0.008726422 -0.0088691935 0.04577342
-0.020667564 0.042415645 -0.055638567 -0.043450203 0.0031293072 -0.045502163 0.058526885 0.056978952
-0.0027089603 -0.0050868094 -0.016926493 -0.039092645 -0.02188509 -0.048042882 -0.018075772 -0.003652718
0.006298531 0.02361017 -0.008577015 0.034348745 -0.005694419 -0.035746947 0.029031869 -0.032061625
-0.04125785 -0.057733398 0.02656446 -0.03574893 0.047574732 0.022828672 -0.04370945 0.021171156
-0.02690817 -0.0076026507 -0.013060056 0.056808595 0.03529976 -0.011274461 -0.006327763 0.015234519
-0.011297196 0.052154366 0.020091128 0.03418104 -0.019851264 0.014352787 0.05837841 -0.055966575
-0.012421329 0.0066878013 -0.05285637 -0.056056328 0.038493108 -0.026299372 0.048004355 -0.056425232
-0.05651223 -0.037516676 0.026246618 0.031007882 -0.010312956 0.02464081 0.01655944 0.060403448
-0.015399855 -0.009964585 0.022592831 -0.04725973 -0.059031706 0.014870126 -0.052898414 0.028518897
0.03725366 0.011606183 -0.04113703 0.05245253
00000000: e0ef f9ba d127 2f3d ee53 e43c cdac 763d
00000010: 3580 543d 6a8e 88bc 03f1 44bd a2d0 eb3c
00000020: 2a05 843c 5597 703d d064 303b c2d8 9ebc
00000030: b810 0cbd 8b35 4abd f86e 8e3b fb7a 193d
00000040: 44dc 693c c04b f0bb da68 d13c 5619 bb3c
00000050: 9864 8cbb 44f9 0e3c 1850 11bc e97c 3b3d
00000060: 064f a9bc 07bc 2d3d 44e5 63bd d7f8 31bd
00000070: 1015 4d3b 7a60 3abd e3b9 6f3d c362 693d
00000080: d088 31bb 40af a6bb 6ea9 8abc 9c1f 20bd
00000090: 5c48 b3bc 9dc8 44bd a413 94bc 7062 6fbb
000000a0: e863 ce3b 1e6a c13c 9c86 0cbc 45b1 0c3d
000000b0: 4098 babb 646b 12bd 3ed4 ed3c 0d53 03bd
000000c0: fefd 28bd db79 6cbd b69d d93c 786d 12bd
000000d0: b9dd 423d 3203 bb3c ae08 33bd 226f ad3c
000000e0: 866e dcbc a81f f9bb d8f9 55bc 21b0 683d
000000f0: 7b96 103d 84b8 38bc 2059 cfbb 349a 793c
00000100: e017 39bc d19f 553d 2696 a43c 6b01 0c3d
00000110: 1e9f a2bc f427 6b3c 331e 6f3d 353d 65bd
00000120: d482 4bbc 5825 db3b ec7f 58bd 529b 65bd
00000130: f3aa 1d3d c871 d7bc 37a0 443d 251e 67bd
00000140: 5e79 67bd 16ab 19bd 2603 d73c 3e04 fe3c
00000150: acf7 28bc 86db c93c aaa7 873c 9b69 773d
00000160: ac4f 7cbc 8042 23bc 9a14 b93c 6b93 41bd
00000170: 3bcb 71bd d4a1 733c 02ac 58bd 76a0 e93c
00000180: 4b97 183d dc27 3e3c 4d7f 28bd 77d8 563d

convs.1.weight f4 [100, 1, 4, 91]
-0.03357715 0.008095376 0.022045974 0.050485257 -0.04522282 0.025830697 -0.006872412 -0.00984329
-0.009844352 0.026168969 0.03786956 -0.05017316 0.0063040927 0.026051346 0.026430521 0.036533777
-0.020801384 0.027529005 0.05136243 -0.00011217967 -0.035993867 -0.047070783 -0.0027919002 0.018679004
0.039289724 0.017408218 0.023565385 -0.026100095 0.03158621 -0.035748564 0.038732093 0.02620532
-0.026120707 -0.014282558 -0.007437829 -0.012813967 0.024367642 0.023889821 0.011622626 0.049557958
-0.03552419 -0.017558903 -0.020161662 0.033647913 0.0020059235 -0.050143536 0.041366298 0.038405735
0.02561507 0.008604072 0.027904395 0.04125635 0.051950347 0.0067724735 0.0486555 -0.04816772
-0.014526941 0.024691064 -0.024241723 0.025075879 -0.02785765 0.025000904 0.0065459386 0.0005545132
0.0010652244 0.03293464 -0.02699262 0.014485266 0.009501174 -0.03127319 0.04114786 0.051067304
0.042699087 -0.015945539 -0.009418827 0.034933668 -0.01397007 0.05112486 0.030834634 0.04740421
-0.028166734 0.049989115 -0.009604596 -9.964034e-05 -0.04301496 -0.019082133 -0.036431693 0.04056276
0.05092376 0.00035970658 -0.022208063 0.009733003 -0.025919013 0.044585396 -0.048677947 -0.032045454
0.008792546 0.050897878 0.0283265 -0.051826194 -0.02224619 -0.03451189 0.015332732 0.00021510944
-0.014991231 -0.008595802 0.030580413 0.030386832 -0.007956903 0.047101695 -0.022944221 0.026433941
0.03233536 0.033305224 -0.02288435 0.021456134 -0.05149006 -0.006109208 -0.016431611 0.0095834695
-0.034788124 -0.04426588 0.0020487607 0.01576538 0.049218442 -0.019933514 -0.034121342 -0.0041987076
0.047986228 0.0152687915 0.016544808 -0.029847054 0.0027766153 -0.0038249046 -0.041552808 -0.045906626
0.049930986 -0.038984265 -0.012400158 0.03792387 0.029769976 -0.0059252344 -0.052141607 0.0015774071
-0.021647194 0.03335629 -0.049808078 -0.040974576 0.035338115 -0.046485875 0.03444716 -0.051888183
0.02651902 0.032591876 0.011712115 -0.051458497 -0.0006387085 0.0033149794 -0.024139246 0.039573636
-0.013361506 0.04946224 0.011700328 0.027061876 0.035331834 0.04024281 0.04476579 0.00586351
0.01895142 0.031892505 0.02542137 -0.025699869 0.03688368 -0.012770902 0.048887577 -0.036130123
-0.04655906 0.011052731 0.0069939196 0.032957118 -0.010300603 -0.007133551 -0.03260653 0.03494868
-0.005359713 -0.036104366 0.025406335 0.044577803 -0.007412415 0.037976738 -0.01595148 -0.038513478
0.013505343 -0.052211303 0.009133007 -0.039859768 -0.03011864 -0.011228442 -0.015721966 -0.00028503314
-0.01675257 -0.016902376 -0.0007025115 0.025685038 0.04542863 -0.014459066 0.052003395 -0.0031867959
-0.02342613 0.017047297 -0.029018333 0.03621945 0.028216604 0.011488657 0.039085362 0.0014270023
-0.014891196 -0.040417895 0.032994885 0.037334483 0.020442802 -0.014370546 -0.011431601 -0.022143068
0.039563384 0.0020496435 0.03761482 -0.051372208 0.046493966 -0.032929525 0.0065052174 0.03880478
0.026847992 0.045286838 0.013949726 0.010500599 -0.021409879 -0.018509485 -0.05150019 0.010397542
-0.011259448 0.039699282 -0.016076941 0.011069637 -0.020952076 0.03436144 0.018015686 -0.042093486
-0.03810443 -0.013331115 0.021934416 0.024536509 0.010356341 0.024273414 0.051053416 0.014135819
00000000: 3288 09bd 78a2 043c c299 b43c a1c9 4e3d
00000010: 903b 39bd e69a d33c f831 e1bb c045 21bc
00000020: 344a 21bc 4e60 d63c 1d1d 1b3d 5f82 4dbd
00000030: 9092 ce3b a269 d53c d284 d83c 71a4 153d
00000040: aa67 aabc 8284 e13c 6961 523d 0042 ebb8
00000050: 4e6e 13bd 4bcd 40bd 50f8 36bb b604 993c
00000060: 43ee 203d ae9b 8e3c 320c c13c decf d5bc
00000070: 8b60 013d 166d 12bd 8ba5 1e3d 8aac d63c
00000080: 18fb d5bc 6401 6abc 08b9 f3bb acf1 51bc
00000090: a69e c73c 96b4 c33c d46c 3e3c 49fd 4a3d
000000a0: d081 11bd b0d7 8fbc 122a a5bc 65d2 093d
000000b0: d075 033b 4f63 4dbd b56f 293d 554f 1d3d
000000c0: b2d6 d13c 18f8 0c3c c297 e43c 6bfc 283d
000000d0: e3c9 543d a0eb dd3b fd4a 473d 844b 45bd
000000e0: 6802 6ebc ea44 ca3c 9496 c6bc ee6b cd3c
000000f0: ba35 e4bc b2ce cc3c 507f d63b c05c 113a
00000100: 009f 8b3a 79e6 063d a11f ddbc 9c53 6d3c
00000110: d0aa 1b3c 5118 00bd a98a 283d f32b 513d
00000120: 3de5 2e3d 38a0 82bc 6c51 1abc 9b16 0f3d
00000130: b8e2 64bc 4d68 513d ea98 fc3c eb2a 423d
00000140: ecbd e6bc 63c1 4c3d 985c 1dbc 00f6 d0b8
00000150: 7430 30bd 2252 9cbc 6639 15bd 2325 263d
00000160: 6f95 503d 0097 bc39 afed b5bc 2c77 1f3c
00000170: 1c54 d4bc 2d9f 363d 8762 47bd 1842 03bd
00000180: 9c0e 103c 4b7a 503d fa0c e83c b447 54bd
00000190: a43d b6bc 575c 0dbd 2436 7b3c 008f 6139
000001a0: c89d 75bc 68d5 0cbc c683 fa3c ceed f83c
000001b0: ac5d 02bc b5ed 403d 85f5 bbbc fe8b d83c
000001c0: 1572 043d 0f6b 083d f677 bbbc c6c4 af3c
000001d0: 3ee7 52bd c02f c8bb 969b 86bc fc03 1d3c
000001e0: fe7d 0ebd 2450 35bd 8044 063b 6626 813c
000001f0: 4799 493d 9c4b a3bc d2c2 0bbd 5095 89bb
00000200: 358d 443d f429 7a3c fa88 873c cf81 f4bc
00000210: e0f7 353b 40ab 7abb 4733 2abd 9608 3cbd
00000220: 6f84 4c3d f7ad 1fbd 082a 4bbc 0f56 1b3d
00000230: 2ae0 f33c 7828 c2bb 7092 55bd 00c1 ce3a
00000240: 7555 b1bc 9ba0 083d 8e03 4cbd f5d4 27bd
00000250: b3be 103d f967 3ebd 7718 0d3d b488 54bd
00000260: 6a3e d93c 0f7f 053d 2ce4 3f3c 25c6 52bd
00000270: 006f 27ba 2040 593b abbf c5bc f717 223d
00000280: 38ea 5abc eb98 4a3d bcb2 3f3c deb0 dd3c
00000290: 1db8 103d a5d5 243d 555c 373d b022 c03b
000002a0: 0240 9b3c b7a1 023d 7a40 d03c 8888 d2bc
000002b0: 5713 173d 0c3d 51bc 573e 483d 2efd 13bd
000002c0: b7b4 3ebd 8416 353c 402d e53b 0bfe 063d
000002d0: dcc3 28bc 90c0 e9bb 6d8e 05bd 5926 0f3d
000002e0: 88a0 afbb 2ce2 13bd f220 d03c 3797 363d
000002f0: d8e3 f2bb 7f8d 1b3d aeac 82bc 4fc0 1dbd
00000300: 8445 5d3c 85db 55bd 9ca2 153c ff43 23bd
00000310: 5ebb f6bc 80f7 37bc 5acb 80bc 8070 95b9
00000320: b03c 89bc da76 8abc c028 38ba 6e69 d23c
00000330: 5f13 3a3d b8e5 6cbc 8301 553d 90d9 50bb
00000340: 28e8 bfbc c6a6 8b3c dbb7 edbc d95a 143d
00000350: 8226 e73c ec3a 3c3c f917 203d 400a bb3a
00000360: 34fa 73bc 3c8d 25bd a525 073d 0bec 183d
00000370: aa77 a73c 7072 6bbc 9c4b 3bbc 6165 b5bc
00000380: 370d 223d 5053 063b ff11 1a3d aa6b 52bd
00000390: 7570 3e3d 1ce1 06bd b829 d53b c3f1 1e3d
000003a0: 52f0 db3c b17e 393d 648d 643c b40a 2c3c
000003b0: c563 afbc 34a1 97bc ddf1 52bd 745a 2a3c
000003c0: 8c79 38bc b79b 223d cab3 83bc 6c5d 353c
000003d0: b0a3 abbc 95be 0c3d a295 933c 386a 2cbd
000003e0: 6413 1cbd c06a 5abc ceaf b33c ca00 c93c
000003f0: a4ad 293c 0ad9 c63c 631d 513d ec99 673c

convs.1.bias f4 [100]
-0.020141069 -0.026785048 -0.045478567 -0.02905415 0.022537548 -0.0048358142 -0.011151928 0.009043362
-0.022623103 0.02249616 0.028032172 0.002033461 -0.046019264 -0.016231537 -0.009266801 0.026633907
0.0404921 0.0015932024 -0.035529427 -0.01447456 -0.04999009 -0.0019493476 -0.027041428 0.014414977
0.03709158 0.030878495 -0.047244266 -0.037123702 -0.039526634 -0.026336122 -0.0067676567 -0.035569932
0.032214273 0.032165933 -0.02022684 -0.026535312 0.009945467 0.02719247 0.008479558 0.0014667474
0.020163592 -0.04927638 0.041441295 -0.037461825 -0.012518447 -0.0024290122 -0.01303025 0.041416492
0.042039964 -0.004277423 0.03628661 0.036607366 0.029041652 -0.043561157 -0.025656417 -0.042193357
-0.0232901 0.023307223 -0.009502575 -0.002089899 0.04112037 -0.0029645823 0.00060883164 0.039065238
0.022699814 -0.02854791 0.03380687 -0.028976072 0.02908085 0.050604124 -0.0029621571 -0.028198643
-0.036571704 0.04412255 0.0064199492 -0.004106514 0.026902612 0.0150109045 -0.027512433 0.04804189
-0.046441287 -0.036926482 -0.033346936 0.023071226 0.02669039 -0.03086556 0.03125712 0.037380513
-0.019873116 0.025558885 -0.001822494 0.030692983 -0.026448572 0.033545543 0.03618889 0.022757988
0.016195614 -0.02749792 -0.03151417 0.0073317587
00000000: e2fe a4bc 516c dbbc bc47 3abd f802 eebc
00000010: aaa0 b83c c075 9ebb 94b6 36bc 9c2a 143c
00000020: 1654 b9bc de49 b83c baa3 e53c d043 053b
00000030: b27e 3cbd 00f8 84bc c8d3 17bc 5a2f da3c
00000040: 0bdb 253d 00d3 d03a 4e87 11bd b426 6dbc
00000050: 69c2 4cbd 4081 ffba fc85 ddbc cc2c 6c3c
00000060: 57ed 173d e6f4 fc3c 3483 41bd 060f 18bd
00000070: aee6 21bd dabe d7bc 38c3 ddbb c7b1 11bd
00000080: 1df3 033d 6dc0 033d c2b2 a5bc 9560 d9bc
00000090: 50f2 223c bec2 de3c d8ed 0a3c e03f c03a
000000a0: 1e2e a53c 08d6 49bd 59be 293d 9271 19bd
000000b0: 2c1a 4dbc 1030 1fbb d47c 55bc 57a4 293d
000000c0: 1932 2c3d a029 8cbb 45a1 143d 9bf1 153d
000000d0: c2e8 ed3c 2f6d 32bd 682d d2bc f1d2 2cbd
000000e0: e1ca bebc caee be3c b0b0 1bbc b0f6 08bb
000000f0: d56d 283d 7049 42bb 009a 1f3a df02 203d
00000100: f6f4 b93c 4edd e9bc 1379 0a3d 3a5f edbc
00000110: f63a ee3c 4546 4f3d c020 42bb d700 e7bc
00000120: 36cc 15bd d9b9 343d 705e d23b f08f 86bb
00000130: de62 dc3c 4cf0 753c c161 e1bc 93c7 443d
00000140: 3839 3ebd 3940 17bd cc96 08bd deff bc3c
00000150: cea5 da3c c5d9 fcbc 7707 003d 4f1c 193d
00000160: f2cc a2bc de60 d13c c0e0 eeba da6f fb3c
00000170: adaa d8bc 0d67 093d cd3a 143d f66e ba3c
00000180: aaac 843c 5143 e1bc 0115 01bd 403f f03b

convs.2.weight f4 [100, 1, 5, 91]
-0.004259076 -0.013637461 -0.03612499 0.02125208 -0.03458757 -0.04087592 0.00093834475 0.045434244
0.014117174 -0.031772256 0.023291528 0.027532324 0.018114097 -0.018322507 -0.02722195 0.026177078
-0.009864911 -0.03696457 0.006237909 0.008417401 0.0012991987 -0.030340247 0.03154275 0.020242192
0.008025825 -0.010742933 -0.011609983 -0.0027468838 0.037552036 -0.009869307 0.0069707483 0.043021053
-0.023730103 -0.033913873 -0.0356621 0.01514161 0.03527666 -0.031435177 -0.01853389 0.02116143
0.04570145 -0.025794694 0.04116457 -0.04023745 -0.026756931 0.038519196 0.029281944 -0.03471072
-0.024872204 -0.013354622 -0.04472875 0.03070338 -0.024242502 0.0155895315 -0.030328734 -0.0057419017
-0.02810096 0.019930072 -0.014902495 0.011455346 0.022340529 0.014356073 0.01972296 0.006285399
-0.024251979 0.040171087 -0.016128192 -0.039486725 -0.045845114 -0.0010533258 -0.03264206 -0.017420482
-0.01951291 0.04014302 -0.012259085 0.0366406 0.036681227 -0.037006713 -0.0037314259 -0.03209579
0.04616712 0.029762164 -0.039279036 0.008076314 0.0039776824 0.007837784 0.028079458 -0.009327184
-0.016410746 0.0063129626 0.043769374 0.046706818 -0.013932541 -0.008574665 -0.041918788 -0.0054967813
0.007866114 0.0044630803 -0.027728451 0.026006252 -0.03341908 -0.023543745 0.013154045 0.040718883
0.012363505 -0.02731367 0.0114867315 -0.027569467 -0.044430353 -0.012477607 -0.005656708 -0.045932
-0.042282384 -0.038422987 0.012004741 0.031444304 0.00794851 0.04213822 -0.009093609 -0.027120214
0.03652993 -0.045691967 0.035540313 -0.044744946 0.027172148 0.046861067 -0.02826213 -0.024245374
0.04372391 -0.029148279 -0.021488983 0.010234833 0.023584232 0.0011448301 0.0057482608 -0.037966155
-0.0059446506 0.018920273 0.017941214 -0.04551864 -0.0104814805 0.030402318 0.046469912 -0.014284372
-0.013187863 0.029176675 0.01703658 0.005769644 -0.018655179 -0.017137663 -0.008174699 -0.019643085
-0.011993334 0.02886311 0.0036274716 0.034487456 0.0084318705 0.033893324 -0.02203131 -0.007060256
0.009250399 0.030208454 0.014810406 0.033405915 -0.043378457 0.013264149 0.008226138 0.035449028
-0.033358283 -0.0147530325 -0.042753298 -0.018658668 -0.0091285445 0.036252134 -0.003260538 0.007995795
0.039601453 -0.04053042 -0.01611902 -0.019722655 -0.009082481 -0.023365345 -0.039734583 0.011411902
0.040167294 -0.025763158 -0.018598886 0.026152715 -0.002507396 0.017441556 0.009810913 -0.037500154
0.0009982213 0.03425902 0.046048068 0.0067777187 0.004521806 -0.011997387 -0.033115774 0.014035299
0.02732636 0.0053385496 0.034570374 -0.0031914972 0.012249757 -0.038981944 0.027147986 0.0018476918
0.025212996 -0.00095426664 0.041829593 0.026451826 -0.0077292137 -0.008916132 0.035547204 -0.008215155
-0.045957632 0.0052539557 -0.017956536 0.01696314 -0.03796889 -0.036206495 0.010764554 -0.024866313
-0.018822653 0.0117967725 -0.01692091 0.011811625 0.009470224 -0.00997144 -0.0043883175 0.031905487
-0.022624385 0.02433379 0.0033301786 0.046647668 -0.030355627 0.033051915 0.035126448 -0.03016909
-0.021584956 -0.040255528 0.03963519 0.043948628 -0.03926705 0.021086544 0.04641363 0.04201898
-0.0397108 -0.006541148 0.018102296 0.032952562 0.00958287 0.043497577 -0.039846335 0.011716731
00000000: b88f 8bbb a86f 5fbc ccf7 13bd d818 ae3c
00000010: b2ab 0dbd 826d 27bd 40fb 753a 4219 3a3d
00000020: b84b 673c a023 02bd e0cd be3c 788b e13c
00000030: 0464 943c 1519 96bc 9100 dfbc 5071 d63c
00000040: 70a0 21bc 2968 17bd 6067 cc3b 24e9 093c
00000050: e049 aa3a 1c8c f8bc f832 013d f4d2 a53c
00000060: c07e 033c 2003 30bc cc37 3ebc 1005 34bb
00000070: 2ad0 193d e0b2 21bc e06a e43b d836 303d
00000080: a265 c2bc 46e9 0abd 6c12 12bd 8414 783c
00000090: 427e 103d 2cc2 00bd 62d4 97bc bc5a ad3c
000000a0: 7231 3b3d 654f d3bc 2e9c 283d 06d0 24bd
000000b0: 5a31 dbbc 4ec6 1d3d b0e0 ef3c d42c 0ebd
000000c0: cbc0 cbbc 58cd 5abc 7e35 37bd a885 fb3c
000000d0: 3698 c6bc 3c6b 7f3c f773 f8bc 9026 bcbb
000000e0: fc33 e6bc 6444 a33c 9829 74bc 34af 3b3c
000000f0: 7c03 b73c bc35 6b3c 0c92 a13c c0f5 cd3b
00000100: 16ac c6bc 708a 243d 451f 84bc d5bc 21bd
00000110: 16c8 3bbd c00f 8aba aeb3 05bd 66b5 8ebc
00000120: 8ad9 9fbc 026d 243d 54da 48bc 7414 163d
00000130: 0e3f 163d 5a94 17bd f08a 74bb e076 03bd
00000140: bc19 3d3d c8cf f33c 0ee3 20bd 8452 043c
00000150: 3857 823b 0c6a 003c e406 e63c 0cd1 18bc
00000160: d46f 86bc f8dc ce3b 8447 333d a64f 3f3d
00000170: 5045 64bc c07c 0cbc 09b3 2bbd 581e b4bb
00000180: e0e0 003c 083f 923b c726 e3bc 100b d53c
00000190: 72e2 08bd d0de c0bc 1084 573c d8c8 263d
000001a0: 4c90 4a3c ebc0 dfbc d832 3c3c 5dd9 e1bc
000001b0: 9afc 35bd e06e 4cbc e85b b9bb 3123 3cbd
000001c0: 4b30 2dbd 6c61 1dbd 88af 443c becb 003d
000001d0: 783a 023c 2099 2c3d 5cfd 14bc 362b debc
000001e0: 68a0 153d 8027 3bbd b892 113d 7a46 37bd
000001f0: 2098 de3c 64f1 3f3d fc85 e7bc 3c9e c6bc
00000200: d817 333d 5fc8 eebc aa09 b0bc 00b0 273c
00000210: b833 c13c 200e 963a e85b bc3b 6682 1bbd
00000220: 58cb c2bb b0fe 9a3c 74f9 923c c171 3abd
00000230: 84ba 2bbc 480e f93c 3c57 3e3d 0009 6abc
00000240: e811 58bc ec03 ef3c 4c90 8b3c 480f bd3b
00000250: bfd2 98bc 4964 8cbc 2cef 05bc 89ea a0bc
00000260: b07f 44bc 5472 ec3c e0ba 6d3b b842 0d3d
00000270: d425 0a3c bad3 0a3d 017b b4bc b859 e7bb
00000280: fc8e 173c b877 f73c 58a7 723c a4d4 083d
00000290: 9cad 31bd e051 593c ecc6 063c 0033 113d
000002a0: b2a2 08bd b4b6 71bc 151e 2fbd 10da 98bc
000002b0: e48f 15bc 1e7d 143d c0ae 55bb cc00 033c
000002c0: 2235 223d 3a03 26bd 090c 84bc 6891 a1bc
000002d0: b0ce 14bc ae68 bfbc bbc0 22bd fcf8 3a3c
000002e0: 7686 243d 420d d3bc b15c 98bc 383e d63c
000002f0: 2053 24bb 98e1 8e3c f4bd 203c c399 19bd
00000300: c0d6 823a 3053 0c3d e69c 3c3d a017 de3b
00000310: a82b 943b b090 44bc 68a4 07bd 50f4 653c
00000320: 88db df3c 00ef ae3b aa99 0d3d 7028 51bb
00000330: 34b3 483c 88ab 1fbd 7465 de3c 402e f23a
00000340: 7c8b ce3c c027 7aba 8255 2b3d 80b1 d83c
00000350: 5845 fdbb f814 12bc f299 113d dc98 06bc
00000360: 123e 3cbd 6029 ac3b 9619 93bc 48f6 8a3c
00000370: 4485 1bbd 434d 14bd d05d 303c 70b4 cbbc
00000380: f731 9abc 4047 413c b89d 8abc 8c85 413c
00000390: 0029 1b3c 405f 23bc e0cb 8fbb 54af 023d
000003a0: c656 b9bc a857 c73c 203f 5a3b a011 3f3d
000003b0: 5dac f8bc 7261 073d c0e0 0f3d 2b25 f7bc
000003c0: efd2 b0bc fbe2 24bd 8258 223d 7a03 343d
000003d0: 7cd6 20bd b0bd ac3c 381c 3e3d 181c 2c3d
000003e0: cba7 22bd 2057 d6bb 444b 943c 44f9 063d
000003f0: 7801 1d3c 842a 323d e935 23bd 88f7 3f3c

convs.2.bias f4 [100]
-0.04332469 0.039964788 0.036226444 -0.038607046 -0.033681776 0.010611478 0.016372785 0.035392515
-0.018693658 0.042508394 -0.032634884 -0.005088728 -0.0048334487 -0.016139437 -0.014506318 -0.037920956
-0.036362525 -0.023172922 -0.00028534234 -0.0022578165 -0.008617837 -0.031257212 -0.043945417 0.0039028674
-0.046166934 0.04248915 -0.003921721 0.013839625 0.018594064 0.045064367 -0.014582861 -0.011214599
-0.043369897 0.026638284 -0.017952349 -0.022515746 -0.0037134402 0.0007912293 0.001738172 0.011563174
0.02899564 -0.031721015 -0.035288073 0.03516291 0.028878428 0.039344385 -0.028802522 0.042565994
0.04669381 -0.0012720488 -0.038924973 -0.013497915 0.01531532 0.008438662 -0.04683593 -0.033262447
-0.03963401 0.03938195 -0.0166547 -0.010874834 0.03575422 0.04225859 -0.02375931 0.03548994
-0.009391841 -0.008981496 -0.0413095 0.03285525 0.022683486 -0.030528571 0.02136729 -0.0040091164
-0.045555618 -0.012144271 0.020842843 0.025914818 -0.044916548 0.011768416 -0.043416016 0.030972175
0.011345889 0.0025982894 -0.02824051 0.015289333 0.03065651 0.01437499 0.014053538 -0.014673799
0.037501276 0.04606568 -0.03610573 -0.021515753 0.039115384 0.042772375 0.010493629 0.03697309
0.02737014 0.035810813 -0.0009893179 0.03551253
00000000: 3b75 31bd 1eb2 233d 2e62 143d 6c22 1ebd
00000010: e7f5 09bd c4db 2d3c 3820 863c bef7 103d
00000020: 7123 99bc 481d 2e3d 28ac 05bd 58bf a6bb
00000030: e861 9ebb da36 84bc e8ab 6dbc 0153 1bbd
00000040: dff0 14bd 24d5 bdbc 009a 95b9 e0f7 13bb
00000050: d431 0dbc 9007 00bd 1c00 34bd 40c7 7f3b
00000060: 8a19 3dbd 1a09 2e3d c881 80bb 98bf 623c
00000070: 9452 983c 6a95 383d f4ec 6ebc 70bd 37bc
00000080: a2a4 31bd 8838 da3c ce10 93bc f172 b8bc
00000090: 305d 73bb 806a 4f3a 60d3 e33a 7873 3d3c
000000a0: 4488 ed3c e5ed 01bd 3a8a 10bd fc06 103d
000000b0: 7492 ec3c 9427 213d 44f3 ebbc ae59 2e3d
000000c0: 0242 3f3d e0ba a6ba cb6f 1fbd 5c26 5dbc
000000d0: 1ced 7a3c 5042 0a3c 08d7 3fbd 343e 08bd
000000e0: 4657 22bd f84e 213d 706f 88bc 5c2c 32bc
000000f0: 0473 123d 5817 2d3d e2a2 c2bc e65d 113d
00000100: 3ce0 19bc 2027 13bc 2634 29bd 3a93 063d
00000110: b8d2 b93c 0e17 fabc 740a af3c e85e 83bb
00000120: 8798 3abd c4f8 46bc 9cbe aa3c 504b d43c
00000130: 6afa 37bd 50d0 403c fed4 31bd 5cb9 fd3c
00000140: 1ce4 393c 1048 2a3b a458 e7bc 1c80 7a3c
00000150: 5c23 fb3c 1485 6b3c d040 663c 606a 70bc
00000160: f09a 193d 5eaf 3c3d 9ae3 13bd ce41 b0bc
00000170: 7437 203d 1632 2f3d 78ed 2b3c 1871 173d
00000180: 5837 e03c 5cae 123d 00ac 81ba 9675 113d

convs.3.weight f4 [100, 1, 6, 91]
-0.013656562 0.006933879 -0.024406224 0.024713587 0.027946856 -0.03502686 0.03691415 0.00124548
-0.035459198 0.036624607 0.03526264 -0.04065171 0.00058760867 0.010073483 0.039889116 0.0075991526
0.020061348 0.004980199 -0.010426246 -0.030772757 -0.02066958 -0.04198332 -0.008969832 -0.024275478
0.018616311 -0.02006043 -0.031836838 0.0023362264 -0.008799095 0.0002828464 -0.005189482 -0.026529703
0.037327405 -0.01393269 -0.002629608 0.019764971 -0.023065 0.024889547 0.035071786 -0.030053051
0.02161644 -0.040266093 -0.010947522 0.038072627 -0.015460968 -0.028166018 -0.01718376 -0.0028542913
-0.032899 0.024004195 -0.03795643 -0.0014827885 0.03243391 -0.038138308 0.02747332 -0.022422342
0.0047730617 -0.008267283 0.04183462 -0.028778808 -0.024492906 -0.028327309 -0.012730662 -0.029426355
0.004573174 -0.025592765 0.021791045 -0.019463303 -0.030313028 0.021998536 -0.04158343 -0.02923698
-0.0017185435 -0.024951635 -0.0035988167 0.03598154 -0.042110138 0.022141825 0.012313344 0.040563118
0.034529123 -0.03753054 -0.0042936765 0.035636615 0.013416354 0.007989209 -0.017785123 -0.0018542595
0.021441575 0.039708685 0.0006163977 0.011647701 0.011400059 -0.005962882 -0.03473058 -0.004365675
0.01960519 -0.02885973 0.020703439 -0.028318008 0.019461863 0.03728359 0.00957384 -0.023844784
-0.028319579 0.036283907 -0.029887741 0.03267059 -0.0031787641 -0.016323458 0.012671657 -0.009705912
-0.024830297 -0.005104445 -0.031814583 -0.019736124 0.0016735382 0.0035315156 -0.019419096 -0.03201892
0.0030029379 0.021762434 0.034244698 0.030824658 -0.032202948 -0.040421184 -0.034073804 0.00635517
0.0007140897 -0.0061659813 -0.038138364 -0.013698718 -0.0050794072 -0.024995673 -0.038833734 0.029722396
-0.010344058 -0.034764346 -0.008454103 0.035367277 -0.030978728 0.021781694 0.023446348 -0.016881088
0.005045455 -0.03058163 0.015640415 -0.022269541 -0.01168949 0.004772853 0.030499797 -0.02559564
-0.0044096746 -0.023645 -0.0059638955 -0.019435884 -0.020867383 -0.012056256 -0.024016332 -0.03197894
-0.035418153 -0.022057107 -0.015773492 -0.009744562 0.04069708 0.023746174 0.03516798 0.037589435
-0.027660657 0.0397978 -0.023488365 -0.008615993 0.011560816 0.01749232 -0.010262705 -0.009918779
-0.038270492 0.017193612 0.008406416 -0.038309973 -0.009801928 0.018649418 0.017588604 0.020051789
-0.013428742 0.0016126372 -0.037632164 0.0014918335 0.01911825 -0.035191316 -0.028362464 0.02635077
0.040145155 -0.010743853 0.02847046 -0.03301867 -0.01779454 -0.007197257 0.0076226853 0.031278346
0.03806061 0.009306375 -0.036719445 -0.023464616 0.019937132 -0.022706913 -0.019047953 -0.042234495
-0.022357112 0.01032342 -0.009635396 -0.0034541935 0.00767963 0.028068054 0.023033332 0.021325525
0.021212596 -0.037627358 -0.022431422 0.026194703 0.006707575 0.00056290627 0.013432674 0.036645357
0.027638432 -0.024647728 -0.024910567 -0.0019121729 -0.006803762 -0.042299457 -0.028897382 -0.0282058
-0.027330425 -0.014847213 -0.036359053 0.01180039 -0.013137858 0.036554854 -0.028625794 0.030992854
-0.0005169548 -0.010636374 -0.020451274 0.023809742 0.012587734 -0.019451635 -0.020539721 0.0041899756
-0.011091873 -0.030883366 -0.008196302 0.014591016 0.02478243 0.015323278 0.021015365 -0.040866185
00000000: c6bf 5fbc 9835 e33b 90ef c7bc 2674 ca3c
00000010: cef0 e43c 5378 0fbd 4b33 173d 603f a33a
00000020: aa3d 11bd af03 163d 8f6f 103d 6882 26bd
00000030: c009 1a3a 400b 253c c562 233d 5002 f93b
00000040: b257 a43c f030 a33b d8d2 2abc 2617 fcbc
00000050: 4053 a9bc b4f6 2bbd 34f6 12bc 5edd c6bc
00000060: 3c81 983c c555 a4bc 5867 02bd 601b 193b
00000070: 142a 10bc 004b 9439 880c aabb d254 d9bc
00000080: 9fe4 183d f045 64bc 8055 2cbb 26ea a13c
00000090: d0f2 bcbc 2ae5 cb3c 6fa7 0f3d d131 f6bc
000000a0: f614 b13c 0fee 24bd 3c5d 33bc 0bf2 1b3d
000000b0: 0050 7dbc 6cbc e6bc f5c4 8cbc 100f 3bbb
000000c0: 1ac1 06bd 72a4 c43c 3478 1bbd 205a c2ba
000000d0: 6bd9 043d ea36 1cbd ba0f e13c 0faf b7bc
000000e0: 5867 9c3b 8073 07bc c75a 2b3d 89c1 ebbc
000000f0: 59a5 c8bc ac0e e8bc 4494 50bc 8a0f f1bc
00000100: 90da 953b eba7 d1bc 2283 b23c 8171 9fbc
00000110: 0753 f8bc 4636 b43c 6353 2abd 6482 efbc
00000120: c040 e1ba 5f67 ccbc 20da 6bbb 6161 133d
00000130: ae7b 2cbd c662 b53c e8bd 493c 8325 263d
00000140: 696e 0d3d a0b9 19bd f8b1 8cbb b3f7 113d
00000150: 44d0 5b3c 2ce5 023c 1bb2 91bc a00a f3ba
00000160: 3ea6 af3c 93a5 223d c095 213a 00d6 3e3c
00000170: 50c7 3a3c 4864 c3bb a741 0ebd f00d 8fbb
00000180: 109b a03c 3e6b ecbc 429a a93c 2bfb e7bc
00000190: 7c6e 9f3c adb6 183d 98db 1c3c 2356 c3bc
000001a0: 76fe e7bc 6f9e 143d 23d7 f4bc 99d1 053d
000001b0: d052 50bb c6b8 85bc c89c 4f3c 8c05 1fbc
000001c0: e868 cbbc 3043 a7bb 0250 02bd a7ad a1bc
000001d0: a05a db3a 0071 673b cc14 9fbc 4526 03bd
000001e0: f0cc 443b 2247 b23c 2b44 0c3d fe83 fc3c
000001f0: 3de7 03bd af90 25bd f990 0bbd 083f d03b
00000200: c031 3b3a 000c cabb f936 1cbd 9670 60bc
00000210: 2871 a6bb bac3 ccbc 1f10 1fbd 627c f33c
00000220: 207a 29bc 0f65 0ebd 1483 0abc 47dd 103d
00000230: 1ac7 fdbc 866f b23c 8e12 c03c 354a 8abc
00000240: 5854 a53b 5486 fabc 5420 803c 9d6e b6bc
00000250: 4685 3fbc 9865 9c3b b6da f93c f3ad d1bc
00000260: 087f 90bb 29b3 c1bc c86c c3bb 0138 9fbc
00000270: 13f2 aabc 9a87 45bc e6bd c4bc 59fc 02bd
00000280: a012 11bd 1bb1 b4bc 6937 81bc a8a7 1fbc
00000290: fbb1 263d 5687 c23c 4d0c 103d 61f7 193d
000002a0: 9a98 e2bc 0503 233d ac6a c0bc 182a 0dbc
000002b0: 9469 3d3c 0e4c 8f3c e824 28bc 6082 22bc
000002c0: 85c1 1cbd 9ed9 8c3c 10bb 093c ebea 1cbd
000002d0: 4498 20bc aac6 983c fa15 903c a643 a43c
000002e0: 3a04 5cbc 205f d33a 2f24 1abd a089 c33a
000002f0: e09d 9c3c c524 10bd 6658 e8bc 92dd d73c
00000300: 3f6f 243d fc06 30bc e23a e93c 963e 07bd
00000310: dbc5 91bc f8d6 ebbb b8c7 f93b b91d 003d
00000320: 71e5 1b3d c479 183c 2167 16bd de38 c0bc
00000330: 3253 a33c d903 babc 740a 9cbc 14fe 2cbd
00000340: 4326 b7bc 9023 293c c8dd 1dbc c05f 62bb
00000350: 68a5 fb3b faee e53c 66b0 bc3c deb2 ae3c
00000360: 0ac6 ad3c 251f 1abd 1ac2 b7bc 4696 d63c
00000370: 38cb db3b 0090 133a b814 5c3c 7119 163d
00000380: fe69 e23c 08ea c9bc 3f11 ccbc e0a1 faba
00000390: 18f2 debb 3242 2dbd 34ba ecbc da0f e7bc
000003a0: 0ee4 dfbc ba41 73bc 3bed 14bd 6c56 413c
000003b0: 2c40 57bc 8bba 153d a480 eabc bae4 fd3c
000003c0: 4084 07ba 3044 2ebc 6e89 a7bc a60c c33c
000003d0: c83c 4e3c 0959 9fbc eb42 a8bc 104c 893b
000003e0: b0ba 35bc 1dff fcbc c849 06bc 280f 6f3c
000003f0: 8604 cb3c 7c0e 7b3c 6a28 ac3c 4d63 27bd

convs.3.bias f4 [100]
0.0011190921 0.041089077 -0.008871093 0.03540166 0.029894616 0.028611068 0.011154544 0.039984938
0.022408996 -0.01832864 0.03985182 -0.015300194 -0.010575101 0.029031496 -0.013160897 0.014212519
0.033942457 -0.029656155 -0.026834387 0.0012208782 -0.022066275 -0.04262178 0.014547188 -0.034105293
-0.004331857 -0.03503772 0.029854257 -0.00029867142 -0.021620963 -0.03368979 0.012653168 -0.022717025
0.016023774 -0.005897589 0.006553907 -0.01785142 -0.0068307184 0.031071391 0.034563202 -0.0071228594
-0.036236927 0.023721192 0.03979451 -0.02184175 0.019006226 -0.040143166 0.006196983 0.041313175
0.02564155 0.030773204 0.033713255 0.0097303875 0.007908013 0.011418097 0.004001882 -0.0061440542
-0.01399208 0.009783674 -0.001181636 0.011181857 -0.023964856 0.020101879 0.0185715 0.009126559
0.030493643 -0.040511142 -0.011346601 0.022657786 -0.014308471 0.010371916 -0.019866375 -0.009330917
0.0026733652 0.01044656 0.0039604865 -0.026796624 -0.038482323 0.0370815 -0.0017726123 0.017777521
0.028877754 0.029325817 -0.00016568601 -0.041692045 -0.03366454 0.0060824156 -0.03679733 0.010152914
-0.018273083 -0.004958611 -0.029552167 0.0027329586 0.038638663 0.027963068 0.032058645 0.019398935
0.0097240135 -0.0028565563 0.004877709 -0.022607807
00000000: 80ae 923a 054d 283d 1058 11bc 5501 113d
00000010: 8ee5 f43c c261 ea3c 8cc1 363c 3fc7 233d
00000020: 1293 b73c f225 96bc a93b 233d aaad 7abc
00000030: 3043 2dbc 76d3 ed3c cea0 57bc a0db 683c
00000040: 3f07 0b3d 77f1 f2bc cad3 dbbc e005 a03a
00000050: 55c4 b4bc 2d94 2ebd 5457 6e3c feb1 0bbd
00000060: 40f2 8dbb b683 0fbd ea90 f43c 0097 9cb9
00000070: 721e b1bc 4efe 09bd 3c4f 4f3c 0e19 babc
00000080: 4a44 833c 9040 c1bb 28c2 d63b 243d 92bc
00000090: 38d4 dfbb 6e89 fe3c 2592 0d3d e066 e9bb
000000a0: 2c6d 14bd f252 c23c 91ff 223d 78ed b2bc
000000b0: f2b2 9b3c 296d 24bd 1010 cb3b 0138 293d
000000c0: 3a0e d23c 1618 fc3c e916 0a3d 346c 1f3c
000000d0: 9c90 013c f812 3b3c 3822 833b 1054 c9bb
000000e0: 0a3f 65bc b44b 203c 20e1 9aba 1c34 373c
000000f0: f251 c4bc b2ac a43c 4223 983c 9087 153c
00000100: cecd f93c 03ef 25bd 18e7 39bc d29c b93c
00000110: 146e 6abc f8ee 293c cfbe a2bc b4e0 18bc
00000120: a033 2f3b 0c28 2b3c f8c6 813b 9884 dbbc
00000130: a49f 1dbd c5e2 173d 0057 e8ba 2aa2 913c
00000140: 0a91 ec3c b23c f03c 00bc 2db9 47c5 2abd
00000150: d4e3 09bd 004f c73b ccb8 16bd 6858 263c
00000160: 6fb1 95bc d87b a2bb 6317 f2bc 701b 333b
00000170: 9343 1e3d ce12 e53c ed4f 033d 84ea 9e3c
00000180: 7851 1f3c 1035 3bbb 30d5 9f3b 0234 b9bc

convs.4.weight f4 [100, 1, 7, 91]
0.009172734 0.009490002 0.010540225 -0.031319447 0.010749031 0.03311427 0.009949338 0.016225457
-0.0015730113 -0.029078443 0.030395217 -0.03346412 0.009830743 -0.03306666 0.010660373 0.0046718754
0.023366526 0.004524298 0.005969472 -0.028266773 -0.028564703 -0.021840842 0.03596642 -0.021378776
-0.007581275 -0.01824694 -0.036068384 0.032743305 0.013119359 -0.006061118 -0.025552463 -0.0066846386
-0.031361014 0.020190764 -0.03326505 -0.010491099 -0.0025325753 -0.0032465123 0.0050942414 -0.0030561984
-0.03828046 0.02312611 -0.016941534 -0.011325918 0.036997713 -0.031015716 0.023035422 -0.014024114
-0.0070303082 0.019943047 -0.0097750705 -0.006563939 -0.016322851 -0.003871169 -0.0046811067 -0.0010854192
0.037142113 0.031231396 0.028439485 -0.027397946 -0.023865612 -0.0016439073 -0.0038403645 -0.03353777
-0.005723685 -0.01584255 0.0040353537 0.0010700263 0.010587968 -0.00050579384 0.02913025 0.005625725
0.037585214 0.03827387 0.007444173 -0.0013032928 -0.026727015 0.007873703 -0.029226512 -0.035172183
0.019973136 0.022076264 0.03504467 -0.007958431 -0.028251158 -0.024801716 -0.03697625 0.035973035
0.007593792 -0.026385218 -0.0252091 0.03262732 -0.022853822 -0.003695432 0.025133163 -0.031724248
0.008961979 -0.03096122 -0.0075060576 -0.039545182 -0.0075624324 0.019301277 -0.024417669 -0.005654633
0.0023844652 0.035442144 0.0052958615 -0.033191748 -0.0017438978 -0.016699303 0.026399195 0.0148058385
0.01797894 -0.03749728 -0.013138359 0.0032376386 0.015729979 0.0051222965 -0.035284247 0.0046905726
-0.036408007 0.0019353032 -0.029916555 0.01728037 0.023610115 0.021889836 -0.033028763 0.001610171
0.03543909 0.034036204 0.035281003 0.017837193 0.038211934 -0.023760945 0.020018138 0.03287048
-0.027483862 -0.009935377 -0.006409321 -0.025128819 0.0013568886 0.031930648 0.005404167 0.02724687
-0.03318749 0.019615948 -0.034095027 0.009774372 -0.004851155 -0.01902742 -0.01242985 -0.0322856
-0.0065902285 -0.03257736 0.0313456 -0.001980804 0.0019828826 0.006892696 0.02713009 0.011120494
0.031525202 -0.037355084 0.00079889596 -0.011183059 -0.00031153113 -0.030358102 0.011003397 0.02480562
-0.028127018 -0.0097050015 -0.0043314807 0.010543339 -0.010292085 -0.023748996 0.0033236481 0.03739156
0.02535285 0.014250673 -0.00048162416 0.000839103 -0.0027582198 -0.01002167 0.0005933009 0.027819738
-0.017956158 0.0079646595 0.02164897 0.025634944 0.01213602 -0.0050886385 -0.039546832 0.035499573
-0.039414752 -0.0098197665 0.012015913 -0.020046586 -0.0026996322 -0.03591036 0.018545564 -0.0069196224
0.010527704 -0.035280976 -0.005735576 -0.0045591593 0.004628513 0.023122817 0.015664116 -0.033307012
-0.014053574 -0.035482027 0.027367853 0.023800813 0.038930006 0.0056924224 -0.018740742 0.029033594
0.024100289 -0.034193277 0.013930868 -0.02408154 -0.03548828 -0.019238377 8.114427e-05 0.009328719
0.029292017 0.005608134 0.00047522038 -0.025891356 -0.013130231 0.032936506 0.010305487 -0.03309682
0.020062812 -0.010954421 0.025616936 -0.00742317 -0.0110078845 -0.028023027 0.01445682 -0.033274088
-0.03560715 -0.017375685 0.02997353 -0.020931268 -0.014067365 0.02811157 0.0033640899 -0.034347035
-0.028046226 -0.012604954 -0.038444225 0.02468358 0.015887119 -0.027117841 -0.0137262475 0.035961606
00000000: 3c49 163c f47b 1b3c e8b0 2c3c d248 00bd
00000010: b41c 303c d4a2 073d 8c02 233c 40eb 843c
00000020: 802d ceba ea35 eebc 64ff f83c ac11 09bd
00000030: 2011 213c e870 07bd d8a8 2e3c 8816 993b
00000040: 286b bf3c 9040 943b 909b c33b b88f e7bc
00000050: 8600 eabc 91eb b2bc 8651 133d 8b22 afbc
00000060: 586c f8bb 9b7a 95bc 71bc 13bd d81d 063d
00000070: 94f2 563c 589c c6bb 6653 d1bc d00a dbbb
00000080: 6874 00bd 1a67 a53c ef40 08bd dce2 2bbc
00000090: 90f9 25bb 70c3 54bb 98ed a63b 804a 48bb
000000a0: f9cb 1cbd f872 bd3c f9c8 8abc 5890 39bc
000000b0: ea8a 173d ac14 febc c8b4 bc3c 66c5 65bc
000000c0: 805e e6bb 9a5f a33c 9e27 20bc 5016 d7bb
000000d0: 80b7 85bc 70b3 7dbb f863 99bb a044 8eba
000000e0: 5422 183d fcd8 ff3c ecf9 e83c a871 e0bc
000000f0: d181 c3bc 6078 d7ba a0ae 7bbb e75e 09bd
00000100: c08d bbbb 3cc8 81bc 003b 843b 2040 8c3a
00000110: 2879 2d3c 4097 04ba 90a2 ee3c 0058 b83b
00000120: f4f2 193d 10c5 1c3d 40ee f33b 40d3 aaba
00000130: 9df2 dabc b400 013c 706c efbc b510 10bd
00000140: b49e a33c 48d9 b43c 008b 0f3d 1464 02bc
00000150: f96e e7bc f82c cbbc 6974 17bd 7658 133d
00000160: 58d5 f83b d025 d8bc 5183 cebc 3aa4 053d
00000170: f037 bbbc 102f 72bb 10e4 cd3c 49f1 01bd
00000180: 44d5 123c 62a2 fdbc 60f5 f5bb 21fa 21bd
00000190: 48ce f7bb b61d 9e3c 9007 c8bc 804a b9bb
000001a0: b044 1c3b c82b 113d e888 ad3b 12f4 07bd
000001b0: 8093 e4ba facc 88bc 2043 d83c 3094 723c
000001c0: 9248 933c bf96 19bd 4642 57bc 902e 543b
000001d0: 28dc 803c f0d8 a73b 3786 10bd 60b3 993b
000001e0: 9020 15bd 00aa fd3a 9013 f5bc 908f 8d3c
000001f0: 006a c13c 5052 b33c 2b49 07bd 600c d33a
00000200: 9428 113d 8c69 0b3d d082 103d 4e1f 923c
00000210: 1e84 1c3d 50a6 c2bc 14fd a33c 32a3 063d
00000220: d625 e1bc fec7 22bc 4805 d2bb f4da cdbc
00000230: a0d9 b13a b6c9 023d 7015 b13b d434 df3c
00000240: 9bef 07bd a0b1 a03c 3aa7 0bbd b024 203c
00000250: 70f6 9ebb 64df 9bbc 92a6 4bbc e83d 04bd
00000260: d8f2 d7bb d66f 05bd 3e64 003d 60d0 01bb
00000270: 40f3 013b 20dc e13b ec3f de3c bc32 363c
00000280: 9220 013d a501 19bd 006d 513a 2639 37bc
00000290: 0055 a3b9 8eb1 f8bc 9847 343c 2835 cb3c
000002a0: a26a e6bc ba01 1fbc 18ef 8dbb f8bd 2c3c
000002b0: 22a0 28bc 418d c2bc 90d1 593b e427 193d
000002c0: c8b0 cf3c a87b 693c 8082 fcb9 40f7 5b3a
000002d0: 40c3 34bb ee31 24bc c087 1b3a 38e6 e33c
000002e0: cb18 93bc 347e 023c 2e59 b13c 6000 d23c
000002f0: 28d6 463c 98be a6bb dcfb 21bd 0068 113d
00000300: 5d71 21bd 16e3 20bc 64de 443c bd38 a4bc
00000310: 50ec 30bb be16 13bd deec 973c 00be e2bb
00000320: 647c 2c3c c982 10bd 80f1 bbbb 0065 95bb
00000330: c8aa 973b 106c bd3c 0852 803c ef6c 08bd
00000340: f640 66bc 9a55 11bd 8c32 e03c ecf9 c23c
00000350: 1275 1f3d 8087 ba3b 2f86 99bc dcd7 ed3c
00000360: f86d c53c 400e 0cbd 4c3e 643c a646 c5bc
00000370: 295c 11bd cd99 9dbc 002c aa38 7cd7 183c
00000380: d0f5 ef3c 70c4 b73b 0027 f939 1c1a d4bc
00000390: 2e20 57bc 6ee8 063d 58d8 283c 8890 07bd
000003a0: c45a a43c 2c7a 33bc 9cda d13c 103e f3bb
000003b0: 6a5a 34bc 8c90 e5bc 4cdc 6c3c 694a 08bd
000003c0: ced8 11bd 7457 8ebc 0c8b f53c 0d78 abbc
000003d0: ce7a 66bc 3c4a e63c 1078 5c3b 7aaf 0cbd
000003e0: 33c1 e5bc 0285 4ebc b177 1dbd 3835 ca3c
000003f0: b425 823c 3c26 debc 0ee4 60bc 7a4c 133d

convs.4.bias f4 [100]
-0.006737821 -0.0052731745 0.02656649 0.025571644 -0.029397793 -0.025099792 -0.021870783 -0.0005229376
-0.026625272 -0.02891486 0.024795055 0.0047072433 -0.024929002 0.0030149966 -0.031598322 0.036756754
-0.035280243 0.01589344 -0.0015069917 0.006766785 -0.0076796114 -0.02772072 -0.038196035 -0.014191903
-0.021909297 -0.02758776 -0.015231876 0.02330944 0.026574947 -0.0004762262 -0.03525706 -0.0025582165
0.03266514 0.019060992 0.036354773 0.029145792 0.007879514 0.016907077 -0.018905941 0.024615698
0.0128480345 -0.03406102 -0.007082183 -0.0030974373 0.0011773407 0.03204488 -0.027757362 -0.022736005
0.021763083 0.03519647 0.039005704 -0.0022360198 0.017948419 -0.023346046 -0.027525295 -0.012296129
-0.038223248 0.027481161 0.007387437 0.037367932 -0.008082174 -0.0020207204 -0.013351813 0.030487195
0.027144894 0.039249405 -0.022903997 -0.0098396465 -0.0037449263 0.038585864 -0.02731495 -0.026648821
0.004388258 -0.027690958 -0.026546035 0.023589358 -0.0026737936 -0.038422853 0.024084188 0.039394647
0.024392016 -0.0077843033 0.030737847 -0.00041517615 0.0041363984 0.009845838 0.031995587 -0.03186609
-0.018172733 0.009197485 -0.023456013 0.015127715 0.036051944 0.000818938 -0.012224058 0.016960744
-0.0012704097 0.028904527 -0.0019612499 0.03550607
00000000: f0c8 dcbb 98ca acbb f8a1 d93c a07b d13c
00000010: a4d3 f0bc 149e cdbc 5b2a b3bc c015 09ba
00000020: 3e1d dabc dbde ecbc 001f cb3c 383f 9a3b
00000030: e837 ccbc 4097 453b 3e6d 01bd 408e 163d
00000040: 0482 10bd f632 823c 4086 c5ba e8bb dd3b
00000050: 40a5 fbbb 9016 e3bc 7273 1cbd 2885 68bc
00000060: 207b b3bc baff e1bc 1e8f 79bc 70f3 be3c
00000070: b4b3 d93c 00ae f9b9 b569 10bd c0a7 27bb
00000080: e2cb 053d cc25 9c3c bee8 143d 28c3 ee3c
00000090: 1419 013c b680 8a3c a2e0 9abc dca6 c93c
000000a0: 9080 523c 9183 0bbd a811 e8bb 60fe 4abb
000000b0: 0051 9a3a 7e41 033d 6863 e3bc dc40 babc
000000c0: 7e48 b23c 2c2a 103d 72c4 1f3d 308a 12bb
000000d0: 9008 933c 3540 bfbc ba7c e1bc b475 49bc
000000e0: fb8f 1cbd 2c20 e13c 5012 f23b 1e0f 193d
000000f0: 186b 04bc 106e 04bb 90c1 5abc 48c0 f93c
00000100: f85e de3c fcc3 203d 2aa1 bbbc 7836 21bc
00000110: 706d 75bb 360c 1e3d 9ac3 dfbc a14e dabc
00000120: 60cb 8f3b 26d8 e2bc 1277 d9bc 783e c13c
00000130: d03a 2fbb 4861 1dbd 344c c53c 485c 213d
00000140: c4d1 c73c 7813 ffbb f0cd fb3c 00ac d9b9
00000150: a08a 873b 7050 213c ce0d 033d 0486 02bd
00000160: fcde 94bc 0cb1 163c d326 c0bc 3cda 773c
00000170: 34ab 133d 00ae 563a 6a47 48bc 42f1 8a3c
00000180: e083 a6ba 30c9 ec3c 5088 00bb d06e 113d
