saved_models/CNN_model_softmax_final.pth (torch_old, 919761 bytes, 12 tensors)

convs.0.weight f4 [100, 1, 3, 91]
00000000: 7110 7d3d 1350 11bd 3525 e3bb 0e6e 313c
00000010: 800d d83c 519d 403d 626b af3d 05dd 1b3d
00000020: 89bb c63c 7658 48bc 041b c03c 8d97 383d
00000030: da25 36bd 528f 743d af5a aabd 5a61 24bc
00000040: b919 2d3d 3e43 563d ba63 c139 8b42 6d3d
00000050: 641c 3ebc 760f 85bd 0e3d f13b 39ae 883d
00000060: c65e 5fbd e72c 2f3c e07e 4f3d 28c0 35bd
00000070: 7add ebbc 69ae 763d a521 9abc e39c 18bd
00000080: 3cc1 15bd 9d6b b4bc 162c bfbc 2ca8 513d
00000090: 5a69 d5bb b596 9c3a 9502 5bbc cc81 80bd
000000a0: aefd 323d d13c 573c 2de0 5b3c 5700 833c
000000b0: 1887 b3bc 9974 0f3d bc51 26bd 83a8 273d
000000c0: 8115 2abd 15b1 40bb 1e4c c23b 1a0a 8d3b
000000d0: d3af b03b 7869 f6bc fd5c df3c 9a34 70bd
000000e0: 786b 86bc b79a 413d 6088 73bb c0c0 d3ba
000000f0: f85f 4cbd af90 733d f4ba 1f3c 8195 70bd
00000100: 0f6f 713d c0b4 6abd 58c0 da3b c21e b13c
00000110: 80ef 70bc 9024 dcbc 8cba dbbc d0d9 69bc
00000120: 82c0 77bd c62c cc3c 1e3f be3c 7ad4 be3c
00000130: 0d68 643d 295e 5ebd f842 68bd 9a1f c73c
00000140: 2801 c53b fcb4 603c 760a 843c 64e4 72bd
00000150: 16d9 a3bc 187a 50bd 48b0 a93b 8a65 c23c
00000160: b142 053d 0f96 653d 8bc6 113d cc36 263d
00000170: fb6d 7ebc 5ffa 15bb 7848 1b3d f9e2 5bba
00000180: 866e 943b bcb4 f73c c866 aabc c7ad c83c
00000190: ba72 22bd 837a 853c f333 52bd a9da 20bd
000001a0: d046 fdbc 4ef8 093d dc97 dcbc f5b0 36bd
000001b0: 2145 12bd 1cc5 c63c 1cb3 11bd c642 823c
000001c0: 0b95 9dbd 01a8 093d 9cf2 f9bb e32b 44bd
000001d0: a8fa 713d 4974 63bd 2f20 07bd 5a6e 543d
000001e0: 1f6c 603d 5550 34bd d172 72bc 3430 9b3d
000001f0: daf8 ebbc c257 34bb e0c2 9a3b f26d 5fbd
00000200: 715d 70bd 65cd be3c 9f96 6abd 56a1 9fbc
00000210: 6c68 7cbd 9f40 3f3d 3b56 333d a708 1c3d
00000220: 16b0 c03c 2f22 e8bc f53b 2f3d c407 733b
00000230: f99f 2a3d c36b cc3b ffa1 923c cd4a 293d
00000240: 1622 563d 3b28 36bd 5b67 353d 572a 633d
00000250: d31f 32bd 1d25 2a3d 56e5 abbc fa65 fd3c
00000260: c44f 13bd b9cd 593d 37eb 643d c5fc 463d
00000270: 1107 563d 7460 1b3c ecc8 13bd 50f4 0fbd
00000280: 8771 493d 3877 a7bb 18a8 8ebc fcd8 5abd
00000290: 4c5e 37bc 4001 c0bc 4e19 22bd 2889 09bd
000002a0: 0b40 0abd 2c95 66bc a8e4 d8bb aec0 ff3c
000002b0: b565 343d 34a8 573c a87b 863b 41ee 03bd
000002c0: d1b0 3c3d 700e 683b b0e4 dbbb ea16 17bd
000002d0: a2ce 913c 5743 093d e593 463d 97f4 7abd
000002e0: b519 103b a2e2 3fbc 238f 083d a875 083d
000002f0: 0d5c b6ba a34e bc3c ca00 8b3d 9cdf f4bb
00000300: f6ea c83c e70b 1fbd 1193 c83b 5a18 2e3d
00000310: 5ef5 f23c be44 02bd 1fb2 77bd d1e9 833d
00000320: ae87 453d 8f4c 0abd 7a50 693d c31a 5abc
00000330: e6e9 aabc 4fba 123d 9e19 55bd 5648 4f3d
00000340: fcbf 203d d308 94bd 956b 293d bc1b 6bbc
00000350: 167e 493d 6a8f 83bd 6d64 ef3b eda6 02bc
00000360: e718 033d c94a e53c 2c0b e4bc 02c5 483c
00000370: 5781 223c 6404 8dbb c7ad 823d ee8f 9a3c
00000380: 3444 ed3c cfea 743d 46ff b9bc 2a09 583d
00000390: 16ab 433d 6f4c b8bc 5217 09bd b91e 60bd
000003a0: 9062 323d e960 80bc 6d88 203c abf3 103d
000003b0: a4ad 89bc 6893 a3bb 5f1d 4c3d 1872 aebc
000003c0: 3a0d 8e3c c0df 8cbb b8ec f6bc b4a4 65bd
000003d0: fe17 923c bf3d 443d ca4b 8b3c c763 073d
000003e0: 8c06 6f3c 1ce6 533c f3dc 69bd 2fb6 6e3d
000003f0: e6ae b83c 565a 34bd 129d 1ebd a0b9 abbb
0.061783258 -0.035476755 -0.0069319257 0.010829462 0.026373625 0.04702503 0.085654035 0.038052578
0.024259346 -0.012228122 0.023450382 0.045066405 -0.04446969 0.059706993 -0.08318078 -0.010032976
0.04226086 0.05231022 0.0003688613 0.05792479 -0.011603449 -0.064970896 0.0073620146 0.06673855
-0.054533742 0.010691858 0.050658107 -0.044372708 -0.028792132 0.060224924 -0.018814871 -0.037258994
-0.036561236 -0.02202397 -0.023336452 0.05118577 -0.006512803 0.001194677 -0.013367315 -0.06274757
0.04369896 0.013137058 0.013420147 0.015991373 -0.021915004 0.035023306 -0.04060529 0.04093219
-0.041524414 -0.0029402424 0.005929484 0.0043041827 0.0053920536 -0.030079588 0.02726602 -0.058643915
-0.016408667 0.04726669 -0.0037160143 -0.0016155466 -0.04989621 0.059464153 0.009749163 -0.058736328
0.058943804 -0.057301283 0.006675761 0.021621112 -0.014705539 -0.026872903 -0.02682235 -0.014273122
-0.060486324 0.024923693 0.023223456 0.023294676 0.055763293 -0.054289017 -0.05670449 0.024307061
0.0060121007 0.013715025 0.01611827 -0.05929984 -0.020000976 -0.050897688 0.005178485 0.023730058
0.032534305 0.05605131 0.035589736 0.040579602 -0.015529151 -0.0022884829 0.03791091 -0.00083880086
0.004529777 0.030237548 -0.020800963 0.024496926 -0.039660193 0.01629377 -0.051319074 -0.03927103
-0.030917555 0.033684067 -0.026927881 -0.044602353 -0.035710458 0.024263911 -0.035571203 0.01590098
-0.07694443 0.033607487 -0.0076277982 -0.047893416 0.059076935 -0.05553082 -0.032989677 0.051863052
0.054790612 -0.044021923 -0.014797882 0.075775534 -0.028805185 -0.0027518128 0.004722938 -0.05454821
-0.058682863 0.0232913 -0.05727255 -0.01948611 -0.061623022 0.046692487 0.043783408 0.03809419
0.023521464 -0.028336613 0.04278179 0.0037083486 0.041656468 0.006238432 0.017899511 0.0413311
0.0522786 -0.04447196 0.04428802 0.0554603 -0.04348738 0.0415393 -0.02098338 0.030932415
-0.035964742 0.053174708 0.05588838 0.048580904 0.052252833 0.009483445 -0.036080286 -0.035145104
0.049180534 -0.0051106475 -0.017414138 -0.05342959 -0.011191916 -0.023438096 -0.039574914 -0.033578068
-0.033752482 -0.014073651 -0.006619055 0.031219807 0.044042308 0.013162661 0.0041040964 -0.03220964
0.046067063 0.0035408996 -0.0067106113 -0.036887087 0.017798726 0.033511486 0.048480887 -0.061268415
0.0021987979 -0.011711748 0.03333963 0.03331533 -0.0013912931 0.022986716 0.0678726 -0.0074729454
0.0245261 -0.03882971 0.0061210473 0.042503692 0.029658016 -0.03180384 -0.060472604 0.06441081
0.048225097 -0.03376442 0.056961514 -0.013312045 -0.020863485 0.03582221 -0.052026384 0.050606094
0.03924559 -0.072282456 0.041362364 -0.014349874 0.04919251 -0.064238384 0.007305673 -0.0079743685
0.03200617 0.027989762 -0.027837358 0.012254002 0.009918532 -0.004303502 0.06380802 0.01886746
0.028963186 0.059794243 -0.022704732 0.052743115 0.047770582 -0.022497384 -0.033469506 -0.0547168
0.043551028 -0.01567121 0.009798151 0.03538863 -0.016806431 -0.0049919374 0.049832698 -0.021294639
0.017340291 -0.004299134 -0.030142173 -0.056065276 0.017833706 0.04791045 0.017003912 0.03305414
0.014588963 0.01293328 -0.05709548 0.058279213 0.022544336 -0.044031464 -0.038724013 -0.005240634

convs.0.bias f4 [100]
00000000: f846 123d 83aa 7abc 87f5 2b3c 85a6 62bd
00000010: 8856 353c 32ea 75bd a631 0e3d 6703 6ebd
00000020: 9c30 a53b d24c 83bd fffc de3b 7e7c 9b3b
00000030: f71a 45bd 3519 53ba 5f28 393d c9ab 4dbd
00000040: cdfc 5abd c8d5 2ebd 3b0d 3abc d8f3 ddbc
00000050: 66f5 bf3b f0f6 fb3c af53 123d 291d 373d
00000060: 0629 993c 638b 4b3d 9338 a4bc 35b5 663c
00000070: 2377 3ebd 0ec5 49bc 0b0f e8ba b1c2 003d
00000080: 262a 87bd 53e4 66bd dda8 5ebd ad18 333d
00000090: 59cd 803c e6b7 0e3d 8bc8 223d 19f0 87bc
000000a0: 5155 423d e4b2 603c b100 c2bc 6796 36bd
000000b0: 9f61 d83c f4ca 08bd 5036 66bd 89f6 cb3c
000000c0: 79fc 47bd 0fa3 2d3d 5565 823a 0c59 48bd
000000d0: 07db f03c a9d4 313d d037 20bd a8d0 c3ba
000000e0: d638 4fbc bc61 61bd fc1b e4bc b1a6 293c
000000f0: c265 a2bb 1ae4 c2bc c68f 76bd d038 f93c
00000100: 0247 5fbd 48f7 063d ea1a aebc 435c 11bc
00000110: ae93 093d 2b32 adbc 58c5 193b 6d2d 05b8
00000120: 0dbc 963c 2d40 83bd c37f dd3c 9d12 3e3d
00000130: 15e2 9bba 80ca 97bc 5b07 c43c f559 87bd
00000140: f5c4 1cbd fc90 83bd 176f 5f3d 0d85 3d3d
00000150: a649 67bd e20b 85bd 91b4 ea3c a77a 63bd
00000160: eb92 5fbc 0a76 8bbb cc06 58bc b45f 80bd
00000170: d39b 053b c8f0 94bb f652 9b3c 8bea 33bd
00000180: 78e7 273d e6e1 093d ec02 4cbd 062a 02ba
0.035712212 -0.015299442 0.01049555 -0.055334587 0.011067994 -0.0600378 0.034715317 -0.058108713
0.005041195 -0.06411137 0.006805062 0.0047450652 -0.04812142 -0.00080527674 0.045204517 -0.050212655
-0.053463746 -0.042684346 -0.011355693 -0.027093813 0.005858111 0.030757397 0.03572434 0.044705544
0.01869632 0.049693476 -0.020046508 0.014081289 -0.046500336 -0.012315048 -0.0017704678 0.031435672
-0.06599836 -0.05637009 -0.05436026 0.043724705 0.015722917 0.034843348 0.039742034 -0.01659398
0.047444645 0.013714526 -0.02368197 -0.04457703 0.026413737 -0.033396676 -0.05620414 0.02489783
-0.04882476 0.042391833 0.0009948412 -0.048913047 0.029401315 0.0434157 -0.039115727 -0.0014939504
-0.012647828 -0.055024847 -0.027845375 0.010354684 -0.004955978 -0.023790408 -0.060195707 0.030422598
-0.054511078 0.03295067 -0.021253068 -0.008872095 0.033588104 -0.021142086 0.0023463573 -3.1751977e-05
0.018400216 -0.06408725 0.02703846 0.04640447 -0.0011892939 -0.018529177 0.023929289 -0.06608955
-0.03827377 -0.06424138 0.054549303 0.046269465 -0.05646672 -0.06496407 0.028650554 -0.055536892
-0.013645868 -0.0042560147 -0.013185214 -0.06268254 0.0020387068 -0.004545305 0.018960457 -0.04392485
0.04099223 0.0336627 -0.049807474 -0.00049653684

convs.1.weight f4 [100, 1, 4, 91]
00000000: a091 7abd 2b95 8cbc 12c1 393c 03a6 bb3c
00000010: 667d 02bd bdf6 873d 9b54 cd3c 0b22 283c
00000020: 7209 ef3c 2541 a5bc 3d28 423d 7a7d 03bd
00000030: ed27 efbb 439c 6dbc 1e21 7c3c 47ad 17bc
00000040: 606a 323d f5bc 9abc 5882 4a3d f62e adbc
00000050: 9310 b0bc 9e80 56bc 5cf0 b2bc 6388 b93c
00000060: 8141 8e3c b98f 8abc 1aed 02bd d757 f5bb
00000070: 1cd0 0abd 1a79 c1bc 1fae 2cbd bd93 81bc
00000080: 6492 a2bc d614 c13c cd88 883d 1a73 15ba
00000090: 1e58 6c3d ee9f a5b9 9eec bb3c ec31 943a
000000a0: 7014 c8bc 4676 c0bb ee4e 973b 5edc 16bd
000000b0: 6e28 8dbc 2547 e13c 5e5a 91bc 33b6 76bc
000000c0: 0e5e 8abc d90d 703c a6ef e4bc de01 473d
000000d0: 93e5 013d 14c5 8c3a b4a0 8d3d fc90 3c3c
000000e0: 2d59 f7bc 900c 8a3b 281b 93bb 0c09 04bd
000000f0: c054 10ba a2ae ba3c 8c06 d9bc 9bf0 503d
00000100: 60b7 bbbb fb08 1e3d acac d9bc 27a3 20bd
00000110: c9d4 243d 0ef7 1bbd 1eb2 0dbd 26a2 b13c
00000120: 4f85 4d3d ad3d 3ebd d406 57bc df07 0d3d
00000130: 862b b23c b446 4f3c c4fe 713c 3783 403d
00000140: d1b4 54bd 294b 44bd 957b 123d f08b c0bc
00000150: 374d 3e3d 28fd 993b 8a08 2ebd e441 7b3c
00000160: 5712 2bbd 5504 293d 84a4 4dbd 4391 f73a
00000170: e9c3 68bd 5bf6 663c 7afe d43c fa2d 9539
00000180: 620b 6abd 8708 243d 6ea8 db3c 933c 743d
00000190: 1a2a f33c 801a 3ebd 2ccb 383d d8c7 1abd
000001a0: abc0 813c e93d c7bc 151b 37bc 7a02 743c
000001b0: 3b3a 183d 2457 38bd 0d98 8dbd 1e54 813b
000001c0: 0d4b 83bd c22c 143d e48f feba 133a 7cbc
000001d0: fc15 e9bc 318f 4d3c 1c33 c5bb 2941 e33c
000001e0: daab 04bd 5560 1c3b b63f 923d c0bd c5bc
000001f0: 6e57 c6bb 5053 613d 170b 52bd 8077 0b3d
00000200: 4764 0a3b c047 dfbc 3418 14bc c0f0 7638
00000210: f33e 23bd 6793 1a3c 0e7b 6cbc a7c6 c13c
00000220: 2c03 91ba 43a6 f1bc 2432 4b3b d9f4 633d
00000230: 474e 353c 16ab d4bb cb6f 963d e829 20bd
00000240: 854c 283d a18c 673c 894d 51bd 3852 6cbc
00000250: 7c1b 153c e00e d7ba 9c3e 513c 29b8 453d
00000260: f663 ac3c 5c74 543c 330b 553d 3483 10bc
00000270: 5702 4a3d c168 153d 8ff9 493d 2011 46bc
00000280: d799 233d 091d 373d 5646 0dbd 5060 1fbb
00000290: 6c49 543c 1765 423d fb4e 553d 44d8 203c
000002a0: 6b78 25bd 10ce 653b c25e e73c 5ed5 903c
000002b0: f2e8 b03c 5532 493d 4ec1 33bd 7e38 2ebd
000002c0: 6899 16bc 5abc f43c 30cc cc3b 2e36 b63c
000002d0: 599b 2b3d c532 2b3d 03db 62bd fea7 b2bb
000002e0: dd85 8bbd f2e1 97bc 2fe4 e63c 8a5d 163d
000002f0: 3023 013d 9b67 33bd 72dd 163d aaa0 d6bc
00000300: 6625 20bb 7651 66bc e542 43b9 8477 093d
00000310: 0d27 0f3c dd7e 283d c5cc 423c cafd f53c
00000320: 0836 0bbc 406c 04bd b602 e13b ef2b 1dbd
00000330: 4120 d7bc 01d4 adbc d055 763d b473 55bc
00000340: bfee 913b 3127 493b 3112 86bd 6dbb 873d
00000350: 2f6f a83b 75b7 14bc 43e0 8b3d a60f 4bbc
00000360: 295c 473d 5569 62bd 0cf7 0ebd 8a18 45bd
00000370: ec80 ad3c 113b 7c3c ec26 193c 0b60 3dbc
00000380: a8a4 41bd f68c 60bd 0a1b 34bc c59a 1cbc
00000390: ae37 cabc 68c4 02bd c12d 5f3b 5902 ab3c
000003a0: c0f3 74bc b86b 223b a842 32bd 46d6 9b3d
000003b0: 0cfa 083d c4df 6d3c 9e7c 25bd d38d 4d3d
000003c0: d649 963c 16e2 92bc 6e90 a3bc 7284 c63c
000003d0: 760b c13c d59e 443d cdc1 f0bc de70 8b3c
000003e0: 805a d0b9 4275 b03c f073 a0bb 4e11 25bd
000003f0: 0e9d c1bc 53e7 2d3d c3ec 1dbd a044 583b
-0.061174035 -0.017160973 0.011337535 0.022906309 -0.03185787 0.066388585 0.025064757 0.010262023
0.029179309 -0.020172665 0.047401655 -0.032102086 -0.0072984607 -0.014502588 0.015388755 -0.009257621
0.04355848 -0.01888893 0.04944071 -0.021140557 -0.021492278 -0.013092188 -0.021843128 0.022648042
0.01736522 -0.016914235 -0.0319644 -0.007487278 -0.033889875 -0.023617316 -0.042158242 -0.015817517
-0.019845195 0.023569506 0.06666718 -0.00057010504 0.057701223 -0.0003159041 0.022939976 0.0011306382
-0.024423808 -0.0058734743 0.0046175634 -0.036831252 -0.017231192 0.027499745 -0.017743286 -0.015058088
-0.016890552 0.014651739 -0.027946305 0.048585765 0.03171308 0.0010739886 0.06915417 0.011509176
-0.03019389 0.0042129233 -0.0044893213 -0.03223519 -0.0005505793 0.02278835 -0.02649238 0.05101071
-0.005728647 0.038582783 -0.026571594 -0.039218094 0.04024199 -0.038077407 -0.034593694 0.021683764
0.05017596 -0.046445537 -0.013124187 0.034431335 0.02174927 0.012651134 0.0147702135 0.047000136
-0.051930252 -0.04792324 0.03576239 -0.023504227 0.046460357 0.004699368 -0.042488612 0.015335534
-0.041765537 0.041263897 -0.050205722 0.0018887896 -0.05682746 0.014096822 0.02600025 0.0002845375
-0.05713976 0.040047195 0.026813712 0.05962808 0.029683162 -0.04641199 0.045115635 -0.037788242
0.015838942 -0.024321513 -0.01117589 0.014893169 0.037164908 -0.04500498 -0.06913767 0.003946795
-0.06410799 0.036175497 -0.0019421545 -0.015394705 -0.028452866 0.0125463465 -0.0060180556 0.027741032
-0.032390453 0.002386113 0.07141058 -0.024138331 -0.006052903 0.055011094 -0.051280107 0.03404951
0.00211169 -0.027255893 -0.009038974 5.8875186e-05 -0.039854955 0.0094345575 -0.014433635 0.023654295
-0.0011063567 -0.029498225 0.0031005228 0.055653427 0.011066026 -0.0064901216 0.073455416 -0.039102465
0.0410886 0.01413265 -0.051099334 -0.014423899 0.009100791 -0.0016407631 0.012771275 0.048271332
0.021043759 0.012967195 0.052012634 -0.008820344 0.049318638 0.036476854 0.049310263 -0.012089044
0.039941635 0.044705424 -0.034490906 -0.0024318881 0.012956958 0.047459688 0.052077275 0.009817187
-0.040398043 0.003506545 0.028243426 0.017679866 0.021595452 0.049120266 -0.04388552 -0.042534344
-0.009191848 0.02987497 0.006249927 0.022242632 0.041896198 0.041796464 -0.055384647 -0.005452155
-0.06812642 -0.018540356 0.028184978 0.0367103 0.031527698 -0.043799978 0.03683228 -0.026199657
-0.0024436354 -0.014057508 -0.0001862157 0.033561245 0.008737338 0.04113661 0.011889641 0.030028243
-0.008496769 -0.032329798 0.0068667782 -0.038371976 -0.026260497 -0.021219255 0.06014043 -0.013028074
0.0044535096 0.0030693526 -0.065464385 0.066275455 0.0051402072 -0.009076943 0.06829884 -0.012393868
0.048671875 -0.055276234 -0.03490357 -0.048119105 0.021179639 0.015394942 0.009347659 -0.011558543
-0.04727617 -0.05482193 -0.010992775 -0.009558384 -0.024684753 -0.03192559 0.003405437 0.020875143
-0.014950693 0.0024783444 -0.0435206 0.07609229 0.03344159 0.014518682 -0.040402047 0.050184082
0.018345755 -0.017930072 -0.01996633 0.024233077 0.023565035 0.048003037 -0.029389286 0.017021593
-0.0003974028 0.021540288 -0.0048966333 -0.040299706 -0.02363446 0.042456936 -0.03855587 0.0032999888

convs.1.bias f4 [100]
00000000: f66b 56bd 3b60 0e3d 8098 bd3c 37cf 57bd
00000010: 7e80 6abd e3da adb9 36d6 e33c d8ff f23b
00000020: 53c6 e2bc c3d8 c53c 3a7f 1d3d 882b 053d
00000030: 1662 973c 29a8 463d 3209 4c3d fbc9 073c
00000040: 0b7a d93b 6463 823a 5ec6 94bb 4339 41bd
00000050: a3c7 f63c 72cb 85bc add3 eabc 8c9e 67bd
00000060: fbb2 263d 4db9 38bd 711f 83bb e24d 0f3c
00000070: 4d52 1ebd 8381 67b9 d02f 78bb c57d 6abd
00000080: 41d0 1f3d 2efc 19bd 0c5b 423c fd94 4cbd
00000090: df79 2ebd 8e5c b23c eb4a 71bd c067 cb3c
000000a0: f8af c53c ffff 583c 307b 53bd 338d d7bc
000000b0: df13 59bd 2cf4 fc3c 246a b43b d7f9 9bbc
000000c0: 945f b8bc a8b1 98bb 9fc3 0bbc 8883 35bd
000000d0: 0635 ca3c 193e 9b3c 4482 72bc 8e9e 36bc
000000e0: a7c9 15bc a02f c1bb 8f5e 96bc ad41 58bd
000000f0: 20c8 36bd bdd7 31bc 93f0 a63c 2aa7 56bd
00000100: bd06 f2b9 658d 89bd 9a45 32bd 3992 68bd
00000110: 378e 183c 928d 703c 7099 e53c 6a08 9c3c
00000120: 998f 2c3d 488e 6dbc f67a 723c a46d 2abd
00000130: 2fd5 0abc d528 afbc 77f1 5ebc 70e7 70bd
00000140: 4c6f 253d 769c 563c beef 343d f42f 69bc
00000150: 78ea 403c c16e 2ebd 7d88 75bc 2cc6 cb3c
00000160: 7dc5 c4bc fafe 7ebd af97 2b3c 0667 4d39
00000170: 5aac 2f3c c05e 35bd 5f0b 0bbb 661c dbbc
00000180: 70d2 4fb8 9171 523c 1006 e73a 7227 193d
-0.052349053 0.03475974 0.023144007 -0.05268785 -0.057251446 -0.00033160215 0.027812105 0.007415753
-0.027682459 0.024151212 0.03845141 0.032512218 0.018479388 0.048500214 0.049813457 0.008287902
0.006636863 0.0009947834 -0.004540249 -0.04717375 0.030124491 -0.016332362 -0.028665388 -0.056547686
0.040698033 -0.04509859 -0.004001551 0.008746596 -0.038652707 -0.00022078124 -0.0037870295 -0.05724885
0.039016966 -0.037594013 0.011862528 -0.049946774 -0.042596694 0.02177265 -0.058909338 0.024829745
0.02413176 0.013244628 -0.051631153 -0.026312446 -0.052997466 0.030878149 0.005505817 -0.019040031
-0.022506513 -0.00465985 -0.008530526 -0.04431489 0.024683487 0.018950509 -0.014801566 -0.011146201
-0.009142316 -0.00589557 -0.018355636 -0.05279701 -0.044624448 -0.010854659 0.020378387 -0.052405514
-0.00046162857 -0.06716422 -0.04352341 -0.056780074 0.00931125 0.0146821905 0.028027266 0.01904698
0.042129133 -0.0144992545 0.014799824 -0.041608468 -0.0084736785 -0.021381775 -0.013607374 -0.058814466
0.040389344 0.013098827 0.04417395 -0.014232624 0.011774652 -0.042586092 -0.014986155 0.02487477
-0.024019951 -0.062254883 0.010473176 0.00019588703 0.010722244 -0.044279814 -0.0021216494 -0.02674694
-4.954863e-05 0.012844459 0.0017625708 0.037391134

convs.2.weight f4 [100, 1, 5, 91]
00000000: 1119 d13c eebe 65bd a9bc bc3c 43a6 14bd
00000010: b45c 443d d6f7 dbbc d2cb cfbc 1b6f 0ebd
00000020: 3944 883b f12b 37bd 183a 1fbd 1cff 78bd
00000030: 00c1 9e3c ff70 45bc 951a 6cbd 5455 d13b
00000040: 79d1 323d 22b6 d33b 7066 3c3c 0cdc 823c
00000050: 44bd 80bc 7959 89bd 27ee f9bc 99b6 b2bc
00000060: d49b 43bd 4b27 283c 1d46 18bd 4af6 83bd
00000070: 550f 123c c2eb 75bd 788b ca3b 98a3 afba
00000080: 3fc8 d3bc 7957 903c a086 2cbb 6617 583d
00000090: 9fe3 8fbd 8dc0 eb3c 810f 2abd eab0 ba3c
000000a0: a1b0 5ebd 9c14 91bb 1309 303a 77a4 13bd
000000b0: faf1 cb3c 5337 dfbc f413 763d 48f3 db3c
000000c0: a4d8 153d 69c1 6ebd 2c7a 0bbd 5498 053d
000000d0: da60 c4bc 94d9 fbbc 9a41 d2bc 6805 773c
000000e0: 381f 993c ae35 1a3d 0b7a d8bc 14c9 cf3c
000000f0: 40f1 ca3c 43a9 35bd 90f5 313b f01a febb
00000100: e087 05bc e7bc d7bc f494 893c 22b0 103d
00000110: ecee 3e3d ed16 2abd 1a5b 90bc 5cb0 323d
00000120: e05b 3e3d 3722 9abc 98a7 b43c 503f a3bb
00000130: 78e1 943c 104e a63b c0df 27bb 5449 183c
00000140: 6acd fbbc e012 3b3d 7003 403d 6803 b93c
00000150: 5011 333b 90b4 5c3b cf4e f1bc 40ef 113d
00000160: 3ac0 3c3d 4a5c 3c3d 6c9b c9bc 9351 f53a
00000170: d282 83bc cafd 27bc c666 d0bc c6d2 f3bc
00000180: e0ca 21bc 0358 033d 13af a0bc 5094 913c
00000190: 2464 493d bda0 28bb d895 e73b 4ed9 9d3c
000001a0: 91d7 f73c dd61 94bd fc43 67bc 8fe3 ea3c
000001b0: 3b43 febc 3b51 db3c b016 0a3c c9b3 09bd
000001c0: e204 1dbb 27bf 653c 72aa 08bd a573 06bd
000001d0: dc1e 19bd 050b 21bd 9da2 a43c 02c8 4abc
000001e0: 63da 603c 72e4 afbb 98d4 c23c 8670 423c
000001f0: 3aa9 ccbc bac3 bf3b 93df 98bb f699 bebc
00000200: a3f2 b03c 8b96 8cbd e6e3 b13b c623 d83c
00000210: 61e2 b2bb befd cf3b f1e3 053d adc9 23bc
00000220: 764c ac3c b533 c73c bb2e 31bc ddb8 99bb
00000230: 0a01 b33c b421 1dbb 2383 10bd edc3 b03c
00000240: a61a 493d 7a55 0e3d 4825 f53c 2012 023d
00000250: de7c 19bd dc63 e33c 0492 133d 102d f03b
00000260: 9838 bdbb 5255 363d ec11 3b3c ec04 42bc
00000270: 4c00 05bd 4884 cc3b b32a f4bc b0f3 403b
00000280: 6ccc 01bd e3b8 e7bc 5eee 18bd e68c 063d
00000290: c470 dd3c 2e6a 2c3d c051 a53b 1e69 babc
000002a0: e857 e13b 5989 1dbd 0c80 443c 3043 423c
000002b0: 1bbc fbbc 745a 03bd 3c5d 0b3d 58f5 01bc
000002c0: ecd1 0e3c e0a4 5bbc 8e3e dfbc d070 2ebd
000002d0: 58e5 ef3c c5e1 b5bc 1bcf 43bc bd06 993b
000002e0: 621e 62bd 6eb5 5c3c 30d0 203d 84ba 483d
000002f0: b869 793d a294 df3b f4ea f9bb ae6f 433c
00000300: 5fb1 14bd 7317 943c dfdc 1d3c e20b 09bd
00000310: 2a2e 4cbd 4054 9dbc a986 b5bc b23e 0e3b
00000320: f857 60bd 54ba 953c 6de7 d2bb 0094 85bd
00000330: fcb5 16bd 4010 aa3b 7cca 2cbd 9b0a 33bd
00000340: 59e7 2a3d 402c 203a 1afc b63c ab3c 85bc
00000350: 76eb cfbc 91c8 b9ba 0ee9 ea3c 815e 57bd
00000360: 3b1d cabb 384d 03bc 65b4 163c 23cd 8b3c
00000370: 9190 44bc 3ed6 5f3c 0e32 013c 1e42 e6ba
00000380: e72e 9e3c 14d1 28bd 12d4 0d3c 6197 6b3d
00000390: d836 c3bc 1fe5 e5bb 8d2f 4a3d 747c 283d
000003a0: b8c5 a43c 460c bf3b f824 1b3d 9431 56bd
000003b0: 4593 363d 802e aabb 842b 8b3c 00d8 c438
000003c0: d7e3 b4bc 9ebe 8abc ecf8 1bbd 1484 3b3d
000003d0: 3ed9 0ebd 3a4b 0abd b85d 3e3d 88b7 a53c
000003e0: 4615 06bd c0ea f23b 2c6b 3a3c 26c1 f9bc
000003f0: e5df 13bd 547b 1f3d 5213 8cbc 7489 cd3c
0.025524648 -0.056090288 0.023039179 -0.036291372 0.04793997 -0.026851576 -0.025365744 -0.034773927
0.0041585234 -0.04471964 -0.038873762 -0.060790166 0.019379139 -0.012050866 -0.057642538 0.0063883457
0.0436568 0.006460921 0.011499032 0.015974067 -0.015715249 -0.06706519 -0.030509068 -0.021815585
-0.04775603 0.010263274 -0.03717624 -0.0644346 0.008914788 -0.06003929 0.0061811768 -0.0013400195
-0.02585232 0.017619835 -0.002632536 0.05275669 -0.07025837 0.028778339 -0.041518692 0.022789437
-0.054367665 -0.0044275057 0.00067152194 -0.036045518 0.024895657 -0.02724806 0.060077623 0.026849404
0.036583558 -0.05828992 -0.03405206 0.032615975 -0.023971964 -0.030743398 -0.025666047 0.015076973
0.018691644 0.03764885 -0.026425382 0.025364436 0.02477324 -0.044350874 0.0027154423 -0.007754676
-0.008150071 -0.026335193 0.01679466 0.035324223 0.046614572 -0.04152577 -0.017621566 0.04362522
0.046474338 -0.018815143 0.022052571 -0.0049819127 0.018173918 0.0050752237 -0.0025615543 0.009294827
-0.030737597 0.045672297 0.04687828 0.022584632 0.0027323551 0.003367696 -0.029456524 0.035628557
0.04608176 0.04598645 -0.024610244 0.0018716328 -0.01605359 -0.010253379 -0.025439631 -0.02976359
-0.009875029 0.032066356 -0.019614732 0.017770916 0.049167767 -0.0025730573 0.0070674233 0.019268658
0.030254157 -0.072452284 -0.01411533 0.028672962 -0.031037917 0.026772132 0.008428261 -0.033618722
-0.002395921 0.014022625 -0.033365674 -0.03282513 -0.037382945 -0.03931715 0.020097071 -0.012376787
0.013723942 -0.005367809 0.023783013 0.011867648 -0.024983037 0.00585219 -0.004665324 -0.023266774
0.021600073 -0.06864651 0.005428779 0.026384246 -0.0054591154 0.006347387 0.032688085 -0.009996814
0.021032553 0.024316648 -0.010814364 -0.004691227 0.021851081 -0.0023976387 -0.03528131 0.0215778
0.04909768 0.034749486 0.029925004 0.031755567 -0.0374726 0.027757578 0.036027923 0.0073295906
-0.0057745688 0.04451496 0.011417847 -0.011841994 -0.032470986 0.006241355 -0.029805517 0.0029442124
-0.031689093 -0.028286403 -0.0373367 0.032849215 0.02703131 0.04209345 0.0050451458 -0.022755202
0.0068769343 -0.038461063 0.011993419 0.011856839 -0.030729344 -0.032068685 0.034024462 -0.00793203
0.008717041 -0.0134060085 -0.027251508 -0.042588055 0.029284164 -0.022202382 -0.011951233 0.0046699927
-0.055204757 0.013470991 0.039261043 0.049006 0.060891837 0.0068231383 -0.0076268855 0.011928482
-0.036301967 0.018077588 0.009635179 -0.033458598 -0.049848713 -0.019205213 -0.022158938 0.002170485
-0.054771394 0.018277325 -0.0064362795 -0.065223694 -0.036794648 0.0051899254 -0.04218529 -0.043711286
0.041724537 0.00061101094 0.022337008 -0.01626428 -0.025380831 -0.0014174153 0.028675582 -0.05258036
-0.0061680353 -0.008014016 0.009198283 0.01706559 -0.011997358 0.013661919 0.007885469 -0.0017567312
0.019309474 -0.041215017 0.0086565185 0.057517413 -0.023829862 -0.0070158388 0.049361754 0.041134313
0.02011381 0.0058303205 0.037877053 -0.052293375 0.04457404 -0.0051935315 0.016988523 9.3862414e-05
-0.022081299 -0.016936596 -0.038079187 0.045780256 -0.034875147 -0.033763148 0.046476096 0.020229116
-0.03273513 0.0074132383 0.011378091 -0.030487608 -0.036102194 0.038935974 -0.017099056 0.025089957

convs.2.bias f4 [100]
00000000: 82d0 85bb a1cc 3f3c 989c 38bd 87aa 9ebc
00000010: 5cc6 b5bc ae7c 4239 e3b7 aabc 6b94 c83b
00000020: 69f7 64bb a565 f8bc c854 a83a 7a8f c23b
00000030: a6a2 4f3c 0aa3 a93c aec6 a6bc 67b4 2dbd
00000040: f971 24bc 828e 15bd 2767 c9bc f3d0 2abd
00000050: c3eb 1bbd 23a7 a83c 6430 00bd de28 54bd
00000060: 46ba ee3a 5f1f 6abd 2516 173c 738e 05bc
00000070: e0c9 d6bc 3592 56bc de16 fe3b 73d1 7f3c
00000080: 1696 22bd bbfc 853c f0e7 e53b 30a0 9f3c
00000090: 7269 d5bc 6200 c73a 89df 98bc 6a29 0f3a
000000a0: 382c 10bc a271 8c3b 7dac d83c dd85 31bd
000000b0: abbb 3ebd b638 a4bc 86b5 843b 0724 153c
000000c0: 6be7 6abd 8861 cbbc f52d 63bd ac4b 00bc
000000d0: 8185 103d 1c36 a03c 79ec 1abd 478b 50bc
000000e0: ea08 cb3b 051d b7bc 0851 7d3c 1e22 773b
000000f0: fba9 54bc 4578 c6bb 0081 1cbb e1ac 8fbc
00000100: 59fa 1f3d 0dd5 07bd c7da a03c 83f7 fe3b
00000110: 3791 343b ca70 c53c d97d 2fbd f749 53bd
00000120: d298 d73a 0eeb ba3c 4e4c 68bd 54c7 82bc
00000130: f317 c6bc e030 95bc 8a6a a4bc 84f6 a3bc
00000140: 281b 94bb 0e1e b8bc e542 de3b 8271 d8bb
00000150: b35a 61bc 4dae b6bc 4a16 ddbc 3049 dd3b
00000160: 5987 54bd 1812 4cbd 4242 31bd b6b6 e3bb
00000170: 780e ccbc b6ef 27bd 5bc1 293c 6250 18bd
00000180: c7a5 bd3c ebdc 6abc c8c2 10bc 6682 17bd
-0.004083694 0.011706502 -0.045071214 -0.019368423 -0.022189312 0.00018547729 -0.020839637 0.0061212084
-0.0034937507 -0.030321905 0.001284265 0.005937514 0.012673056 0.020707626 -0.02035841 -0.042408373
-0.010036939 -0.03651286 -0.02458532 -0.041703176 -0.038066637 0.02058751 -0.03129615 -0.051796786
0.0018213473 -0.057158824 0.009221588 -0.008151638 -0.026219308 -0.013096382 0.007754191 0.015613901
-0.039693914 0.016355863 0.0070161745 0.019485563 -0.026051257 0.0015182609 -0.018661277 0.0005461188
-0.008799605 0.004286007 0.026449436 -0.043340553 -0.046565693 -0.020046573 0.0040499596 0.009102828
-0.057349604 -0.02482678 -0.05546375 -0.007830542 0.03528357 0.019557051 -0.037823174 -0.012728519
0.006196131 -0.022352705 0.015461214 0.0037709544 -0.01297998 -0.0060568177 -0.00238806 -0.01753849
0.03905711 -0.033162165 0.019635571 0.0077809705 0.0027552375 0.024101634 -0.042844627 -0.05158421
0.0016448742 0.022817161 -0.056713395 -0.015964188 -0.024181342 -0.018211782 -0.020070333 -0.020015009
-0.004519839 -0.022475269 0.006782877 -0.006605328 -0.013754535 -0.02229991 -0.026988167 0.0067531094
-0.05188689 -0.049821943 -0.04327608 -0.006949271 -0.024909243 -0.04100009 0.010361041 -0.037186034
0.023150338 -0.0143348975 -0.008835502 -0.036989592

convs.3.weight f4 [100, 1, 6, 91]
00000000: 0124 e3bc cc21 a63c 0bf9 db3c 2680 df3b
00000010: 7acf b83a 75a0 06bc feb3 6cbc b916 fcbc
00000020: 8fae 883b 4d38 e93c 3f3d b6bb 62d7 46bd
00000030: 1afc 57ba 3664 0cbb bb8a 343d 3e02 7a3c
00000040: 310e 003d 8d77 46bc a866 223d da9b d43c
00000050: f429 24bd 1711 31bd e9d2 e3bb abfe 1e3d
00000060: 4ae2 3d3c 4d62 b73c f868 8bbb bc99 753c
00000070: 3f10 16bc 3fbf b4bb 4dfc 1dbd 1019 bc3c
00000080: 0423 443d e6a7 423b a451 08bd f9f5 45bc
00000090: 5627 08bd aace ca3c ea82 bebb c2f5 783d
000000a0: 8357 13bc 5059 573d 7d1e 22bd d56e 803d
000000b0: 4657 253c 49f2 5c3c 8d13 103c 0a88 64bd
000000c0: 8e50 8f3b 68c8 9338 482c 9bbc c9f5 34bc
000000d0: 816f d83c 7862 1abd 734a e43c 0e6c d6bc
000000e0: 5012 023b 064c a53c 436f 17bd 2e07 853c
000000f0: 403a 5b3b 0cde 8c3c a616 6bbc c4a5 1d3c
00000100: 1866 fe3b 8344 213d 4012 74bc a8d7 b3bb
00000110: af4e 003d 9951 1cbd 0e69 e73c c071 52bb
00000120: 32cb d83c 38fd 743c 4402 2fbd 38a2 173c
00000130: e66a 56bc 72a4 87bc 682f f23b e8c4 a7bb
00000140: fab2 a2bc 88bf a03b 981f d0bb 100c a6bc
00000150: 5de0 bfbc b825 64bc b0d0 0ebd 96a6 c4bc
00000160: 0641 04bd f9ac 95bc 5e18 a23c 3935 c63c
00000170: f019 b13c 73da 1c3d 70ad 6abd d164 943b
00000180: 1645 0b3c 137a dbbc 0a13 35bd 1afa 213d
00000190: 1cb9 363d 2d3c fd3c b5f6 7dbb e153 f53c
000001a0: 2933 8f3c ac97 8f39 c9cf 253d 7c78 e3ba
000001b0: f6db 12ba 8820 7bbc 75f1 863c 6ca5 3ebd
000001c0: 8816 553c 7c68 693d b4c4 973d f4b1 57bc
000001d0: 233f 2fbc 46da 573c 2939 e5bc 2532 0abd
000001e0: 6aae 02bc 8b10 57bd 5a5f aebb 65f6 44bb
000001f0: eb89 4a3c db77 81bc de21 bdbc 8325 c53c
00000200: 7467 82bb 0ce2 2dbc 3ee4 e33b 0580 f93c
00000210: ddc4 a3bc 9386 4fbd 3d79 ac3b d6bd 5a3c
00000220: 172f 23bc dce9 f8bc eaba b4bb e397 dfbc
00000230: 20ae 863c 292d 11bc fcb5 42bd 46c4 09bc
00000240: dfe5 2cbd 14c0 f03c 8a89 4bbc 74c3 b4bc
00000250: e8f5 023c 00bf 20ba 312a 093d 4d34 0e3d
00000260: ffe0 c1bc b3b4 85bc d418 503c 5048 673c
00000270: 0b7d c6bc a62b 98bc 8a09 c43c 1f59 13bd
00000280: 90cd 723b d8cc 663c c31a 0e3d 80dd 153a
00000290: 9e04 0dbd a013 873b e157 21bd 78e2 4f3c
000002a0: 30e2 97bb f082 593b 7e29 803c 07c5 2a3d
000002b0: 8c62 07bd a593 283d b82a 11bc 1296 b73c
000002c0: c08e 553a fede c53c cccd 8e3c 5bd2 243d
000002d0: 9dbb 13bd 1bcf 13bd 9a1c 793c 63bb 0c3d
000002e0: 3e3b b6bb e656 b23b 4b33 eebc 6aea 6a3d
000002f0: 7211 013d fee6 e7bc 9ba1 0fbb 262e d23b
00000300: 6986 3dbd 4bb5 18bd 879b 273d 3831 663c
00000310: 06d5 9fbc ba70 2dbd 5a68 933d 7b07 62bc
00000320: f6f0 e8bc 6a27 173d f8fc 333d a0dd 653d
00000330: 9c59 60bd 0371 713b 61a5 c93c d494 d13c
00000340: f028 a7b9 d845 b3ba ace2 623b b895 0cbd
00000350: 8153 313c 0486 1dbd f2d9 863d 73f4 513c
00000360: 3c81 86bc 15a4 ddbc 8984 a43c 290e be3c
00000370: a3c9 063c 873d c7bc 8a46 b63a 0518 97ba
00000380: a90f afbc 6d85 87bc a935 92bd a8ff 98bb
00000390: dc8e 123d 68d5 dcbc 7010 ed3b 58c8 81bb
000003a0: 53af 66bd 02b0 11bd 3592 d63c 1dd7 a43c
000003b0: e7a0 983b cc8b 10bc 4552 bbbc 2269 c43c
000003c0: f9e3 113d 50c5 593b c52a 073d 16c1 b83c
000003d0: 4ca9 123c b205 b03c d271 953c a89a 083c
000003e0: 5029 6a3b 0800 953b a357 e4bc bf12 213d
000003f0: 78be bebb 0045 b439 62d1 9bbc 746a f9bc
-0.027727129 0.020279787 0.026852151 0.0068206964 0.0014099919 -0.008216967 -0.01444721 -0.030772554
0.0041711996 0.02846923 -0.0055615003 -0.04854525 -0.0008239165 -0.0021422035 0.044077616 0.015259324
0.031263534 -0.012113464 0.039648682 0.025953222 -0.040079072 -0.04322919 -0.0069526327 0.03881709
0.011589596 0.02238574 -0.0042544566 0.014990266 -0.009159147 -0.0055159624 -0.03857069 0.02296117
0.047884956 0.0029702126 -0.033280984 -0.01208257 -0.03324064 0.024756748 -0.005813946 0.060781248
-0.008993032 0.05257541 -0.039579857 0.062711395 0.010091608 0.0134855 0.008793724 -0.0557938
0.0043736165 7.046835e-05 -0.018942013 -0.011044928 0.026420357 -0.037691563 0.027867531 -0.026174571
0.001984734 0.020177852 -0.03697134 0.016238775 0.0033451468 0.017195724 -0.0143486615 0.009622041
0.0077636354 0.03937198 -0.014896929 -0.0054883547 0.03132504 -0.038163755 0.028248336 -0.0032111257
0.026464079 0.01495295 -0.04272677 0.009254985 -0.01308701 -0.016557906 0.007390905 -0.0051199086
-0.019860733 0.004905645 -0.0063514225 -0.020269424 -0.023422414 -0.0139250085 -0.03486699 -0.024005216
-0.032288574 -0.018270956 0.01978701 0.0241953 0.021618813 0.038294267 -0.05729431 0.00452862
0.008500358 -0.026791608 -0.04420761 0.039545156 0.044610128 0.030912483 -0.0038751785 0.029947223
0.01748045 0.0002738809 0.040481362 -0.0017354633 -0.0005602235 -0.01532758 0.016472558 -0.046544477
0.01300586 0.05698441 0.07410565 -0.013164986 -0.010696205 0.013174599 -0.027981358 -0.033739228
-0.007976154 -0.05250601 -0.0053214254 -0.003005409 0.012361984 -0.015804222 -0.023087438 0.024065739
-0.0039796177 -0.010612976 0.006954699 0.030456552 -0.019991333 -0.05066545 0.005263476 0.0133509245
-0.009959958 -0.03038495 -0.005515446 -0.027294105 0.016440451 -0.008860865 -0.047536835 -0.008408612
-0.04221141 0.029388465 -0.012422929 -0.022065856 0.007993199 -0.0006131977 0.033487502 0.034717847
-0.023666857 -0.016321516 0.012701232 0.014116362 -0.024229547 -0.0185755 0.02393033 -0.035973664
0.0037048794 0.0140869245 0.03469349 0.0005716905 -0.03442823 0.0041222125 -0.03939045 0.012688272
-0.004635118 0.0033189617 0.015644785 0.041691806 -0.033052966 0.04115643 -0.008860283 0.022410426
0.00081465766 0.024154183 0.017432116 0.040239673 -0.036067594 -0.036086183 0.015204573 0.034358393
-0.0055612614 0.005442488 -0.029077193 0.05735246 0.031510778 -0.028308388 -0.0021916393 0.0064141927
-0.04627076 -0.03728227 0.040919807 0.014049821 -0.019510757 -0.042343833 0.07197638 -0.013795729
-0.028435212 0.036902823 0.04394242 0.05611956 -0.05477296 0.0036841042 0.024614992 0.025583662
-0.00031883223 -0.0013677431 0.003461997 -0.03432247 0.010823132 -0.038457885 0.065845385 0.012814629
-0.016419046 -0.02705578 0.020082729 0.023200111 0.008226785 -0.02432133 0.001390652 -0.0011527544
-0.021369772 -0.016543115 -0.07139141 -0.0046691485 0.035780773 -0.026957229 0.0072346255 -0.0039606504
-0.056319546 -0.035568245 0.026192764 0.020122105 0.004657853 -0.008822393 -0.022866378 0.023975912
0.035617802 0.003322918 0.032999773 0.022553008 0.008951496 0.02148709 0.01824275 0.008337654
0.003573019 0.004547123 -0.02787382 0.03932452 -0.0058210455 0.00034383684 -0.01902074 -0.030446269

convs.3.bias f4 [100]
00000000: 5ae6 983c 4232 22bc 8e75 0b3d abdd fa3c
00000010: 9a94 eebc 2cbb 15bd eca0 4d3a b014 aa3c
00000020: f952 0cbd 9df3 4e3c 5973 8c3c b69d 47bd
00000030: 1761 23bd e97a 3bbd 6f61 4abd 2d07 a23c
00000040: 3a95 63bc cae2 4dbc 69e7 d9bc 8212 cb39
00000050: c92c 7ebc 1d65 adbc 6d10 2cbc 12c4 c7bb
00000060: 8503 ccbc 27f7 8fbc 85bb 963c 5993 26bd
00000070: 67c8 4cbd c67c c5bb f249 0d3d 8bae 183c
00000080: 0a95 8a3c 55ea 483c 6da6 9a3b f1e0 38bd
00000090: cd49 22bd 3896 08bd 5dbe 9c3c ea5e febc
000000a0: fe9c 46bb a42b 813c be30 a93c 4766 333c
000000b0: 178d 8f3b a788 1bbd ab56 3cbd 2cec bcbb
000000c0: 0e4c 273c 938e 053d 37eb 933c dd45 173c
000000d0: b42e 10bd 103e a83c c722 3c3c 570b 3bbd
000000e0: ef11 40bd 6a79 a83c e3da c7bc 0ac1 30bd
000000f0: 5570 99bb bf31 9dbc 9630 11bd 4752 e0bb
00000100: aec0 b6bc a4ef 2dbc 1aaa 43bd 8023 48bd
00000110: 7455 333c e80c d03c 7e09 2cbd 6a9c 9e3a
00000120: 6f10 d0bc c086 9c3c f5ab 7a3c 9807 1bbd
00000130: 1aa1 b2bc ae01 a33c 9f47 e33b 7de9 5cbc
00000140: b48e 9fbc 6891 e43b 9de3 f9bb 830a a03b
00000150: 7b5c a7bc 1249 29bd 95a6 2fbd 3df4 4bbc
00000160: 339c bbbc 993d dabc f187 51bd fc92 d3bc
00000170: b4b3 e73c e64b 3cbc 9972 f8ba 7475 49bd
00000180: d632 e43b 1773 98bc 0232 41bd da04 a2bc
0.018664528 -0.009899678 0.034047656 0.030623278 -0.029123593 -0.036555454 0.00078441086 0.020761818
-0.034258816 0.012631324 0.017144846 -0.04873439 -0.039887514 -0.045771513 -0.049409326 0.019778812
-0.013890559 -0.012566278 -0.026599603 0.00038732967 -0.015513607 -0.021166379 -0.010501963 -0.0060963714
-0.024904022 -0.017573906 0.018399963 -0.040667865 -0.049995806 -0.006026837 0.034494348 0.009318958
0.01691677 0.0122629 0.0047195465 -0.045136396 -0.039621163 -0.033346385 0.019133741 -0.031051118
-0.0030305977 0.01576788 0.020653125 0.010949678 0.004380833 -0.03797212 -0.04598109 -0.0057654586
0.010211004 0.032606672 0.018056495 0.009232965 -0.03520079 0.020537406 0.011482901 -0.04566511
-0.046892103 0.020565707 -0.024396366 -0.043152846 -0.0046825805 -0.01918876 -0.035446726 -0.0068457457
-0.022308674 -0.010616217 -0.047769643 -0.04886198 0.010945667 0.02539678 -0.04200124 0.0012101058
-0.025398461 0.019107223 0.015299787 -0.03784904 -0.021805335 0.019898262 0.006936028 -0.013483402
-0.019477226 0.0069753416 -0.0076260106 0.0048840656 -0.02042984 -0.04132945 -0.042883474 -0.012448368
-0.02290163 -0.0266407 -0.051155034 -0.025826924 0.028283931 -0.011492705 -0.0018955051 -0.049184278
0.006964068 -0.018609567 -0.04716683 -0.019777704

convs.4.weight f4 [100, 1, 7, 91]
00000000: 27fb 643c 0e44 37bd 6c90 1e3d 2703 7b3d
00000010: 43dd 9bbd 16ca 95bc 4841 1f3d 7813 08bd
00000020: a066 edbc 6512 91bc 3d31 1e3c 453a 1abd
00000030: 7933 26ba ba96 3fbc 2e26 84bb f9ce e0bc
00000040: d538 07bd 6e69 fe3b 9ae9 fb3c fb8f 4a3d
00000050: 338c c6bc 58e6 77bd 9cda fd3c d8d6 b13c
00000060: 3ce0 47bb 10cf 07bc ce8d 373d 5ff9 313c
00000070: 74c5 38bc 563b 263d 431c 8ebb 86bd 9bbc
00000080: 2a1d c4bc dd1a 493a 4aff b73c 7680 95bc
00000090: e5c8 f9bc a4d2 ccbc 22af 16bd def4 95bc
000000a0: 2c6e 413b 4266 db3c 838c 8a3c ade0 ab3b
000000b0: 2ba6 2c3d 4156 e73c 7510 f53c 54d0 7fbc
000000c0: a7ca 323d 1de7 a6bc 6b3d 8bbc 33c9 16bd
000000d0: 5d4d 71bb 1901 87bc 0ea5 1ebc 0e08 143d
000000e0: 8872 96bb 82af d4bc 4413 ebbc dc12 00bd
000000f0: def8 e0bc 799c 06bd 98f5 1b3d 6b2c f8bc
00000100: 6c3f 953c a99b 95bc cf1f f3bc 73e2 d8bc
00000110: 4805 ef3c b62c 29bc 20f2 e5bb 489c c63b
00000120: c808 ed3c 2bcc a6bc 3243 01bd 38d0 163c
00000130: e678 b4bc 1a34 05bd d806 4a3c 58c5 cd3b
00000140: b302 19bd d01a 023d b004 61bc 227d 8b3c
00000150: 0470 393c a2ed a5bc 401e 2a3c 9eea 14bd
00000160: 64b5 c0bc c85d e43c 9e1a d3bc 5f55 cb3b
00000170: 7fd8 873c ca26 3d3d c1ce 83ba fed5 31bd
00000180: 479d 9ebc c48d 463c 7b75 a8bb 2890 2ebc
00000190: e956 093c 9b21 f23b 878d c8bc 1ca8 1d3d
000001a0: b4cf d2ba 2fe5 60bc 2366 8fbb 99a5 cb3c
000001b0: 14ae 8abc 79f0 1e3b aadf 26bb 9265 0bbd
000001c0: 07c0 f3bc 8b5a ea3c cc7b 35bd 1eb5 00bd
000001d0: 83c9 c5bc 5185 083d 85ae 64bc b9db bcbc
000001e0: 56a9 683d 3c99 21bd c854 5ebd 8921 0bbd
000001f0: 1dbf ecba 9d0d 923b 3210 28bc 7059 e9bc
00000200: a81e 03bc 2f3f 41bb 3883 56bc 9918 073d
00000210: b943 18bd 8593 68bc b40d edb9 2660 e83c
00000220: ef9d 153b 7b51 cd3c c799 033d 30e4 ddbb
00000230: db9d e1bc e0dd 223d 552f 82bd 556a 2e3c
00000240: 4543 a83c 49ab e3bc 30e8 093c b93c 96bc
00000250: e195 03bd f845 643c b8df 0f3c e842 c23c
00000260: 8599 a1bc 1607 ac3c 5e69 a73c 8c98 0e3c
00000270: 503e 013d 156e 03bd 183d ac3b 5ef1 213d
00000280: a41f 073d 4860 d33c 6026 6a3c e8cf 443c
00000290: 88c4 14bd f62b 213d 6059 48bb f872 103d
000002a0: 74b2 103d 46f9 31bc b8b7 20bc 0c9d 183d
000002b0: b371 cfbc 6859 6a3c 6ed4 a13c c012 0d3a
000002c0: 868b 943c b8d1 99bb b010 aa3b 28f4 2d3c
000002d0: be64 76bc 03e0 06bd cf10 073c 32d7 c43c
000002e0: cdb9 323b 983c ff3c b6e0 b4bc b867 96bc
000002f0: 3a6c ed3b c1c8 0fbd 8fd5 f93c 92e0 4d3c
00000300: 976e 2cbc 7a74 cebc 6e5e abbb f566 15bd
00000310: 00bb 133d 9bbc 2a3c 28be 16bd 12de 7d3b
00000320: 0f1d 2d3d 1ce0 1abd 3402 11bd 8bf6 233c
00000330: d8a7 9138 165b 5a3b 552a c13c 986f ca3c
00000340: 853e 07bd 20bc 173d f50c cabc b366 e23c
00000350: 8b96 8e3c 0ba7 07bd b69a c03c cd10 1c3d
00000360: 6ddd c0bc 7a7f 9dbb 950d b2bb 344d 033d
00000370: 25ec 07bd ee24 253c 1e60 013c bf04 e8bb
00000380: 6060 0e3d 8ae8 81bd de82 cebb ec4a d7bb
00000390: da44 d63b 280e f13b 30fc 923c 5c75 173c
000003a0: ad39 d63b cda1 653c 32c8 1c3b 36a6 5139
000003b0: e90b 78bc 8b57 c6bc 9c18 1a3c 8ced cfbc
000003c0: eec6 863c fe9f c9bc 18d7 3fbc b2bc 20bd
000003d0: 1cf7 453c d05d 873b d0c9 fabc fe79 5cbc
000003e0: 8cce 903c d232 993c 226a e8bc 48e6 133d
000003f0: 8807 583c 6220 17bd 0a52 b63c b0fd 7a3b
0.013975895 -0.044742636 0.03871195 0.061282303 -0.07610562 -0.018284839 0.038880616 -0.03322169
-0.0289796 -0.017708967 0.009655294 -0.037653226 -0.00063400675 -0.011693651 -0.0040328717 -0.027442442
-0.033013184 0.007764033 0.030751038 0.049453717 -0.024236774 -0.060522407 0.03098803 0.02170889
-0.0030498644 -0.008289114 0.04481297 0.010862677 -0.011277545 0.04058393 -0.004336865 -0.01901127
-0.023939688 0.00076715444 0.022460598 -0.018249732 -0.030491302 -0.025002785 -0.036788113 -0.018305238
0.002951513 0.026782159 0.016912704 0.0052452893 0.042150658 0.028239371 0.029915074 -0.015613634
0.043650296 -0.020373875 -0.01699706 -0.036812972 -0.0036819794 -0.016480016 -0.009682907 0.036140494
-0.00459129 -0.025962595 -0.02869571 -0.031267986 -0.02746242 -0.032864068 0.038076013 -0.030294618
0.018218718 -0.018262701 -0.029678253 -0.026475167 0.029177323 -0.010325601 -0.007017389 0.0060611106
0.028934851 -0.020361027 -0.031558223 0.009204917 -0.022030305 -0.03252039 0.012330733 0.0062796287
-0.03735609 0.03176385 -0.013734028 0.017027441 0.0113182105 -0.020254914 0.010383189 -0.03635656
-0.023523994 0.02787675 -0.025769528 0.0062052454 0.016582726 0.04617957 -0.0010056124 -0.04341697
-0.019362105 0.0121187605 -0.005140958 -0.010654487 0.008382537 0.00738926 -0.024481548 0.0384904
-0.0016083629 -0.013726517 -0.0043761893 0.024859237 -0.01692871 0.002425222 -0.0025462904 -0.034032412
-0.029754652 0.028607627 -0.044307515 -0.031422727 -0.02414394 0.033330265 -0.013957624 -0.02305399
0.056802116 -0.039452776 -0.054280072 -0.03396753 -0.0018062327 0.0044571892 -0.0102577675 -0.02848503
-0.0080029145 -0.0029487123 -0.013092808 0.032982443 -0.03717396 -0.014195328 -0.00045214372 0.02836616
0.0022829731 0.025063267 0.032129075 -0.006771587 -0.027541092 0.039762378 -0.06356684 0.010645469
0.02053989 -0.027791636 0.008417174 -0.018339502 -0.032125358 0.0139326975 0.008781366 0.023713544
-0.019726524 0.020999473 0.020435985 0.008703362 0.031553566 -0.032087404 0.0052563064 0.039536826
0.03298916 0.025802746 0.014291376 0.012012459 -0.03632024 0.039348565 -0.003057085 0.035265893
0.035326436 -0.010862654 -0.009809427 0.037259147 -0.02532277 0.014303543 0.019754615 0.0005381517
0.018132936 -0.00469419 0.0051899776 0.010617293 -0.015038667 -0.032928478 0.008243754 0.024028394
0.002727139 0.031156823 -0.022079807 -0.018360004 0.0072455676 -0.035103563 0.03049734 0.012565749
-0.010524414 -0.025202025 -0.0052297628 -0.03647514 0.03606701 0.010420944 -0.03680244 0.00387371
0.04226404 -0.037811384 -0.03540249 0.010007511 6.945402e-05 0.0033318452 0.023579756 0.024711415
-0.033018608 0.037044644 -0.024664382 0.027636861 0.017405769 -0.03311829 0.023511272 0.03810196
-0.023543084 -0.004806456 -0.005433748 0.03205605 -0.03318419 0.0100796055 0.007896451 -0.007080644
0.03475988 -0.063431814 -0.0063022217 -0.0065702107 0.0065389695 0.007356424 0.017942518 0.009244289
0.006537637 0.014015627 0.0023923037 0.00019993712 -0.015139558 -0.024211666 0.009405281 -0.025381826
0.016452279 -0.024612423 -0.011708997 -0.039242454 0.012082841 0.0041310564 -0.03061381 -0.01345682
0.017676614 0.01870099 -0.02837092 0.036108285 0.013185389 -0.036896117 0.022255916 0.0038298182

convs.4.bias f4 [100]
00000000: 8554 22bd 9e8f a5bb 87a8 dabc 2e17 653c
00000010: 93d1 63bd d15b 44bd 0df3 e83c 624b b23c
00000020: 17d9 533c 2594 f3bc 3131 8a3c 5f7e 9d3c
00000030: b348 af3c 1a46 3cbd 1744 ad3c 27ce e13c
00000040: 1fa6 b73c fa4a 503c a06e 99bb 2824 46bd
00000050: 1e3e e2bc 84eb b5bc 905d fcb7 da6c e5bc
00000060: d6d7 9cbc 873d 64bd 657d 84bc 66aa 723b
00000070: e9c5 93ba b12f 853b c356 b1bc 9bc2 14bd
00000080: 64d2 32bd d137 46bd c51b 903c a19c a53c
00000090: 9c6e 29bc fd0f b9bc 7295 cf3b 1016 97bc
000000a0: fc07 723a adc3 d2bb bd3a 093d 5b03 96bb
000000b0: f417 d839 bea1 32bd 19e5 2abc 0df1 e4bb
000000c0: 791e c3bc aa63 6fbc 88c1 d13c 0c22 f73c
000000d0: 7732 54bd 83b5 f7bc 71dd 78bc d569 033d
000000e0: acba 37bd 2a7b a93b 5390 54bd 3751 debb
000000f0: 9e87 d23b 1f6f c6bc 4df1 ecbc 07e0 36bd
00000100: 3472 9c3c 7a41 923c d04f 223b bf57 ffbc
00000110: b050 d4bc 6f12 c1ba f7dc b6bc 2545 a1bc
00000120: 43e9 09bc 5316 5ebc f6d7 4cbd 3aea 9dbc
00000130: 30a0 f53c e9b7 7fbc 0bc6 993c ee26 03bc
00000140: 36be 873c 8a71 b43c 41e6 3fbd 6e95 f9bc
00000150: 637c aabb 3664 92bc 5afd 3dbd b6bd 4f3c
00000160: 5e8b dbba 50db 8fbb 65a8 5fbc 3a89 bd3c
00000170: bcba 1abd ce2a a4bc 2e12 f5bc 63ba d73b
00000180: e4d9 b23c 31f8 f1bc 907f 8cbc 0b4a 9e3c
-0.039631385 -0.005052521 -0.026691688 0.013982577 -0.055619787 -0.047939125 0.028436208 0.021764461
0.012930176 -0.029733727 0.01686916 0.019225297 0.02139697 -0.04596529 0.021150632 0.027564121
0.02241808 0.012713188 -0.004682377 -0.048374325 -0.02761751 -0.02220703 -3.008431e-05 -0.028006006
-0.019145887 -0.05572274 -0.016173074 0.0037027835 -0.0011274192 0.004064523 -0.021647817 -0.036318403
-0.043657675 -0.048393074 0.017591367 0.020216288 -0.010341313 -0.022590632 0.006334954 -0.018443137
0.0009232757 -0.006432018 0.033503283 -0.0045780367 0.00041216577 -0.04361128 -0.010430598 -0.0069867433
-0.023818241 -0.014611164 0.025604978 0.030167602 -0.05180594 -0.030237919 -0.0151895145 0.03208335
-0.04485576 0.005172153 -0.05189545 -0.006784584 0.0064248582 -0.024222909 -0.028923655 -0.044647243
0.019097425 0.017853487 0.002476681 -0.03116977 -0.025917381 -0.0014730225 -0.022322161 -0.019686291
-0.00841743 -0.013555127 -0.050010644 -0.019276727 0.02998361 -0.015607812 0.018771192 -0.008004887
0.016570192 0.022026796 -0.046850447 -0.030466761 -0.0052028163 -0.01787005 -0.046384193 0.012679508
-0.0016749909 -0.0043901578 -0.013650988 0.023136724 -0.03777574 -0.020039942 -0.029915895 0.0065834983
0.021832414 -0.029537292 -0.01715067 0.019322416
