saved_models/CNN_model_softmax.pth (torch_old, 919761 bytes, 12 tensors)

convs.0.weight f4 [100, 1, 3, 91]
00000000: 3259 adbc 1226 c5bc 6888 17bd a85f 5f3c
00000010: b940 463d 6edb 6a3d ffc1 f43c 6447 5ebd
00000020: a2e4 abba aae5 8cbd 57d7 e2bc a9ed fa3c
00000030: 87ee 763c f83c 443d 9648 0fbd d718 933c
00000040: 7884 c6bc ac9e 753c 0dfc 6f3c 89e0 4abd
00000050: 7d4f 223d 694b 01bd 2655 a3bd dc6c a7bc
00000060: a87b ca3c 995c 713d 7429 003d 57bc 3f3d
00000070: d015 753b 6031 02bd dad7 99bd eedc 713d
00000080: 5e17 943c 0599 2f3d fd8d 373d ce08 833d
00000090: 10a2 db3c 8f26 19bd 5a40 d4bc 4236 aebc
000000a0: c3c6 8c3d e0f9 1d3d f5cd 3abc 06de 3d3c
000000b0: e450 13bd 6506 493c 564a 453d 76f9 f43c
000000c0: ce9b 5cbd 031a 1fbd 5d22 14bd ad9f 92bc
000000d0: 9b9d a43c 2067 e03c 28d2 933c aa19 d93c
000000e0: 2e9c 80bc b8ae 853b 67b7 f1bc 54a8 473c
000000f0: 80d1 de3a 6985 483d 4a77 45bd e2dc a43c
00000100: 1616 fc3c f816 bebb ec21 2e3c f09f 4dbb
00000110: c3d1 363d 6d39 3cbd 6b91 42bd 51ab 2b3d
00000120: 106e 443b 2ba3 213d 404b 833a 408a 9bbc
00000130: 4d43 6a3d 2876 cebc e405 173c daf2 a2bc
00000140: 56ca 21bd 6e56 c5bc 1ab5 c43c b81e 3cbc
00000150: 2c67 1d3c 0ebb dfbc 6585 343d 50f4 633b
00000160: dbc2 043d dc82 3c3c 8198 133d 5426 543c
00000170: 9bdc 653c 9a37 b6bd be4b 0cbd 04d7 263d
00000180: d86e 683c c1f1 2fbd af6b 173c 0cb8 1abc
00000190: bd83 1abc 1e7c c43b 6199 d9bc 7847 823d
000001a0: 1ecd 1cbd 7ad0 443d 9adc 953c 9a18 b6bc
000001b0: 78a6 3bbb 5809 fd3b a47e 26bd 3300 50bc
000001c0: 1716 e0bc ffce 4e3b 1c7a 2c3d 5abb 8bbd
000001d0: 84c0 2b3d 2c09 df3c 4ff9 b4bc 06a5 603c
000001e0: 29dd 3f3b b9f3 bc3c 7081 11bd 6cd5 eabc
000001f0: 2498 413d 4beb 3c3c 02e4 1abd 8ad1 6d3d
00000200: b08d 4cbc e0e8 5cbc f389 953c 84f2 7f3c
00000210: 7db8 39bc 24de 043d b512 81bc c9a9 923d
00000220: baaa 6b3d 19a5 a23b 7418 66ba 93fc b4bc
00000230: 40d1 1dbd 7838 d8bc fdfa 993d 9b39 d7bc
00000240: 7ed2 aabc 962f 433c 4750 443d 994d 6cbd
00000250: 3bcb 73bd 053f 563d eeb4 95bc 26e4 893c
00000260: 4406 70bc 70db 85bb 85fa 3f3d 8ce2 71bc
00000270: bccc 00bd c63d 8a3c 9a56 e53c 1d41 333d
00000280: 81a8 573d 2880 bd3b 8f0c 6d3d da44 d13c
00000290: 9c7f 59bc fbbb 733d 0427 6bbc efb8 383d
000002a0: 3c3f 97bc e4e3 4a3c df70 623d 3221 13bd
000002b0: bc99 d9bc db1e 6c3d 440d 38bd 602b f2ba
000002c0: cec1 0ebd cd1c 053d ae51 f03c 7801 b7bb
000002d0: d89c 813b 0d7a 0a3d 810c b6bc c9c1 d83c
000002e0: 35ef 0dbd 0987 1abd 5659 0fbd d630 9cbc
000002f0: ca43 1c3d 1c5b b53d cd99 5ebd c5b7 633d
00000300: 9d9a c93c 1065 223d 6716 1bbc 518e 783d
00000310: 0569 85bd 3bfb 8f3c 90a3 19bd 8bdd e53b
00000320: 8ba9 73bc ee1b 203d 0d60 6a3d ef1d a5ba
00000330: b368 983c 3873 90bc 1e93 243d bdbd 163a
00000340: 305c d3bc 779b ff3c 1da6 c13b 1528 b43d
00000350: 879b 9abd c064 b63c 9fe2 33bd c32c 10bd
00000360: 87f2 34bc bb23 793d 0738 9439 bf5d d5bc
00000370: 2d5e 843c d328 4d3d e957 a23d 3e41 883c
00000380: 7b2f 75bd 9c38 3d3c 9496 4c3d 32e4 973c
00000390: 589e 09bd 8b67 3fbb 96f3 923c 36e5 893c
000003a0: 4d0a 8bbd 9b4c 583d d881 003d 0924 7f3a
000003b0: 6f83 993a 0f5e 323d dc57 eabc 02aa 853c
000003c0: a580 323d 60a0 54bb 4c09 e1bc f88f d53b
000003d0: 4f1c 0a3d 904c a8bc a1de 023d 3c34 593c
000003e0: b23c 4fbd ee96 d83c 0eaa bebc 9221 d53c
000003f0: b7fe 0d3d 4039 bdbb 102f 1dbb 2050 bdbc
-0.021160696 -0.024066005 -0.03699532 0.013633646 0.048401568 0.05733817 0.02987766 -0.054267302
-0.0013114403 -0.068797424 -0.027690573 0.030630903 0.015071518 0.047909707 -0.034981333 0.01795618
-0.024233088 0.014991444 0.014647496 -0.04953054 0.039626587 -0.031566057 -0.07975225 -0.02043765
0.024717167 0.0589262 0.031289533 0.046810474 0.0037397034 -0.03178537 -0.075118735 0.059048586
0.018077549 0.04287054 0.044813145 0.06398164 0.026810676 -0.037390288 -0.025909591 -0.021266107
0.06873848 0.038568377 -0.011401643 0.011588579 -0.035965815 0.012269591 0.048166595 0.029904108
-0.053859524 -0.038843166 -0.036165584 -0.017898405 0.020094683 0.027392924 0.018044546 0.026501495
-0.015699472 0.004079666 -0.029506398 0.012186129 0.0016999692 0.048955355 -0.048209466 0.020124856
0.03077225 -0.005801078 0.010628205 -0.0031375848 0.044633638 -0.045953203 -0.047501963 0.041911427
0.002997283 0.03946225 0.0010016933 -0.018986821 0.05719309 -0.025202826 0.009217713 -0.019891191
-0.039499603 -0.024089064 0.024012137 -0.011481933 0.009607118 -0.027310874 0.044072527 0.0034783073
0.03241239 0.011505809 0.03603411 0.012948591 0.014029647 -0.08897324 -0.03425192 0.0407324
0.014186583 -0.042955164 0.009241982 -0.009443294 -0.009430823 0.0059962412 -0.026562395 0.06361288
-0.038281552 0.04805038 0.018293668 -0.022228528 -0.0028633159 0.007722061 -0.040648118 -0.01269536
-0.027354283 0.0031556485 0.04210864 -0.06822844 0.041931644 0.027226053 -0.022091536 0.01371122
0.0029276109 0.023065435 -0.03552383 -0.02866622 0.047264233 0.011530708 -0.0378151 0.05806116
-0.012484953 -0.013483256 0.018254256 0.015621785 -0.011335489 0.032438412 -0.01575599 0.0716129
0.057535864 0.004963529 -0.00087774475 -0.022093093 -0.038529634 -0.026394114 0.07518575 -0.026272586
-0.020852324 0.011913201 0.04792812 -0.05769119 -0.059519988 0.052306194 -0.01827475 0.016832422
-0.014649931 -0.004084997 0.046869773 -0.014763486 -0.03144525 0.016875159 0.027995396 0.04376327
0.052650932 0.0057830997 0.057873305 0.025545526 -0.013275053 0.059505444 -0.014352564 0.04509824
-0.01846277 0.012383435 0.055283424 -0.03592033 -0.026562564 0.057646614 -0.044934526 -0.0018476062
-0.034852795 0.03249817 0.029335823 -0.005584892 0.003955465 0.033807803 -0.02222276 0.026459591
-0.034651954 -0.037726436 -0.034997307 -0.019066256 0.038150586 0.08855268 -0.054345895 0.05559518
0.024609858 0.039647162 -0.00946579 0.0606826 -0.065141715 0.01757585 -0.0375095 0.0070149354
-0.014871965 0.039089136 0.057220507 -0.0012597422 0.018604612 -0.017633066 0.040179364 0.0005750319
-0.025800794 0.031202061 0.005909695 0.087967075 -0.07549196 0.022264838 -0.043917295 -0.035198938
-0.011044151 0.06082509 0.00028270503 -0.026045678 0.016158188 0.05008776 0.07926924 0.016632672
-0.059859734 0.011549141 0.04994829 0.01854143 -0.033598274 -0.0029206004 0.017938416 0.01683293
-0.06789074 0.05280743 0.03137383 0.00097328477 0.0011712144 0.043546733 -0.028606348 0.016316418
0.043579716 -0.0032444224 -0.027470253 0.0065174066 0.033718403 -0.02054432 0.031950597 0.013257083
-0.050594993 0.026439156 -0.023274448 0.026016984 0.034666743 -0.005774647 -0.002398435 -0.023109496

convs.0.bias f4 [100]
00000000: 0b60 5a3b 7e37 06bd 7ceb 6dbd 2842 293d
00000010: 1a7a e93c 5f34 0ebd d87e 1a3d 3cd7 98bc
00000020: aba9 343b 83a9 5dbc 4338 3ebd eb3b 153d
00000030: b040 d6bc c983 7abd 9afe 093d ad11 553d
00000040: 7c37 543d f86e fb3c 559b 33bc f276 4f3d
00000050: 49b9 39bb ca04 f53c 049b bbbb aa87 86bd
00000060: a346 97bd f1b1 2bbc f969 f03c d3e4 3c3d
00000070: f3e3 8dbd 6d3a d5bc a2a8 913b 54d6 87bd
00000080: e9d5 a0bc 6641 13bc da1e 89bc dfcc 75bd
00000090: 4e84 00ba b6d3 7fbd 0abd 0a3d 4334 e6bc
000000a0: 6877 ddbc 51e5 88bd 15e2 84bc 495a 64bd
000000b0: 3908 b03c 3713 d53c fab2 a23c ea9d 1f3d
000000c0: a01b 65bd ff40 3a3d 51c9 55bd 9333 06bd
000000d0: 4ddd 6cbd 5458 d53b d744 6abd 7022 14bc
000000e0: 2dc4 a83c bc02 443d 0a24 33bd d505 563c
000000f0: 9c96 64bd a3db 2dbd b688 6cbc 6292 513d
00000100: 0560 613a 8f1d 55bd c418 6cbb 7e84 233d
00000110: bb22 533d b1de 7ebd 447a 4abd 7cdf debc
00000120: 83e0 243d e109 883c 106f 2ebd b354 063d
00000130: 0387 313d a9ef fdbc a1b3 44bd 46b3 373d
00000140: 7b7a 74bd 70e4 91bd ef7c 433d bf40 06bd
00000150: b07b d3b8 8190 40bd 463c 9bbb 2557 293d
00000160: 94dd 4fbd 43f9 c7bc ab5e f83c 3e8a 793c
00000170: 258e f7bc 99f2 443d eb45 263d 9d3d 24bb
00000180: 019c 82bd 0662 553d 9724 69bd d89f ee3c
0.0033321406 -0.032767765 -0.058085904 0.041322857 0.028500605 -0.034717914 0.037718624 -0.01865732
0.002756695 -0.013529184 -0.046440374 0.036434095 -0.026153892 -0.061160836 0.033690073 0.05201881
0.051810727 0.030692562 -0.010962327 0.050650544 -0.0028339198 0.02990951 -0.0057252664 -0.065688446
-0.0738652 -0.010479436 0.029347407 0.04611666 -0.069282435 -0.026028836 0.0044451514 -0.06632677
-0.01963325 -0.00898776 -0.016738344 -0.060009833 -0.00049025274 -0.062457763 0.033871688 -0.028101092
-0.027034476 -0.06684364 -0.016221086 -0.055750165 0.021488296 0.026010139 0.019860733 0.038968958
-0.05593455 0.04547214 -0.052193943 -0.03276403 -0.057828236 0.0065107737 -0.057194557 -0.009041414
0.020601356 0.04785417 -0.04373554 0.013062914 -0.055807695 -0.04244579 -0.014436891 0.051164992
0.0008597377 -0.052030142 -0.0036025504 0.039921276 0.051546793 -0.062224094 -0.049433008 -0.027206175
0.040253174 0.016606273 -0.042586386 0.03279562 0.043341648 -0.030998068 -0.04802287 0.044848703
-0.05968712 -0.07123649 0.047726568 -0.03277659 -0.000100843026 -0.04701281 -0.0047374098 0.041342873
-0.050748423 -0.02441085 0.030318579 0.015230713 -0.030219147 0.04808292 0.040594023 -0.0025061138
-0.06377412 0.052095436 -0.05691966 0.029128954

convs.1.weight f4 [100, 1, 4, 91]
00000000: efaf 5d3d a1fb 17bc f28d 10bd 4642 48bd
00000010: e954 e5bc 9571 b4bc 3204 4dbc 0dd3 3d3d
00000020: 9591 65bd 1c06 dd3c 0e6d ebba 5b65 59bc
00000030: 8605 703d 4acd ecbb 412f 233d a147 053d
00000040: b693 1cbd f6c7 483d 940e 33bd 486a 133d
00000050: 85c0 0b3d 9595 143c 10ed 87bc 39a2 163d
00000060: f8df f63c 0489 f2bc 26b6 643d 09ea cb3c
00000070: fbfe 5e3c 1e60 7d3d c5f0 2dbb 5c60 10bc
00000080: ffc2 2bbc aab6 163c f512 d63c b140 423c
00000090: 7ea4 7a3d c13b 7b3c 75e6 c83c 3ade 793d
000000a0: 88da 373d 39eb 5b3d f288 913c 1428 fe3b
000000b0: 7b27 e1bc 32a0 4abc 1d86 2dbd b236 263d
000000c0: 6b86 3b3c 135d 133c 1b47 673d 2c21 16bd
000000d0: 4110 043d 7279 d13c bf5f bcbc c27e 45bd
000000e0: 5e0f ecbc 96ce 8e3c d9f4 383d d1db 013d
000000f0: 62d0 eb3c 281a 813b a25d f73c aae4 95bc
00000100: e83a 92bc 4ad5 c43c b9c7 0abd 588b 46bd
00000110: fc60 1e3c 98e5 11bd e0b0 55bb ffd9 553d
00000120: 955a b2bc 1610 d93c 2d47 1e3d 90f6 62bb
00000130: f125 393d 1a63 8f3c 636f 023d 9fb0 13bd
00000140: f64a 89bc 7979 25bd 28ab a83b 99df cebc
00000150: 301b dc3b a3d0 2c3d 31d5 1cbd 540c 243c
00000160: 78cb 30bd abc2 1d3d 5261 90bc 3215 003c
00000170: 989a dabb e625 48bd 0b83 8c3c 9a0b 0d3d
00000180: 375a c73c 6577 063d 63aa a1bc 1904 4ebc
00000190: 314f 3c3b 1837 823b 0b1a 26bc 3084 fdbb
000001a0: 381f a8bc 9071 15bc ed6d 153d d0ac 423d
000001b0: 885f 383c 441f 66bc fe30 5fbd 89df dfbc
000001c0: 423c 833c 059e a7bc cb8c 143d f3d8 5a3c
000001d0: 8a80 15bd d049 6b3b 356d 893d ad28 d6ba
000001e0: 8a50 16bd 0a64 5dbd 210a 9e3c 6f98 1a3d
000001f0: e8f9 4e3c 9c5a ebbc 2d67 7bbd ac42 3a3b
00000200: f814 8ebc 1a80 a3bd 1467 123d dfa0 3e3d
00000210: bf37 1fbc cb51 11bd 8b26 6f3c db04 c3bd
00000220: 7f6b 98bc d414 ae3a 1f60 dabc 1cef 433c
00000230: 83d9 123c ff60 4f3c db3b 23bd 1754 553a
00000240: 01d8 003d 8fde 423d b6f7 863c 2d57 203d
00000250: 0913 153d f3d0 afbc 2a56 953c b83d bbbb
00000260: 8098 c6ba 9c88 593c b402 1fbc 3326 2dbd
00000270: 6006 25bb 86a8 f43c 0344 283d 43d5 1c3d
00000280: 0a53 f63c 0be7 523d adb6 263d b016 c6bc
00000290: 582f c73b 44d8 23bc 4c2c 08bd 5e64 8d3c
000002a0: 9895 debc b187 263d f2d0 9ebc 1e3a 9f3c
000002b0: 2663 b73c 3992 283d 2805 80bb 1c11 203c
000002c0: 56a3 40bd 1829 ca3b 6c63 4c3c 4d9f 2b3d
000002d0: 8e00 ccbc dc38 7b3c a45c 32bc 15e9 523b
000002e0: 2502 3bbb 7af4 243c e57f 2a3d 2a7c 9abc
000002f0: 4646 f5bc 45c6 8d3a 8f29 723c 3353 873d
00000300: 6e25 ee3c da91 613c efbd 393d 7a73 2fbd
00000310: 46ca 293d 2c94 40bc 9dee 083d 5500 1d3d
00000320: 966d 1bbd e9cc 89bb 4166 29bd 4d87 35bd
00000330: 81e6 873c cb55 a3bc b852 4c3d 8a19 1bbc
00000340: 5f67 1abd 89b0 553d 5b34 db3c ac80 003d
00000350: 25df 153d 7620 c1ba 4461 943b ac7f a4bc
00000360: 88c4 a5bd 6e69 babb e0bf 4a3d 7e39 103c
00000370: 98c0 06bc 3aa8 4abd 5c34 f0bb 78aa 41bd
00000380: 6ac8 f0bb 229c 503d 36f2 babc ac05 ecbc
00000390: da7e 043c a8d9 ab3c 10d8 ad3d 9e21 efbc
000003a0: 53da 423d 5552 643d 0570 95bd 9ae6 023d
000003b0: 6673 b3bc 6af1 39bd 2375 1fbd 1cdb 2cbc
000003c0: 6483 39bc 30c9 04bd 3a7f c6bc 8092 b03a
000003d0: de2d 873c dcdb 2bbd 7083 a13b 367e a43c
000003e0: 0025 233c 62a6 e2bc 58a9 3dbd f884 a53b
000003f0: 7c89 3d3c 8c0e c5bc 54bc 6d3c 8798 1c3d
0.05412286 -0.009276302 -0.03529162 -0.04889133 -0.02799459 -0.022026816 -0.012513207 0.04634385
-0.05604704 0.026980452 -0.0017961578 -0.013268794 0.058599018 -0.007226621 0.039839987 0.032539014
-0.038226806 0.049018823 -0.043715075 0.03599003 0.034119148 0.009068866 -0.016592532 0.0367758
0.030136093 -0.02960635 0.055837773 0.02489187 0.013610597 0.061859243 -0.0026541215 -0.008812036
-0.010483502 0.009198824 0.026132086 0.011856244 0.06119203 0.015334071 0.024523953 0.061002947
0.044886142 0.053691123 0.017765496 0.0077562425 -0.027484646 -0.012367295 -0.04236423 0.040579505
0.011445622 0.008994359 0.056464296 -0.03665273 0.032242063 0.025570605 -0.022994874 -0.04821659
-0.028815921 0.017432492 0.04515538 0.031703774 0.028785888 0.0039398856 0.030196015 -0.018297512
-0.017850354 0.024027485 -0.033881877 -0.048472732 0.009666678 -0.03561935 -0.0032606646 0.05220985
-0.021771709 0.026496928 0.038642097 -0.0034631826 0.0452022 0.01750331 0.031844508 -0.03605711
-0.016759377 -0.04039905 0.0051473565 -0.025253104 0.006717108 0.04219116 -0.038289253 0.010012705
-0.043162793 0.038515728 -0.017624531 0.007817553 -0.006671261 -0.048864268 0.01715233 0.034434892
0.02433501 0.032828707 -0.019734567 -0.012574219 0.0028733725 0.003973853 -0.010138045 -0.0077367052
-0.020522699 -0.009121314 0.036481787 0.047528088 0.011253245 -0.01404554 -0.054490082 -0.02732827
0.016019944 -0.020461092 0.036267083 0.013357389 -0.036499538 0.003590215 0.06710283 -0.0016339027
-0.0366979 -0.054050483 0.01929194 0.03774303 0.0126328245 -0.02872973 -0.061377693 0.0028421087
-0.017343983 -0.07983418 0.035742834 0.046540137 -0.009717881 -0.035478394 0.014596592 -0.095224105
-0.018605946 0.0013281354 -0.026657162 0.011958864 0.008962992 0.012657403 -0.039852004 0.00081378355
0.031455997 0.04757553 0.01647554 0.039145637 0.036395106 -0.02146194 0.018229563 -0.0057141446
-0.001515165 0.013277199 -0.009705234 -0.042272758 -0.0025180802 0.029865514 0.041080486 0.03828932
0.030068893 0.05148987 0.040701557 -0.02418074 0.006078642 -0.010000292 -0.03324537 0.017259773
-0.027170941 0.04065675 -0.019386742 0.019436892 0.022386145 0.041155074 -0.0039068647 0.009769704
-0.04703077 0.0061694495 0.012474876 0.041899968 -0.024902608 0.015333381 -0.010886345 0.0032182385
-0.0028535214 0.010068053 0.041625876 -0.018858034 -0.029940736 0.0010816535 0.014780416 0.06607666
0.029070582 0.013767684 0.04534715 -0.042834736 0.04145267 -0.011754077 0.033430684 0.038330395
-0.037946306 -0.0042053354 -0.041357283 -0.044318486 0.016589405 -0.01993837 0.049883574 -0.009466538
-0.03769624 0.05217031 0.026758363 0.03137271 0.03658976 -0.0014734406 0.0045281965 -0.02008041
-0.08094126 -0.0056888377 0.049499393 0.00880277 -0.008224629 -0.04947684 -0.0073304605 -0.047281712
-0.00734811 0.05093015 -0.022820573 -0.028811298 0.008086884 0.02097781 0.08488476 -0.029190835
0.04757149 0.05574258 -0.07296757 0.0319582 -0.021905612 -0.045396246 -0.03893007 -0.010550287
-0.01132283 -0.03241843 -0.024230588 0.0013471395 0.016501363 -0.04195772 0.0049289986 0.020079713
0.009957552 -0.027667228 -0.046304077 0.0050512515 0.011568423 -0.024054788 0.014510233 0.0382314

convs.1.bias f4 [100]
00000000: 57c6 1cbd 3a43 1a3d eca6 bbbc 7e32 c1bc
00000010: c7c9 fc3c 9cfe a13c 84be 993b f335 ccbb
00000020: f62f 1d3d 63ef d53b 2b96 293d 5d43 163d
00000030: 1cc0 533c c44b 823c a10a 24bc 3414 973c
00000040: 982c 083d 923c 6c3c 55c2 07bd c277 263d
00000050: 7e01 1ebd d416 1dbd c94c f13c 93e2 263c
00000060: 75b1 2ebc 1d32 21bd c322 953b 0f84 02bd
00000070: 2775 393c fe7c 0e3b 4891 f83c dc54 59bc
00000080: 1144 c43c be35 1ebd 0cb6 103d 28a4 27bc
00000090: 4e93 a1bb c6cd 20bd bc74 03bd 2b34 56bd
000000a0: 4958 11bc 005a aebc c3a7 053d 5b8b 86bc
000000b0: 5390 d63c 0bca 0e3c cc10 99bc 8e87 2b3d
000000c0: 159d af3c 726c 62ba 8c7a 10bc 114a d2bc
000000d0: b349 80bd d350 64bc c27b 4a3c 8345 fa3c
000000e0: 251f 65bd c94a 75bd 1442 283b 73ec e43c
000000f0: 4c61 32bd 296b 31bd 5486 733c 2df4 13bc
00000100: 57bc 62bd a019 993c c309 d73c 341a dd3c
00000110: f8f0 fabc e990 503c ae00 63bb 111c 0abc
00000120: 369f b13c 297a 0f3d 5203 203d a0b0 a8ba
00000130: 6935 0a3d 6f0c 27bc 10c4 9d3c 2d3e 05bd
00000140: 0a85 29bd a54a b73c 953e 80bd 5457 ecb9
00000150: 2274 2d3c 0402 2fbd 809b 9cbc 11ab e03a
00000160: b947 09bd 0e80 0c3d 36ac e63c 3589 493b
00000170: 37cc a03c c4b1 ba3c f76b ea3c 126a 22bc
00000180: f353 8e3c e005 1a3c b067 dcbc 4d39 283c
-0.03827509 0.03766177 -0.022906743 -0.023583647 0.030857934 0.019774728 0.0046919007 -0.006232017
0.038375817 0.0065287813 0.041402977 0.036685336 0.01292422 0.015905268 -0.0100123 0.01844225
0.033245653 0.014418738 -0.033144314 0.040641554 -0.03857564 -0.03835185 0.02945556 0.010185855
-0.010662426 -0.039354432 0.004551263 -0.031864222 0.011319435 0.0021741982 0.030342713 -0.013264861
0.023958238 -0.03862547 0.035329863 -0.010232009 -0.00493089 -0.03925874 -0.03209375 -0.052295845
-0.0088711465 -0.02128315 0.032630693 -0.016423872 0.026191866 0.008715163 -0.018684767 0.041877322
0.021437207 -0.00086373754 -0.00881828 -0.025670083 -0.06264057 -0.013935286 0.012358608 0.030550724
-0.055937905 -0.059885774 0.0025674151 0.027944779 -0.04354982 -0.043315087 0.014863569 -0.009030384
-0.055355396 0.018688977 0.026249772 0.026990034 -0.030632481 0.012729862 -0.0034637856 -0.008429543
0.021682363 0.03502861 0.039065666 -0.0012870021 0.033742342 -0.0101958355 0.019258529 -0.03253
-0.04138664 0.02237446 -0.062619366 -0.00045078492 0.01058677 -0.04272653 -0.019117117 0.0017140826
-0.033515666 0.03430181 0.028158288 0.0030751948 0.019628627 0.022789843 0.028615935 -0.009912984
0.017374014 0.009400815 -0.02690491 0.010267568

convs.2.weight f4 [100, 1, 5, 91]
00000000: fc5f 55bd eead b6bc 2a43 03bd 2e3d 04bd
00000010: 7c18 d23c 0a3a dabc 648f 58bd 1770 69bc
00000020: 2159 30bc 00b0 aabb db05 723d 96c4 e6bc
00000030: 8884 f33b 9488 993c c102 0a3d dda7 043d
00000040: af8a 59bb 3852 473d 07b3 753c b41d 67bd
00000050: 971d 563d f4b8 32bd 08e2 df3b 9b43 15bd
00000060: a5df 67bc c9d0 0c3d ffa0 d03c 8b1b 133d
00000070: fa27 aaba f064 62ba dc54 9fbc 0f48 083d
00000080: 2098 2dbd b501 86bc e529 94bb d753 573d
00000090: 3b46 c33c 6ac9 1f3b 25bb 053d e2ab 0ebd
000000a0: 0aec 7a3d 86c4 39bd 60d1 07bc a115 2abd
000000b0: f604 0b3d 0871 443b 1cdc 8c3c b3f8 15bd
000000c0: 7080 34bd 9562 d73c 675c 45bd 5ff9 33bc
000000d0: e3df 2cbd 4e09 173c ca0f 073d a45e aa3c
000000e0: 9d8e 09bd e07f f33c acec 113d dcee d53c
000000f0: bccf a83c edd1 39bd 10b5 2d3b e40a f43c
00000100: d0d4 323c da8d dcbc 4888 1bbd 51ae 0bbd
00000110: 608c 203d 30bf ea3b 9ed6 1dbd ba9f 083d
00000120: 5c09 c2bc f666 f0bc a41b a33c 3c2e 4dbc
00000130: 108d d53b dabb 28bd a072 f83c cf1e b0bc
00000140: 0065 343b 705b 55bc 8e06 013d a84c 00bd
00000150: c20d 2fbd 640c 38bd 36be 353d 1051 143d
00000160: c386 f4bc f086 5b3b 0059 803b 05e3 34bd
00000170: d5c7 fbbc 8b08 603d 2235 3fbc d4fd 4fbd
00000180: 2631 06bd e091 f2bc 02a4 b83c 600a bc3c
00000190: 545e 8e3c a4ff d83c e120 1f3d 5d4e 40bd
000001a0: bdaa 553c 9af2 cf3c 7339 463c e72b 17bd
000001b0: b663 b5bc d3f1 0dbc 404d 3e3a 84d3 c23c
000001c0: 13d8 e23c aba3 043d 6899 c93c 9664 d13b
000001d0: 0748 ddbc e5d0 a6bc e7fb a13c 7f0b ad3b
000001e0: 16e9 b0bc 7bc2 163d aa52 15bd 4f81 4cbc
000001f0: 498f b13c 0549 cebc a945 04bc 1150 533d
00000200: 6317 033d 221f 363d 35d1 88bc 6a52 4cbc
00000210: 47b8 69b9 352a 89bd d719 c7bc 1dc8 e4bb
00000220: fa99 6f3d e092 0b3d 3ffb c53c b61f 953c
00000230: 9dcd bfbc 42c0 0b3d 6ea1 c63c 16ce a4bb
00000240: 5634 febc 3428 ec3c 4c79 71bc d380 c8bc
00000250: 8caf 33bd 2764 a6bc 4982 f4bc 36b1 9dbc
00000260: 71c3 80bc df26 ddbc 849a 53bc 165e 3b3d
00000270: 38b9 763c 8b3d 0fbd 0846 4abc 1443 0abc
00000280: 4ca3 74bc f8d0 0dbd a773 84bc 40e5 f73c
00000290: a8b4 5ebc 3299 fcbc d014 06bd f94b e2bc
000002a0: 7097 173c b2c9 393d 1459 c7bc 80d5 e13a
000002b0: c679 193d 1705 85bc 4a11 eebc 7c56 543c
000002c0: 306c d13c 7830 23bc 20c2 49bc 6444 3abc
000002d0: 3c4b fe3c 4a1d b4bc cf18 673c 7cf3 8dbd
000002e0: e9d9 f2bb 0d6f a7bd fa95 0cbd 0d7c 25bc
000002f0: e020 3f3c 836f 773b f99d 36bd bdd3 ffbc
00000300: 9407 dc3c 9b8e 8fbc 8e71 633b a442 f83b
00000310: 17db ec3c b700 b93c 3380 c6bc 7646 fd3c
00000320: 54e7 503b 00d4 6e3c f6d1 4b3d 74ae d7bc
00000330: c9a3 70bc d5dd 7b3c 4246 0bbd 1673 81bc
00000340: c087 223d 03ae 85bd d586 2d3c 41f4 99bc
00000350: b70d 6fbc 00f0 6636 3f25 fbbc 1326 28bc
00000360: a708 32bc 3ba5 7ebc 67f1 8e3c 2253 c43c
00000370: 50ba c3bc 8c6b 913d 5ac8 2fbb 452f 1dbc
00000380: 5645 2f3d d32d 4a3c 72ef 3d3d 2240 dc3c
00000390: 5163 9a3c 3388 d1bc f858 033d b958 073d
000003a0: 1e06 603b b802 093d bf0a 3c3c 8d40 2abd
000003b0: de34 35bd c02e 383b c097 9aba e742 c7bc
000003c0: 656e dfbc 6dc6 dfbc c848 ca3c 80d6 3dbb
000003d0: 740d fc3c c031 0e3b 5e7c 29bd cf09 02bd
000003e0: 30b5 5bbc c804 e63c fb66 b0bc 302c 66bb
000003f0: 3036 093d 90a2 29bd 0e5a 92bc ccba 1bbd
-0.05209349 -0.022299733 -0.032046475 -0.032284908 0.02564644 -0.026639003 -0.052871123 -0.014247916
-0.0107634375 -0.005208969 0.059087615 -0.028169911 0.0074315704 0.018741883 0.033694033 0.03238665
-0.0033194234 0.048662394 0.014996297 -0.05642481 0.052274313 -0.043633416 0.006832365 -0.036441427
-0.014152442 0.0343788 0.025467394 0.03591494 -0.0012981885 -0.00086362567 -0.019449644 0.033271845
-0.042381406 -0.016358236 -0.004521596 0.05257019 0.0238372 0.0024381527 0.032649178 -0.03483189
0.06126026 -0.045353435 -0.008289665 -0.041524533 0.033940278 0.0029974598 0.0171948 -0.03661413
-0.0440678 0.026292125 -0.048183825 -0.010984748 -0.042205703 0.009218527 0.032974042 0.020797081
-0.033583272 0.029724061 0.0356261 0.026114874 0.020606868 -0.045366216 0.0026505627 0.02979035
0.010914996 -0.026923109 -0.037971765 -0.034101788 0.039196372 0.0071639046 -0.038534753 0.033355452
-0.023686104 -0.02934597 0.019910641 -0.01252323 0.00651706 -0.041194774 0.030328095 -0.021499066
0.002752602 -0.013022289 0.03150039 -0.031323105 -0.04273773 -0.04493369 0.044370852 0.03621012
-0.029849416 0.0033497177 0.0039168596 -0.044161815 -0.030734936 0.054695647 -0.011670383 -0.05077918
-0.032761715 -0.029610574 0.022539143 0.022954166 0.017378964 0.026489086 0.038849715 -0.046949733
0.013041195 0.025384236 0.012098658 -0.036907103 -0.022142272 -0.008663612 0.0007259436 0.0237825
0.027690923 0.03238265 0.024609283 0.0063901646 -0.027011884 -0.02036328 0.019773437 0.0052809115
-0.021595519 0.036806565 -0.036455788 -0.012482001 0.021674769 -0.025181303 -0.008073249 0.05159003
0.032004725 0.044463284 -0.01670132 -0.012470821 -0.0002228926 -0.066975035 -0.024304314 -0.006981863
0.058496453 0.034075618 0.024167655 0.018203598 -0.023413474 0.0341189 0.024246898 -0.00502945
-0.031030815 0.028827764 -0.014738392 -0.02447549 -0.043868586 -0.020311428 -0.029847281 -0.01924954
-0.015718194 -0.026996074 -0.012915257 0.045744024 0.015058808 -0.0349708 -0.012345798 -0.008438844
-0.014931511 -0.034623116 -0.016168429 0.030260682 -0.0135928765 -0.030834768 -0.032734692 -0.027624117
0.009252414 0.045358367 -0.024334468 0.0017229766 0.037469648 -0.016237779 -0.029060978 0.012960073
0.025564283 -0.009960286 -0.012314349 -0.011368845 0.031041734 -0.021986622 0.014105036 -0.069312066
-0.007411231 -0.08175478 -0.034322716 -0.010100377 0.011665553 0.0037755675 -0.04458425 -0.031228894
0.026859082 -0.017524054 0.0034705135 0.0075763036 0.028913064 0.022583349 -0.024231052 0.030917387
0.0031876164 0.014576912 0.04976078 -0.026328303 -0.014687487 0.015372713 -0.03400255 -0.015801948
0.039680243 -0.06527331 0.0105912285 -0.018793227 -0.014590672 3.441237e-06 -0.030657409 -0.010262984
-0.010866321 -0.015542324 0.017449094 0.023965422 -0.023892552 0.07100591 -0.00268223 -0.0095937895
0.042790733 0.012340027 0.04637093 0.02688605 0.018846186 -0.02557764 0.03206727 0.033043597
0.0034183334 0.03344986 0.011477171 -0.041565467 -0.04423987 0.0028104037 -0.0011794493 -0.024323894
-0.02727432 -0.027316296 0.024692908 -0.0028966963 0.030768134 0.0021697134 -0.04137837 -0.031747635
-0.013409898 0.028078452 -0.02153348 -0.0035121553 0.033498943 -0.041414797 -0.017865207 -0.03801994

convs.2.bias f4 [100]
00000000: 95c3 fcbc 6fef e93c 56c4 773b f425 8f3c
00000010: 71c5 c93c 29e2 08bc 6046 76bd 0930 87bc
00000020: 8085 503b 7797 26bc 17cc fb3c 09b4 0bbd
00000030: 4cd9 0dbd b649 f5bc e06c ef3c a4d3 72bd
00000040: 1066 63bb c076 50ba 63b0 d9bc 6ccc 1dbd
00000050: 7cf4 043c 832a cabc 271b c43b e53d 1ebd
00000060: b781 ae3c 1253 f93c bc12 ac3c 1540 b3bc
00000070: b769 b7bc 09e3 383c 0495 75bb 93fd e2bc
00000080: 0d9a 9e3c 5145 623c 0a0d d03c 78a4 db3c
00000090: 469d e3bc cbf5 843b e872 f03c 8c42 19bd
000000a0: d059 9ebc f402 c4bb 822d babc 8e16 eeb9
000000b0: 8a8c 7ebc e00c 11bd 663b 55bd f15b 25bd
000000c0: c5c1 94bc 8b85 5fbc cbc1 0abd 1442 053c
000000d0: e893 d63b d616 bfbc 66d2 e43b 84e0 d8bc
000000e0: 12e4 7dbc 908d efbb 8e3e febc 5f90 51bd
000000f0: 47a0 ccbb 12ed aa3c 53d1 de3c e3b5 123c
00000100: 1d76 4e3c 7aeb fbbc 782e cdbc 8899 26bd
00000110: 2498 653c 6e11 f93c 45f8 f23c e1cc 12bd
00000120: d54d 42bd ea32 0a3d 1644 46bc 9855 ba3b
00000130: f13b a23c 0fcb 113d 3a3f a53c bc88 cfbb
00000140: 1365 c83c f2ec 473c 643d 0f3c fdf4 8dbc
00000150: 1e07 6a3c b80c 7c3c 8e41 61bd ecd9 973c
00000160: 53ef 423c f21d 513b d5c9 cb3b 7244 103d
00000170: 9783 9fbc 0f81 aebc 0428 2e3c e67b 28bc
00000180: ecf8 12bd f09f e43c 4c4c 4fbc c2b0 60bd
-0.03085498 0.028556554 0.0037806234 0.017474152 0.02463028 -0.008354702 -0.06012571 -0.016502397
0.0031817853 -0.010167948 0.030736966 -0.03410724 -0.03463106 -0.029942375 0.02922672 -0.059283867
-0.0034698285 -0.00079522654 -0.026573366 -0.03852503 0.00811493 -0.024678474 0.005984682 -0.038633246
0.021302087 0.030435119 0.021005027 -0.021881143 -0.022389276 0.011284598 -0.0037472853 -0.027708804
0.019360567 0.013810472 0.025396843 0.026811823 -0.027784955 0.004057621 0.029351667 -0.03741698
-0.019329935 -0.0059817974 -0.022726778 -0.00045411702 -0.015536437 -0.03541267 -0.0520586 -0.040370885
-0.018158803 -0.013642679 -0.03387622 0.00813343 0.0065483935 -0.023326319 0.0069830893 -0.026474245
-0.015496271 -0.0073105767 -0.031035688 -0.051163074 -0.0062446925 0.020864997 0.027199423 0.008954498
0.012601403 -0.030751932 -0.025046572 -0.040673763 0.014013324 0.030403819 0.0296594 -0.03583992
-0.047437508 0.03373996 -0.012101194 0.005686473 0.019803973 0.035594042 0.02017175 -0.0063334387
0.024462258 0.012202488 0.008742664 -0.017328734 0.014283923 0.015383892 -0.05499416 0.01853653
0.01189788 0.0031908718 0.0062191286 0.035221525 -0.019471927 -0.021301774 0.010629658 -0.010283446
-0.03588192 0.027908295 -0.012652468 -0.05485607

convs.3.weight f4 [100, 1, 6, 91]
00000000: 4dbd febc 948f 903c db65 c93c d2ed 5ebd
00000010: 45d7 55bd bcdc e8ba b2ae 06bd 4f98 a6bb
00000020: 613c 15bd 635c e0bb 5b0a 9dbc 0223 653b
00000030: a4f0 b23c 424c 123d c5a3 ecba 5e3e 753c
00000040: f7af d43c e0d8 643c 9f19 bf3c a549 a2bb
00000050: 602b ce3c 683a 0dbc 2d84 18bd 05bc f03c
00000060: 8b81 0bbc a9ed 17bc 9f0a 3d3b 3df4 cb3c
00000070: 315e 673c 1bc9 d1bc 6905 34bd a981 dd3c
00000080: 9a69 cdba e46b b83a cc8c 003d 2c31 153d
00000090: 3b48 71bc baf7 fdbc fe3d ae3a 8bc6 94bc
000000a0: 7bff 793c 9cd0 5cbd 151e 15bc 935b 223d
000000b0: fbc7 08bd 8b80 7abb e53f 47bd 1a2a 4e3c
000000c0: 7bbd 383d c4df a03a 7573 fdbb e65e 733d
000000d0: eae8 f63c 23d5 e2bc 17ce d3bc 04a0 46bc
000000e0: d8c1 e33b 747c 02bc 5d35 2ebd 20bf ea3b
000000f0: af28 e1bc bdc2 083d 9cfe 1bbd fc75 21bd
00000100: b83f 363c 80e6 d33a 7a72 0dbd c2fe f23c
00000110: 13f7 0cbd 44a2 1bbc 0cbf 7c3c 7f10 263d
00000120: 74db 11bd 594b 13bd 96d6 25bd 890c 24bd
00000130: 0445 2dbc b103 083d a2a4 e43c 00a2 0abb
00000140: a0ab dcba 0331 2c3d 525d 4abc 31cf 253d
00000150: 461f efbc aa93 b6bc 683d 3d3c 104c 573b
00000160: e084 7c3b a0dd 703c a344 233d 753f 9d3c
00000170: 7bc7 aa3c ab2b a73a f0c0 a7bc 796a 933b
00000180: eae7 6e3c 0069 15bc 5858 febc 3ad3 f53a
00000190: b136 2f3d e1c4 c4bc 6787 3c3d a832 ba3c
000001a0: aa3f e3bc 5191 fdbc 42a6 5c3c 2990 9c3b
000001b0: 2b53 9cbd 8fd9 5abb 1662 83bc fa9c 35bd
000001c0: 540d 803c d1ae 173d 51dd 123d 4615 aebc
000001d0: 9659 93bb 550d 3e3d b555 b2bb 2477 45bc
000001e0: 15f6 273c fb02 d3ba ed70 c83b 9758 2a3d
000001f0: 7bee 0ebd 42ce 0fbd bf02 8d3c 6df1 613b
00000200: 35f5 8c3c 98da 4138 d251 2fbd 0d5d 5a3c
00000210: 413b 053c 910d 11bd d445 ac3c 81c5 ba3b
00000220: f42b 183c 80b9 b63c 2636 c3bb bc38 07bc
00000230: 364f edba c00c e1ba b311 80ba 4dc8 5abd
00000240: 00c6 abbc c776 233d 02cc 953c 008e f9b9
00000250: 23ad 0e3d 68c6 edbc 897d 283d 586a 11bc
00000260: fd0f adbc 2167 1fbd 7c04 9cbc 2e1f e63c
00000270: 94b0 d4bc d018 72bb 8212 c03c 7ffa 083d
00000280: e491 333c 4094 a63a 8190 85bc 431c 24bd
00000290: 8209 ff3c 038b d9bc 9f0f 2ebd 50f5 92bb
000002a0: 9162 103d af0d 283d 5434 443c 6cfe 5d3c
000002b0: f4fe 053c 09d7 213d f074 65bc c070 01bb
000002c0: b677 f13c 002b 823a 0504 1a3d 72b1 a13c
000002d0: e60a b73c 4024 ddbc 0702 83bc 96f5 ab3c
000002e0: 33ad f23c 350d 393b 13d8 423c 3577 c0bc
000002f0: 9ee7 1b3c f6c6 233d 11f3 eabc a757 f03b
00000300: 3fc9 16bd 8be0 493d dd7e 98bc 5826 69bd
00000310: 7511 ebbc 7488 4abc 733a 98bc 3522 f4bb
00000320: caba f1bc 465f 2f3d c03e 4cbc 96b7 173d
00000330: 7f09 0a3d 3fcf 54bd 9ac2 083c 80ef 013d
00000340: 4738 25bd 1ce9 63bb c58b f8bb 759a 71bb
00000350: 72c7 753a 6a6a 8f3c 8437 efbc 6afe 8d3c
00000360: b939 433d 862f 343c 823e 473d c70b fa3c
00000370: f4d7 df38 632e a43c 6f76 1f3b 1eeb 4dbd
00000380: d825 f0bb 5684 373d 7902 48bd 4d3c 5cbd
00000390: 60de 8e3c 8fb3 40bd 9abc 043b 8b33 403c
000003a0: 3f2c 04bb b36f 22bc b91b 033b 7d11 6cbc
000003b0: 6e79 873d 96fc cc3c 1efb 2cbd 7628 e93c
000003c0: 5be0 093d 003b 48b9 06a5 d33c 751f 283d
000003d0: 4475 9bbc dcc8 2bbc 874c 073d e3ea a0bc
000003e0: 94e1 7bbc 481e e8bc 7658 e63c 9035 cdbb
000003f0: a9f8 2b3d 6221 49bc feaf a73c f439 463c
-0.031096125 0.017646588 0.024584701 -0.054426022 -0.05220725 -0.0017765979 -0.032881446 -0.0050840746
-0.036434535 -0.006846951 -0.019169977 0.0034963493 0.021843262 0.035717256 -0.0018054178 0.014968483
0.025962813 0.013967723 0.023327647 -0.004952627 0.025167167 -0.008619882 -0.037235428 0.02938653
-0.008514772 -0.009272971 0.0028845442 0.024896735 0.014121578 -0.02560859 -0.043950472 0.027039366
-0.001567173 0.001407024 0.031384274 0.036423847 -0.014726694 -0.031001914 0.0013293622 -0.018161079
0.015258665 -0.053909883 -0.00910141 0.039638113 -0.03339384 -0.003822359 -0.04864492 0.01258328
0.045102578 0.0012273719 -0.007734711 0.059416674 0.030140359 -0.027689522 -0.025855107 -0.012123112
0.006950598 -0.007964242 -0.04253136 0.007163897 -0.02748522 0.033388842 -0.03808461 -0.03941916
0.01112359 0.0016166717 -0.034533 0.029662494 -0.034415316 -0.009499136 0.0154264085 0.040543076
-0.035609677 -0.03596053 -0.04048785 -0.040051017 -0.010575537 0.033206645 0.027910534 -0.0021153688
-0.0016835816 0.04203893 -0.012351351 0.040480796 -0.029189717 -0.022287209 0.011550285 0.0032851733
0.0038531348 0.014701277 0.03986038 0.019195298 0.020847073 0.0012754103 -0.020477742 0.0044987765
0.01458166 -0.009119272 -0.031047985 0.0018754967 0.042776767 -0.02401966 0.046027567 0.022729233
-0.027740318 -0.030953081 0.013467373 0.0047779274 -0.076330505 -0.0033393835 -0.016037982 -0.044339158
0.015631355 0.037031952 0.035855595 -0.021250378 -0.0044967635 0.046399433 -0.005442346 -0.012052331
0.010251542 -0.0016098911 0.0061169774 0.041588392 -0.0348954 -0.035108812 0.017213224 0.0034476176
0.017206768 4.6218367e-05 -0.04280264 0.013327849 0.008131803 -0.03541333 0.02102939 0.005699814
0.009287823 0.02230525 -0.0059573827 -0.008253273 -0.0018105272 -0.0017169937 -0.00097709 -0.053413678
-0.020968437 0.039908197 0.018285755 -0.0004759878 0.034833085 -0.029025272 0.041135345 -0.008875452
-0.021125788 -0.03891671 -0.019045107 0.02809104 -0.025963105 -0.003694106 0.023446325 0.033442017
0.010960076 0.0012708977 -0.016304256 -0.040066015 0.031132463 -0.026555544 -0.042495366 -0.00448481
0.03525025 0.041028675 0.011975367 0.013549428 0.008178461 0.039511714 -0.014004931 -0.0019751042
0.029476028 0.0009931028 0.03760149 0.019737933 0.022344064 -0.026994824 -0.015992178 0.020991128
0.029623603 0.0028236632 0.011892336 -0.023494342 0.009515671 0.039984666 -0.028680356 0.0073346677
-0.036813017 0.049286406 -0.01861518 -0.056921333 -0.028694848 -0.0123616345 -0.018582558 -0.007450367
-0.029508013 0.04281547 -0.012466133 0.037040316 0.033700462 -0.051955458 0.008347178 0.031722546
-0.040336873 -0.0034776395 -0.007585021 -0.0036865745 0.0009375728 0.017506797 -0.029201277 0.017333228
0.04766247 0.010997659 0.048643596 0.030523194 0.00010673693 0.02004165 0.0024332067 -0.050273053
-0.00732873 0.04480394 -0.048830483 -0.053768445 0.017440021 -0.04704624 0.0020254017 0.011731039
-0.0020167974 -0.0099143265 0.0020005538 -0.014408466 0.06614958 0.025022786 -0.04223167 0.028461676
0.033661228 -0.00019095466 0.025835525 0.041045625 -0.018976815 -0.0104849 0.033031967 -0.019643253
-0.015373606 -0.028334752 0.028118353 -0.0062624887 0.041985188 -0.0122760255 0.020469662 0.012098778

convs.3.bias f4 [100]
00000000: 39bb 9e3a 2eaa 3dbd 06bd e8bc 8323 753c
00000010: 5b63 18bd 51dc 1d3c e1fe d13b dff8 bebc
00000020: 9027 aebb d7eb d2bc 3637 12bd 1978 90bc
00000030: 209e 9e3a 76af 553c 52ed 8c3c 2b8f 97bc
00000040: 30a4 fdbc 5aa4 54bb bb54 d13c 325f 34bd
00000050: 5c5e f8bc e25e 413c a83a cc37 fe93 ff3b
00000060: 43f4 46bc 5736 f73c 8480 8c3a 8acc 93ba
00000070: 62ed 2fbd 4e27 a8bb b13e 3ebc 66fc c1bc
00000080: 6611 ce3c d186 c23c 45e2 10bd f288 0bbd
00000090: dc34 0d3d 8692 b23c ef31 5ebb 7f8c 65bd
000000a0: 7d36 32bd 2e33 bcbb b4b3 85bb 61e9 fe3b
000000b0: fd90 32bd d62f 20bd 4471 da3c fe52 883c
000000c0: af1d ccbc dc01 3cbb 4376 dbbc c30f eebc
000000d0: 7d57 59bb 0594 4abb 9448 13bd 21e1 0bbd
000000e0: 3f35 043c a74c 3dbc 10e6 d8bb 86cf 683c
000000f0: d5b2 123d 0487 8e3c f7c9 e2ba 5adf 84bb
00000100: bfd2 683c 8d7c b73c b481 cebc a762 2ebd
00000110: a969 bbbc 5bf7 013b 13d1 3f3c d931 6bbc
00000120: 3860 0dbd c5d0 29bd 25f4 5cbd 9661 4d3c
00000130: af60 b4bc 1ebf 4bbd f3a7 d5bc c2fe 41bd
00000140: c4b2 b43c 491b 1bbd 78ca 45bb 2824 9e3b
00000150: a539 083c c05f c139 1cf8 b73c 3665 dabb
00000160: fb3a 2339 1263 d63b 953b dfbc b0e9 23bc
00000170: a20f f7bc fa82 3dbd 3cf1 aabc 6921 223c
00000180: 6867 5e3c a613 8cbc 70bf 09bd b6c2 3cbd
0.001211024 -0.046304874 -0.028410446 0.01496208 -0.037204128 0.009635047 0.0064085578 -0.02331203
-0.005314775 -0.025747223 -0.035697185 -0.017635392 0.0012101568 0.013042321 0.017203007 -0.018500885
-0.03096208 -0.0032446594 0.025553098 -0.044036098 -0.030318432 0.011802407 2.4346009e-05 0.0077996245
-0.0121431975 0.030177278 0.0010719453 -0.0011276167 -0.042950995 -0.0051316386 -0.0116116265 -0.023679923
0.02515478 0.023745926 -0.035372037 -0.034066148 0.03447424 0.021798383 -0.0033904274 -0.05604219
-0.043508995 -0.005743406 -0.00408026 0.007779286 -0.043595303 -0.03910812 0.026665337 0.016641136
-0.024916498 -0.0028687632 -0.02678979 -0.02906025 -0.003316372 -0.003091098 -0.035957888 -0.034150247
0.0080693355 -0.01155392 -0.0066192225 0.014209634 0.03581508 0.017398365 -0.0017302622 -0.004054946
0.014210402 0.022398258 -0.025208332 -0.04257455 -0.022877531 0.0019831273 0.011707562 -0.014355146
-0.03451559 -0.041458864 -0.053943772 0.012535473 -0.022018759 -0.04974281 -0.026081061 -0.047362097
0.022057898 -0.037867818 -0.0030180495 0.0048260875 0.008314525 0.00036883168 0.022457175 -0.0066648973
0.00015566863 0.006542572 -0.02725009 -0.010004446 -0.030158821 -0.046267487 -0.020866983 0.009895661
0.013574459 -0.017099213 -0.033629835 -0.04608413

convs.4.weight f4 [100, 1, 7, 91]
00000000: 6829 d3bc 0763 1f3d 3827 373d 9f30 ddba
00000010: 116a d83c d7c5 953c cfad 1abc 5a31 b4bc
00000020: 22aa d93c 0195 bfbc 2816 e33a 1555 ebbc
00000030: 0534 ab3b ca73 0abc 0cde f237 3976 803c
00000040: dc8d e93c 156c 4dbb 628d b8bc 1a9c 4cbd
00000050: c1b7 d9bc d1f9 65ba a634 8a3c 7bcc 9b3c
00000060: b13d a53b 99ef 94bb 4dd1 c2bc 475f f6bc
00000070: 1007 333b 25f2 42bc 8db2 55bc dc2c 073c
00000080: 93cd fb3c 97f4 173b 6415 4ebd 628b 86bc
00000090: 78b6 f3bc cade cf3a 7c49 bfbc a52d 753c
000000a0: 477f 873b 6162 11bd f950 1e3d ad0a b83a
000000b0: 83fc 0b3d 5885 30bc 611e 993b de5c 40bd
000000c0: 871f c2bb 70d8 683d b2d5 4ebd 5b33 5ebd
000000d0: 6163 06bd 6433 403c 53f7 33bd 98e5 433c
000000e0: 9028 cc3c e0f8 c8ba f459 cb3c 76fa 963c
000000f0: c948 19bd 2c2c 173d ee8e 153d 9665 fcbc
00000100: 00f7 633c e815 1b3c 2c31 8abc e0f4 fe3c
00000110: c84b 8fbb 4abd 9cbc c0fa 4abc 48d8 a3bc
00000120: 44f0 04bc f8e0 0bbc f9fd 03bd 40d9 bbbc
00000130: a8c0 b3bb c07d e53a ec75 dcbc cb63 92bc
00000140: 80ba 70bc 6c64 ca3c 88d7 cd3c e064 e63c
00000150: 4776 b9bc a0b7 0a3c 5cc6 ff3c 967e f3bc
00000160: 30cb bebb b800 213c 20ca 47bb b687 ed3b
00000170: 1e0e 233d 4327 9bbc 9c9e 2bbd 531f e4bb
00000180: d42e 8d3c 62da 2dbd abb5 bf3c de37 c23a
00000190: 3fc3 a8bc 88d6 2e3d 04d4 b5bc 881c 0abc
000001a0: 6dc9 353d 6d61 ed3c d58f 15bd cfd8 fd3c
000001b0: 31b9 06bc 0518 723b 7ea0 083d ef02 97bc
000001c0: 59cc 7d3d 6bf8 20bc cf35 94bc a4dc 3c3c
000001d0: 3d20 6bbc c9de c43c b0d1 ea39 c3be 7dbd
000001e0: 1c84 03bd fd37 4fb9 fb2c f1bc 104c ee3c
000001f0: 9c9f 32bc f36d 013d 1f3f 8d3c 2fe2 61bc
00000200: 8b45 8cb9 79cf 903c ca7d dbbc a16b 13bd
00000210: 81cf 37bd 9e2e 2e3c 3a23 913c dce5 ea3c
00000220: bed3 0fbd 3f3a c63c d85d 7abc 4059 4c3c
00000230: 8674 cfbc 09fa 0f3c 3a5e 01bd 6a19 913c
00000240: 569e dc3c 0579 a03c e059 a93b 0896 123d
00000250: f26c fbbc 47aa 83bc c49e 62bc 0ed1 203d
00000260: 702a 8e3c fc0f 383c 327f 1cbd 002f 2abb
00000270: b492 eebc a070 183c db2d e2bc a4bb c93c
00000280: e0cd 403b e0d1 fe3c ce49 133d 743b 0ebd
00000290: 7c23 ecbc a087 7fbb 00a1 48b9 847e 28bc
000002a0: b509 08bd d014 733b 0096 3039 001a 72b9
000002b0: 18fa 793c bc22 eabc 57be 0fbd c001 e23c
000002c0: 1279 1f3d 7065 d93b d094 c83c 1803 943c
000002d0: 80a1 273a f8f7 4a3c f5fd 02bd 39d4 013c
000002e0: fcce 353c 7b64 24bd 83fa 9f3c 953c 57bc
000002f0: baa5 d0ba acca 673b b14f 61bc 3b39 1c3d
00000300: bafb b73c 9f79 303d d885 cf3c c6cd 213b
00000310: 6e28 943c eee4 dcbc f110 a83a d3d1 93b7
00000320: d7b6 063d 9f1f a93b ac9a 4b3d c662 87bd
00000330: 4766 563d 9ece e2bc dd6a 9abc 3436 aa3c
00000340: c70f 26bc e01b 2fbd b20e 18bc 8d20 68bc
00000350: 9a7c 4b3c 7e9b 21bd 1011 a93a b5a6 f8bb
00000360: c92f 3f3d 7fe2 f63c a88f 9a3c 8a1c 413d
00000370: d3dd 8fbc d56d 84ba 8b4d 2bbc 5dde 34b9
00000380: 6ea0 c6bc 77c2 cd3c cc68 64bc a366 8dbb
00000390: f7ab 12bb 5510 dfbb 1813 fcbc f3ba 9f3c
000003a0: 10d7 edbc 5d88 47bd 046f 623c 8089 36bc
000003b0: 188f 36bd f026 a63c 108d 5a3b 1852 883b
000003c0: a8ac 863c 00d5 66bb 92c8 83bc 3e17 57bc
000003d0: b098 913b e84c b83b 35ce 06bd dd9d dfbc
000003e0: 24cc b33c 7062 28bb a06b f23c 62ca 9f3c
000003f0: c2b8 f1bc f0f6 923c f86e 8f3b 7ed8 03bd
-0.02577658 0.0389128 0.044715136 -0.0016875452 0.026417764 0.018282814 -0.009440853 -0.021996189
0.026570383 -0.02338648 0.0017325329 -0.028727094 0.005224707 -0.008450458 2.8952047e-05 0.015681373
0.028510027 -0.003134494 -0.022528354 -0.049953558 -0.026576879 -0.0008772882 0.016870808 0.019018402
0.0050427546 -0.004545164 -0.023781443 -0.030074729 0.0027317442 -0.011898552 -0.013043058 0.008250441
0.030737674 0.0023186558 -0.05031337 -0.016423885 -0.029750094 0.0015859243 -0.02335047 0.014964496
0.0041350457 -0.035494212 0.03865144 0.0014041268 0.03417636 -0.010773979 0.004672811 -0.046963565
-0.0059241685 0.056847036 -0.050496764 -0.054248195 -0.03280962 0.0117310025 -0.04393704 0.011956595
0.024921685 -0.001533296 0.024823166 0.018429976 -0.03742293 0.03690736 0.03651326 -0.030810159
0.01391387 0.009465672 -0.01686915 0.031122625 -0.0043730475 -0.019133229 -0.012388885 -0.020000592
-0.008113924 -0.008537523 -0.03222463 -0.022930741 -0.005485613 0.001750879 -0.026911698 -0.01786985
-0.014692903 0.024706088 0.025127187 0.028124273 -0.022639407 0.008466631 0.031222515 -0.029723447
-0.0058225617 0.0098268315 -0.0030485466 0.007248844 0.039808385 -0.01893962 -0.04189931 -0.006961742
0.017234243 -0.042444594 0.023402056 0.0014817675 -0.020600913 0.04268506 -0.022195823 -0.008429654
0.044381548 0.02897712 -0.036514122 0.030987171 -0.008222864 0.0036940586 0.033356182 -0.018434016
0.06196246 -0.009824852 -0.018092064 0.011527214 -0.014350948 0.024032013 0.00044788187 -0.061949503
-0.03210841 -0.00019761916 -0.029440394 0.029089004 -0.010902312 0.031598996 0.017242013 -0.0137868365
-0.00026754694 0.017677056 -0.02679338 -0.035991315 -0.044875626 0.010631232 0.017716993 0.028674059
-0.035114042 0.024197696 -0.015281163 0.012472451 -0.025324117 0.00878764 -0.031584002 0.017712314
0.02693097 0.019588957 0.0051681846 0.035787612 -0.030691598 -0.016072406 -0.013831798 0.03926187
0.01735422 0.01123428 -0.03820724 -0.0025967956 -0.029122688 0.009304196 -0.027609756 0.024625607
0.0029419586 0.031105936 0.035959058 -0.034724668 -0.028825514 -0.003899075 -0.00019133464 -0.01028407
-0.033212382 0.0037091263 0.00016840547 -0.00023088604 0.015257381 -0.028581016 -0.03509363 0.027588725
0.03893382 0.0066344067 0.024485022 0.018067881 0.000639461 0.012388222 -0.031980474 0.007924133
0.011096712 -0.04013489 0.019528633 -0.0131370025 -0.0015918531 0.0035368605 -0.01375191 0.038140517
0.0224589 0.043084737 0.025332376 0.00246893 0.018085685 -0.026964631 0.0012822432 -1.7621473e-05
0.032889213 0.00516124 0.049708053 -0.066106364 0.052343633 -0.027686413 -0.018849785 0.0207778
-0.010135598 -0.042751193 -0.009280847 -0.014167917 0.012419844 -0.03945493 0.0012898762 -0.0075882324
0.04667643 0.030137299 0.018867329 0.047146358 -0.017561829 -0.0010103533 -0.010455499 -0.00017248974
-0.02424642 0.025117142 -0.013941001 -0.0043152138 -0.002238033 -0.006807367 -0.030770823 0.019498324
-0.029033214 -0.04871403 0.0138204135 -0.011141181 -0.04457006 0.020282239 0.003334824 0.004160177
0.01643975 -0.0035222173 -0.01608685 -0.0131281 0.0044432506 0.0056244023 -0.032911498 -0.027296955
0.021947928 -0.002569344 0.029592335 0.019505683 -0.029507045 0.017940015 0.004377242 -0.032188885

convs.4.bias f4 [100]
00000000: 743d 3dba ca3d f8bc 58f4 bf3c 49bf 7f3b
00000010: cf57 763c 9f83 db3c 335c b53b 0398 dc3c
00000020: 018b fdbc ac89 703c 7ddb 963c ef8a 9cbc
00000030: 527a 98bc 0986 b9bb 0005 9e3c d605 d3bc
00000040: cc3c 393b b6b5 a93a fa93 ddbc 2490 deb9
00000050: 3a28 8e3c 7568 383c 6916 233c 6413 a83c
00000060: 977b 95ba cbd5 08bc 246c b2bc c574 14bd
00000070: 7b22 f5bc 5d14 d6bc 5e1f 973b adcf 1fbd
00000080: 4570 fc3c 508f 82ba 5e58 18bd 2caa 943c
00000090: 39fe 533c fce7 edbc af94 693c e59c fc3c
000000a0: 6c3e 173c 559e 39bb 0ed1 4b3b 711f 75bb
000000b0: 88eb 29bd c2f2 06bd 8a4e 343b b06c 5b3b
000000c0: 71b1 b4ba 2376 5d3a 47a3 4ebc 54d7 8cbc
000000d0: 0151 2abd a239 4bbd 0a8d 353c 2fb2 aa3c
000000e0: 423b 5a3b 4467 adbc 64dc bfbc 98e6 09bc
000000f0: dafb 37bd deb2 8cbb fd90 d939 0e29 e83c
00000100: c1f2 92bc 0ab0 aebc f8ea a4b9 f54d 85bc
00000110: 28a9 9d3c 16a5 f5bc 5722 0dbd 0837 c4bc
00000120: 1992 13bd bf30 03bd ad6d c13c e129 10bc
00000130: 6422 f0bc a7b2 c6bc 11f2 8ebc 643e 9a3c
00000140: e245 adbc 0f77 823c 3209 e1bc 3050 29bd
00000150: d25a 7abc 7764 95bc 4b72 18bd c47f 32bd
00000160: 65ae 06bd 465b 9ebc 4fea 54bd 082e 023d
00000170: 66e1 463c d3f3 613b e6d4 d6bb f8f0 b23b
00000180: 487a d03c 87e4 4a3b 73f0 32bd 2f30 8abc
-0.0007218935 -0.0303029 0.023431942 0.0039023927 0.015035584 0.02679616 0.0055346726 0.026927954
-0.030950071 0.014681261 0.018415207 -0.019109217 -0.018613014 -0.00566173 0.019289494 -0.025759619
0.0028264998 0.0012947831 -0.0270481 -0.00042450533 0.017353166 0.011255373 0.0099540735 0.020517059
-0.001140463 -0.0083517535 -0.021780081 -0.036244173 -0.029923668 -0.026132757 0.0046118936 -0.039016414
0.030815253 -0.0009960923 -0.03719365 0.01814755 0.012939029 -0.029041283 0.01425664 0.030836532
0.009231191 -0.0028323133 0.0031099948 -0.0037402774 -0.041484386 -0.032946356 0.0027512633 0.003348153
-0.0013785792 0.00084480847 -0.012612171 -0.01719252 -0.041581158 -0.04961551 0.01108099 0.020836918
0.003329948 -0.021167405 -0.02342052 -0.008416794 -0.04491792 -0.0042937836 0.0004149749 0.028339889
-0.01793802 -0.021324176 -0.00031455583 -0.016272524 0.019245699 -0.029985946 -0.034456577 -0.023952022
-0.036028 -0.03202891 0.023611868 -0.008799047 -0.029313274 -0.02425511 -0.01744941 0.018828578
-0.021151487 0.015925912 -0.027470205 -0.04133624 -0.015280442 -0.018236382 -0.037218373 -0.043578878
-0.03288116 -0.019330632 -0.051981267 0.03178218 0.0121387 0.0034477606 -0.006556141 0.0054608546
0.025448933 0.0030958967 -0.04368634 -0.016868679
