saved_models/CNN_refuting_ft.pth (torch_old, 557759 bytes, 12 tensors)

convs.0.weight f4 [50, 1, 3, 92]
0.0028403099 -0.00059786055 0.028837558 -0.024195163 0.0018016481 -0.043580502 0.05308632 -0.05943224
0.04930017 0.026676264 0.03829217 0.0097695105 -0.0011353384 0.06478915 0.027358126 0.046720974
0.01800613 0.01672404 0.020226514 0.009720717 -0.033400822 -0.03759064 -0.0012187154 -0.041294646
-0.035919163 0.006110225 0.025482265 0.050557163 -0.055299427 0.031696927 0.05190993 0.046647802
-0.03391109 -0.0049928636 -0.029474385 0.054245893 -0.027772542 0.04677771 -0.014634365 0.023763716
-0.022577167 -0.042865038 0.04807677 0.050272398 -0.038187966 -0.0078003174 -0.0027205928 -0.011491554
-0.03342973 0.052028082 0.03281926 0.049524013 -0.043135956 -0.039066378 0.017137885 0.04359888
-0.0013617397 4.219515e-05 -0.022722902 -0.027693227 -0.031985883 1.3286661e-05 0.041717924 0.03612812
0.011926216 -0.0055010472 0.030411813 -0.024444109 -0.04037074 0.0050863307 2.7989897e-06 -0.030704323
0.0007905003 0.03149718 0.0001763614 0.0044856505 0.021759227 -0.00068238296 -0.03697703 0.008236366
0.031543482 -0.018970547 0.005480955 -0.025801832 0.019841509 -0.02149509 -0.014999854 -0.027185172
0.00049392995 -0.028368235 -0.0023487138 -0.028236132 0.00893695 0.043905187 0.060365777 -0.015065529
-0.045329627 -0.035146564 0.06022474 -0.04608499 0.043771487 -0.059026223 -0.01414137 0.031172782
-0.0016193094 -0.0039835116 0.041290917 -0.038925033 -0.0008827418 0.054459658 0.06689738 0.00055638014
0.06014173 -0.012605666 -0.030165546 -0.051446285 0.007593254 -0.05189281 0.053703383 0.028295524
-0.024289366 0.035179123 0.020942464 -0.065357015 -0.04237884 0.0056366324 0.040706046 -0.028421618
-0.03650296 0.0010541346 -0.023448043 0.00010294927 0.04897036 -0.007155805 -0.04535516 -0.049806792
-0.01771914 0.055670332 0.03486198 -0.008012684 -0.017933093 -0.04394786 -0.02076265 -0.037367884
0.05750108 0.013351905 0.028333563 -0.06482881 -0.01087616 0.00011319185 -0.007832068 -0.02195966
-0.027900642 0.03648735 8.1951395e-05 0.00552457 0.013012173 -0.017638624 -0.013378512 0.00015557234
-0.0037281998 -0.03175165 -0.024075102 0.03698846 -0.040662456 -0.016934924 -0.0014031464 6.2635794e-05
-0.008799234 -0.038193464 -0.01860738 -0.03599091 -0.014241892 4.320475e-08 0.01976654 -0.040149707
-0.017166488 0.013486397 -0.016412565 0.028343575 -0.00036358798 -0.00595315 -0.0023448607 -0.0077530188
0.004085067 -0.033631 0.05890858 -0.014475184 0.027845409 -0.006737637 0.028287638 -0.045307335
0.0557025 -0.019117683 -0.040139686 -0.050485287 -0.055079166 0.0020534326 0.06206184 0.008843524
8.051569e-05 -0.01875978 -0.057776555 -0.040377114 -0.010987031 -0.0089880265 0.028282534 0.0122453375
-0.036570832 -0.058471244 -0.0135140065 -0.06308573 -0.062375195 -0.0014395409 -0.03016424 -0.042165827
-0.050678536 0.014391918 0.018525105 0.038564444 -0.013354336 0.015424136 0.048029657 -0.05970431
0.031955436 0.00025224994 0.05710266 0.0019498449 -0.008944481 0.04394619 -0.040930193 0.058994032
0.015812524 0.04067838 0.03710803 -0.052137997 -0.0490244 0.050854616 -0.023227677 0.0098046325
-0.0045617907 -0.0003348375 0.020232208 -1.3586592e-05 0.011178839 0.035269655 -0.0045319814 -0.0028445038
0.0005341367 -0.035279635 0.009760096 -0.028473161 0.022938145 -0.038157467 0.00018766575 -0.0007475828
00000000: 7e24 3a3b beb9 1cba be3c ec3c ef34 c6bc
00000010: 4725 ec3a 7881 32bd 0b71 593d 386f 73bd
00000020: faee 493d 2e88 da3c 40d8 1c3d 4c10 203c
00000030: a3cf 94ba 2db0 843d 261e e03c 7e5e 3f3d
00000040: 9781 933c db00 893c 13b2 a53c a443 1f3c
00000050: 4dcf 08bd a5f8 19bd 4ebd 9fba 9324 29bd
00000060: f91f 13bd 4838 c83b 2fc0 d03c 0715 4f3d
00000070: a781 62bd a3d4 013d 829f 543d c411 3f3d
00000080: 5be6 0abd 2d9b a3bb 4474 f1bc f130 5e3d
00000090: 3e83 e3bc fc99 3f3d fac4 6fbc 20ac c23c
000000a0: c0f3 b8bc 4093 2fbd 26ec 443d 6eea 4d3d
000000b0: fc6a 1cbd ce99 ffbb f94b 32bb 1247 3cbc
000000c0: 9ded 08bd 661b 553d 7d6d 063d b1d9 4a3d
000000d0: 54af 30bd 1104 20bd c064 8c3c bd94 323d
000000e0: 677c b2ba b3fa 3038 6125 babc e8dc e2bc
000000f0: a103 03bd c6e9 5e37 6ae0 2a3d 14fb 133d
00000100: 2d66 433c 2142 b4bb 3222 f93c 033f c8bc
00000110: ca5b 25bd 3cab a63b 47d6 3b36 a287 fbbc
00000120: 9439 4f3a 3003 013d a7ed 3839 5dfc 923b
00000130: 6840 b23c f2e1 32ba 3a75 17bd d3f1 063c
00000140: bd33 013d 1f68 9bbc 9599 b33b 5d5e d3bc
00000150: a98a a23c 7916 b0bc f3c1 75bc 70b3 debc
00000160: 147b 013a 8064 e8bc e1ec 19bb 764f e7bc
00000170: 496c 123c edd5 333d 1b42 773d 69d5 76bc
00000180: 8fab 39bd d8f5 0fbd 38ae 763d 9dc3 3cbd
00000190: bb49 333d 7bc5 71bd 34b1 67bc 105e ff3c
000001a0: 023f d4ba 1e88 82bb aa20 293d db6f 1fbd
000001b0: cd67 67ba 1711 5f3d 7e01 893d 0ada 113a
000001c0: 2d57 763d ff87 4ebc bc1d f7bc 57b9 52bd
000001d0: d5d0 f83b 8e8d 54bd 14f8 5b3d 04cc e73c
000001e0: 7efa c6bc fc17 103d 888f ab3c e6d9 85bd
000001f0: 6f95 2dbd 80b3 b83b 62bb 263d 74d4 e8bc
00000200: 2184 15bd e32a 8a3a 1c16 c0bc 78e6 d738
00000210: 2595 483d 3e7b eabb 55c6 39bd 3502 4cbd
00000220: bb27 91bc 9306 643d 6fcb 0e3d a247 03bc
00000230: 6ce8 92bc ac02 34bd 6f16 aabc 110f 19bd
00000240: 4186 6b3d f3c1 5a3c ca1b e83c f8c4 84bd
00000250: ec31 32bc 6961 ed38 1352 00bc bfe4 b3bc
00000260: e38f e4bc c273 153d 52dd ab38 7407 b53b
00000270: 0231 553c e07e 90bc 8c31 5bbc 2221 2339
00000280: d054 74bb 050e 02bd 2639 c5bc 3681 173d
00000290: ad8d 26bd 1cbb 8abc c8e9 b7ba 565b 8338
000002a0: aa2a 10bc c070 1cbd 816e 98bc 346b 13bd
000002b0: d356 69bc 2090 3933 70ed a13c 0574 24bd
000002c0: bca0 8cbc 0df6 5c3c a573 86bc c930 e83c
000002d0: f49f beb9 a412 c3bb 3cac 19bb 090d febb
000002e0: 07dc 853b a9c0 09bd 204a 713d 5229 6dbc
000002f0: 0e1c e43c 65c7 dcbb 7abb e73c 2f94 39bd
00000300: 4e28 643d b09c 9cbc 8369 24bd a9c9 4ebd
00000310: b19a 61bd e292 063b 8e34 7e3d 6ee4 103c
00000320: 88da a838 1cae 99bc 1ca7 6cbd 7962 25bd
00000330: f302 34bc 8442 13bc c6b0 e73c aba0 483c
00000340: 4ccb 15bd 8b7f 6fbd da69 5dbc 1733 81bd
00000350: 227d 7fbd faae bcba ff1a f7bc 13b6 2cbd
00000360: 4c94 4fbd 14cc 6b3c f6c1 973c c0f5 1d3d
00000370: 25cc 5abc 84b5 7c3c bfba 443d 828c 74bd
00000380: b4e3 023d 6a40 8439 7be4 693d f091 ff3a
00000390: df8b 12bc ec00 343d 6ba6 27bd baa3 713d
000003a0: 4489 813c 5f9e 263d 97fe 173d a78e 55bd
000003b0: cfcd 48bd ee4c 503d f847 bebc 9ca3 203c
000003c0: 137b 95bb 218d afb9 04be a53c f8f1 63b7
000003d0: 7327 373c ea76 103d 0481 94bb db6a 3abb
000003e0: 4f05 0c3a 6181 10bd cfe8 1f3c 8c40 e9bc
000003f0: c7e8 bb3c 014b 1cbd 24c8 4439 6ff9 43ba

convs.0.bias f4 [50]
-0.04231358 -0.012647277 0.003143807 -0.037748843 -0.0317414 0.037329745 0.021444336 -0.0127629265
-0.016661188 0.037159514 -0.035776094 -0.04387124 0.009483227 -0.017768204 0.03581955 -0.053435467
0.048281655 0.0273683 0.028341755 -0.049239375 0.02764891 -0.026663586 -0.06346843 0.029525941
-0.007249996 0.035740808 -0.021572357 0.028633753 -0.013170118 0.05388547 -0.05654155 0.0015390515
0.003925367 0.03283552 0.046728294 -0.062386565 -0.046332885 0.0013801507 -0.034526143 -0.03741436
-0.0067813485 0.023571419 -0.020130131 -0.017230872 -0.034935996 0.033071205 -0.0581386 -3.162845e-05
-0.04785964 -0.04356525
00000000: 0151 2dbd 8636 4fbc 5408 4e3b 889e 1abd
00000010: 4503 02bd 13e7 183d 08ac af3c 981b 51bc
00000020: 0b7d 88bc 9334 183d f489 12bd 54b2 33bd
00000030: 895f 1b3c a08e 91bc 85b7 123d 26df 5abd
00000040: fcc2 453d 7c33 e03c f82c e83c 3aaf 49bd
00000050: f87f e23c 986d dabc bcfb 81bd 63e0 f13c
00000060: 6091 edbb f464 123d 83b8 b0bc 5591 ea3c
00000070: 7bc7 57bc 03b7 5c3d 1d98 67bd 00ba c93a
00000080: 5da0 803b 8a7e 063d 2b66 3f3d 0e89 7fbd
00000090: 8dc7 3dbd 2ce6 b43a 496b 0dbd cd3f 19bd
000000a0: 1336 debb d918 c13c f2e7 a4bc c227 8dbc
000000b0: 0c19 0fbd ac75 073d be22 6ebd caa8 04b8
000000c0: 7808 44bd 7a71 32bd

convs.1.weight f4 [50, 1, 4, 92]
0.04041142 0.010899795 0.048236832 -0.044409204 0.035769567 -0.03178275 0.009061996 0.02462419
-0.04150628 0.019930718 -0.00046698496 -0.042307913 -0.03840805 0.030493876 0.00884928 -0.04339381
0.026292719 -0.03363884 0.0455834 0.03469229 0.01821234 -0.034456424 -0.022970745 0.027755342
-0.0031275004 -0.026909089 0.011871337 0.038181674 0.02426646 -0.03175513 0.040081963 -0.011907717
0.029048001 -0.045619622 -0.02740155 0.00010373501 -0.006497158 -0.026215142 0.017930131 -0.048965577
-0.03304637 -0.019954417 0.013396064 0.03925967 0.031478826 0.0077546295 0.03376626 0.026604727
-0.04102773 0.015543785 0.011018204 0.0020823039 0.003105358 0.024426801 0.030414881 0.047422033
-0.0014840846 -0.025223939 0.0065356903 0.027670207 -0.008509184 0.02556339 -0.02762622 0.0055803386
-0.0012193999 -0.015668461 0.01934028 -0.025874566 0.013421536 -0.0198063 -0.008584232 0.019512972
0.0072854436 -0.010385999 -0.004312335 -0.00028443307 -0.016337194 -0.009993514 -0.015478179 -0.0062076556
-0.017671566 -0.0019821138 0.004354177 -0.019751398 0.017893014 0.024981799 2.5353305e-07 -0.019727478
4.903432e-05 5.119687e-07 0.0018396913 -0.008497662 0.046668347 -0.03149962 0.01996015 -0.04268156
-0.0076134643 -0.027619988 -0.01747423 -0.013319251 -0.02395692 -0.04666808 0.007901161 0.0015510662
-0.01828111 -0.020592598 0.017092867 0.0341505 0.03224602 -0.053882506 0.044332948 -0.04886333
-0.017790642 0.052688245 -0.026801633 0.041051034 -0.040075928 -0.015139491 0.0013165369 0.04009265
0.014649046 -0.01543168 -0.005758094 0.044106092 0.007340928 -0.047036145 -0.02360898 -0.019926561
0.03706561 0.051312022 -0.0065538855 0.044085167 -0.030272463 -0.024335911 -0.025817307 -0.022736074
0.017074324 0.03359525 -0.03464725 -0.007725809 -0.059524477 0.00065158407 -0.040976036 -0.008162364
0.036542185 0.026237747 0.0049104975 -0.02997459 -0.0043860874 -0.00031289743 -0.03361889 0.0007627131
0.0130907865 0.02431757 -4.141573e-05 -0.004703208 0.023454739 -0.01050442 0.0074864533 1.7229586e-07
0.01626293 -1.6725062e-07 -0.022073686 -0.009241691 -0.01221191 -0.016172305 -0.026253577 -7.88196e-05
0.014656763 -0.013736271 -0.00047003655 0.02567615 -0.00021707737 0.008994142 -0.015621272 0.004121001
-0.012238611 -0.02492239 0.01511192 0.0061424673 0.010185241 -0.00049388234 0.013383342 0.0054847836
0.04988102 0.004488202 -0.012854588 -0.042310398 0.024943111 -0.050169468 -0.023322618 0.01840596
0.021114934 -0.03550557 -0.016839022 0.0016824711 0.018325904 0.0038227118 -0.04651229 -0.017471548
-0.053697247 -0.049926914 0.048714332 -0.009046812 0.02964492 0.049255375 -0.004718974 -0.026312271
0.041425575 0.04264071 -0.009074355 -0.03704986 -0.053019352 0.03976115 -0.019229274 -0.052706517
-0.047337428 -0.0036804958 0.029057825 0.0028147993 -0.047896724 0.006776734 0.037954632 0.026032459
-0.015408012 0.014475304 0.037692733 0.022631502 0.033760846 0.031584363 -0.010034725 0.05761977
-0.013705062 0.037736345 -0.04043367 -0.04561002 0.008759667 -0.04181361 -0.00047926704 -0.022343563
3.0913932e-05 -0.032089274 -2.502286e-07 0.01744334 0.02493788 0.001570771 -0.013678946 0.016654119
0.0041671125 0.018177828 -0.024376059 -0.0008915843 0.00072250585 -0.00037326946 0.018884983 0.03423327
00000000: 7286 253d 0e95 323c fc93 453d 6de6 35bd
00000010: 1c83 123d a12e 02bd c478 143c abb8 c93c
00000020: 7d02 2abd bf45 a33c a9d5 f4b9 104b 2dbd
00000030: c251 1dbd 4bce f93c 92fc 103c b5bd 31bd
00000040: d463 d73c e1c8 09bd a9b5 3a3d 8119 0e3d
00000050: 0c32 953c 2e22 0dbd 252d bcbc 2c5f e33c
00000060: c0f6 4cbb 7370 dcbc ff7f 423c 6364 1c3d
00000070: 75ca c63c ab11 02bd fc2c 243d 9618 43bc
00000080: 13f6 ed3c a4db 3abd 3779 e0bc 4f8c d938
00000090: 1de6 d4bb 23c1 d6bc 36e2 923c 2190 48bd
000000a0: a15b 07bd 7277 a3bc 2a7b 5b3c bfce 203d
000000b0: f1ef 003d 8c1a fe3b 7d4e 0a3d 28f2 d93c
000000c0: b10c 28bd 5cab 7e3c b285 343c 4377 083b
000000d0: 4383 4b3b b71a c83c a128 f93c 9b3d 423d
000000e0: 9e85 c2ba 6fa2 cebc 5829 d63b a1ac e23c
000000f0: 1b6a 0bbc 516a d13c 6250 e2bc 46db b63b
00000100: 45d4 9fba 255b 80bc 826f 9e3c e6f6 d3bc
00000110: 01e6 5b3c d240 a2bc e1a4 0cbc abd9 9f3c
00000120: bbba ee3b 0a2a 2abc 7d4e 8dbb f61f 95b9
00000130: 94d5 85bc d6bb 23bc 3098 7dbc 9769 cbbb
00000140: f6c3 90bc 5ae6 01bb 7cad 8e3b afcd a1bc
00000150: 5f94 923c a1a6 cc3c 511d 8834 859b a1bc
00000160: 33aa 4d38 396e 0935 cc21 f13a c739 0bbc
00000170: 4f27 3f3d bf05 01bd 7883 a33c dcd2 2ebd
00000180: 5e7a f9bb 5043 e2bc 1e26 8fbc fd38 5abc
00000190: 4d41 c4bc 0727 3fbd df73 013c 254d cb3a
000001a0: 44c2 95bc cfb1 a8bc 5706 8c3c 65e1 0b3d
000001b0: 6714 043d e7b3 5cbd 7796 353d ea24 48bd
000001c0: aebd 91bc a1cf 573d 198f dbbc 2125 283d
000001d0: a826 24bd a10b 78bc a68f ac3a 3138 243d
000001e0: 8d02 703c 28d5 7cbc 65ae bcbb 97a8 343d
000001f0: 2b8c f03b f9a8 40bd 9f67 c1bc 073d a3bc
00000200: 1cd2 173d 8e2c 523d fac1 d6bb a692 343d
00000210: f5fd f7bc 1b5c c7bc d17e d3bc 0141 babc
00000220: 74df 8b3c 2c9b 093d 46ea 0dbd c828 fdbb
00000230: f0cf 73bd 11cf 2a3a 7dd6 27bd 70bb 05bc
00000240: 42ad 153d 8bf0 d63c 3de8 a03b 458d f5bc
00000250: 2bb9 8fbb 620c a4b9 f6b3 09bd cff0 473a
00000260: bd7a 563c a435 c73c cdb5 2db8 5e1d 9abb
00000270: 2724 c03c bb1a 2cbc ec50 f53b 5300 3934
00000280: d639 853c 8095 33b4 e0d3 b4bc 766a 17bc
00000290: 7714 48bc c87b 84bc be11 d7bc f34b a5b8
000002a0: eb22 703c 190e 61bc 3d6f f6b9 ca56 d23c
000002b0: 439f 63b9 2a5c 133c 5df0 7fbc 7609 873b
000002c0: 7484 48bc 0a2a ccbc fd97 773c c046 c93b
000002d0: ffdf 263c e277 01ba ce45 5b3c b3b9 b33b
000002e0: 0a50 4c3d c411 933b 0d9c 52bc ab4d 2dbd
000002f0: 7f55 cc3c 807e 4dbd 130f bfbc 19c8 963c
00000300: 3af9 ac3c 4a6e 11bd fdf1 89bc 5d86 dc3a
00000310: 3520 963c 7686 7a3b ac83 3ebd 7e20 8fbc
00000320: a5f1 5bbd 2a80 4cbd ae88 473d 1439 14bc
00000330: e7d9 f23c 01c0 493d a0a1 9abb d58c d7bc
00000340: ddad 293d 06a8 2e3d 9aac 14bc 98c1 17bd
00000350: d22a 59bd 96dc 223d b686 9dbc cae2 57bd
00000360: e4e4 41bd 7934 71bb ad0a ee3c 7f78 383b
00000370: 5b2f 44bd 5d0f de3b 5176 1b3d 0642 d53c
00000380: e371 7cbc d329 6d3c b263 1a3d b365 b93c
00000390: d048 0a3d 9b5e 013d b068 24bc b502 6c3d
000003a0: 328b 60bc 6d91 1a3d c79d 25bd 93d1 3abd
000003b0: b584 0f3c bf44 2bbd 2246 fbb9 d909 b7bc
000003c0: 95a9 0138 0b70 03bd 2857 86b4 56e5 8e3c
000003d0: 864a cc3c 54e2 cd3a a81d 60bc 386e 883c
000003e0: 468c 883b abe9 943c 4db0 c7bc 36b9 69ba
000003f0: 8c66 3d3a 61b3 c3b9 aeb4 9a3c 2f38 0c3d

convs.1.bias f4 [50]
0.0054089366 0.03112396 -0.0047877026 -0.015831964 0.028083598 0.045185648 0.038045872 -0.034448195
0.033720035 0.0113109015 -0.0057141515 0.042559043 -0.012218827 0.042164385 -0.04754989 0.01708619
0.052151732 -0.009158554 -0.03418239 0.030478941 0.0017496097 -0.0018550255 -0.036144037 0.04717732
-0.038089804 0.030102544 -0.018309819 -0.017893437 0.019495524 -0.033361763 -0.03923371 -0.01544085
0.034830667 0.04408278 0.005226831 0.02444802 0.031864926 0.00051776774 -0.02357459 -0.026200147
0.051779132 -0.045967188 0.044394676 0.020654626 -0.014932509 -0.009395464 0.026565742 0.004687991
-0.037283115 -0.037177883
00000000: 733d b13b adf7 fe3c 29e2 9cbb 09b2 81bc
00000010: 930f e63c 9614 393d fdd5 1b3d 8d19 0dbd
00000020: 051e 0a3d 5c51 393c c73d bbbb 6452 2e3d
00000030: 7a31 48bc 90b4 2c3d acc3 42bd 56f8 8b3c
00000040: 0e9d 553d c20d 16bc d502 0cbd f9ae f93c
00000050: 2953 e53a 5424 f3ba c50b 14bd 013d 413d
00000060: 0e04 1cbd 9c99 f63c 79fe 95bc 4295 92bc
00000070: 14b5 9f3c 58a6 08bd 87b3 20bd 9efb 7cbc
00000080: 9aaa 0e3d 2590 343d d645 ab3b 3747 c83c
00000090: cc84 023d ceba 073a 801f c1bc b1a1 d6bc
000000a0: 5b16 543d 1748 3cbd 31d7 353d e433 a93c
000000b0: 7ba7 74bc 6fef 19bc 66a0 d93c b89d 993b
000000c0: 2eb6 18bd d647 18bd

convs.2.weight f4 [50, 1, 5, 92]
-0.014648795 0.002861797 0.0441371 0.012809543 0.03402794 0.04399296 0.012903299 0.0078970175
0.04482989 -0.013406358 0.03841872 0.037816726 -0.031780954 -0.04264564 0.011137031 0.016015688
0.03999687 -0.017905219 0.029630568 0.017722238 0.024772812 0.03327422 0.051696375 -0.004266304
-0.046671107 0.009924652 -0.03381025 -0.012565718 0.005406439 0.016034484 -0.027929788 -0.02108338
0.026356144 0.01147273 0.020282142 0.009663129 -0.004453437 0.0076204217 0.04263018 0.013556617
-0.046160698 0.027188584 0.026659595 -0.048107818 -0.0068291207 -0.0361239 0.005791248 0.0038105552
0.014996708 0.0005257347 -0.017634114 -0.041023944 -0.034231573 -0.04071244 -0.024717564 0.049084023
-0.021947041 0.000344219 -0.00091520813 0.025220621 0.018093498 0.026766041 -0.0010549288 0.004874356
-0.0072771567 0.028679661 -0.015104752 0.0155252665 0.016870836 -0.008385399 -0.0029392354 0.0037879583
0.009523603 -0.0046393005 -0.0056401817 0.0011161073 -2.6000823e-06 -0.00014562614 -0.012279861 0.023906602
0.013764111 0.0011498001 0.0024596793 -0.0125206625 0.018205065 0.0133175 0.005291589 5.5150235e-06
-0.02335074 -0.0051249564 -0.008492493 0.015926452 -0.0046931063 -0.03459738 -0.039928406 0.030835563
-0.0038091883 -0.030252235 0.024312677 0.02153426 0.051044844 -0.045934614 0.04417779 -0.033520106
0.0069067865 0.0019449706 0.02974486 -0.0049297037 0.008328856 0.021317128 -0.024410145 -0.030216653
0.014719971 -0.015162524 0.010311732 -0.03770843 0.015139751 -0.018709982 0.035794847 0.034984034
0.01933156 -0.009346383 -0.0146363955 -0.032832507 0.008608935 -0.045471545 -0.0075803315 0.007946995
0.03999892 0.042006493 0.019036144 0.0117327245 -0.037448887 -0.026343497 0.04889461 -0.03834966
-0.0044060424 0.036874212 -0.04114125 0.010346684 -0.028784374 0.0025164627 0.04099832 0.025788203
-0.006994656 0.008706098 -0.023821134 -0.039738413 0.00014239113 -0.010661865 -2.3762497e-07 0.015562186
-0.005554121 0.008257042 0.01728607 -0.0025123851 -0.0049012047 -7.778515e-05 0.011901723 0.026240783
-0.00021131666 -1.6878706e-05 0.028691232 -1.546695e-05 0.028808607 -0.0043130578 -0.0003064702 0.01431861
-0.008794043 -0.009610016 -2.5361115e-07 0.0010962462 0.0149583155 -0.014797355 0.0018607181 4.142786e-06
-0.019889824 -0.0282397 0.017308595 0.01179512 -0.0016274827 -0.02305819 -0.0034570848 -0.01573102
0.032760244 0.025707988 0.018232398 -0.01643827 -0.03575854 -0.02032098 -0.002703878 -0.017225519
-0.0029591925 0.016037615 0.013936939 -0.033181656 -0.012122184 -0.018716628 -0.017800618 0.026061144
0.046133157 -0.013641096 -0.0065361597 -0.04850487 0.017701231 0.03730151 0.0015797149 0.011938994
0.008195851 -0.03170409 0.0008931858 0.04296904 0.045267057 0.018980855 0.030263115 -0.009375726
0.039436616 0.002135607 0.0028338493 -0.024194786 0.00045267027 -0.04357016 0.02521068 0.010230756
-0.03312277 0.015824012 -0.025375891 0.00266599 -0.039708737 -2.4426074e-05 -0.00010432556 -0.0349752
0.01069871 0.008620165 -0.028430186 -0.0025541277 0.037784927 0.02329356 0.0052348725 -0.03592705
0.0123597495 0.020213885 -0.015209045 0.00031747247 0.019559145 -0.004004701 0.0011694286 -0.009072032
0.012715478 0.028001796 0.00012919295 9.610628e-05 0.010119877 0.00027840227 -2.0871018e-07 0.023713421
00000000: 8001 70bc fd8c 3b3b 1bc9 343d 1edf 513c
00000010: e260 0b3d f631 343d 5c68 533c 7e62 013c
00000020: 8c9f 373d 57a6 5bbc f35c 1d3d b6e5 1a3d
00000030: bf2c 02bd 32ad 2ebd 1878 363c 5533 833c
00000040: c2d3 233d f7ad 92bc cebb f23c 3a2e 913c
00000050: 5af0 ca3c 8c4a 083d 94bf 533d 5acc 8bbb
00000060: 342a 3fbd 029b 223c 9e7c 0abd 71e0 4dbc
00000070: 7f28 b13b c05a 833c 03cd e4bc 0db7 acbc
00000080: d7e8 d73c 1ef8 3b3c bc26 a63c 1a52 1e3c
00000090: 23ee 91bb bbb4 f93b fc9c 2e3d 931c 5e3c
000000a0: 0013 3dbd 98ba de3c 3965 da3c b40c 45bd
000000b0: d1c6 dfbb a8f6 13bd 82c4 bd3b 82ba 793b
000000c0: c1b4 753c 75d1 093a 6b75 90bc b908 28bd
000000d0: 6836 0cbd 16c2 26bd 7d7c cabc 540c 493d
000000e0: 48ca b3bc 4b78 b439 94ea 6fba 7a9b ce3c
000000f0: d138 943c 7544 db3c 8945 8aba 10b9 9f3b
00000100: 3775 eebb 9cf1 ea3c ec79 77bc b05d 7e3c
00000110: b534 8a3c ea62 09bc 30a0 40bb 653f 783b
00000120: e308 1c3c 4605 98bb 46d1 b8bb 594a 923a
00000130: 137d 2eb6 38b3 18b9 7831 49bc c7d7 c33c
00000140: de82 613c e4b4 963a 9232 213b 7723 4dbc
00000150: ca22 953c a531 5a3c 1165 ad3b b10d b936
00000160: 0d4a bfbc 40ef a7bb 1924 0bbc 3178 823c
00000170: a1c8 99bb fbb5 0dbd f88b 23bd dd9a fc3c
00000180: 93a3 79bb 89d3 f7bc 612b c73c 9e68 b03c
00000190: 6614 513d ef25 3cbd c5f3 343d 614c 09bd
000001a0: 5352 e23b 62ee fe3a 7eab f33c 5a89 a1bb
000001b0: c175 083c 42a1 ae3c c9f7 c7bc ea88 f7bc
000001c0: 092c 713c 3c6c 78bc 8af2 283c 2874 1abd
000001d0: b80c 783c ad45 99bc 9e9d 123d 6b4b 0f3d
000001e0: 385d 9e3c 9221 19bc 7ecd 6fbc 617b 06bd
000001f0: 7e0c 0d3c 5f40 3abd 6e64 f8bb 1d34 023c
00000200: e8d5 233d 000f 2c3d b0f1 9b3c 9d3a 403c
00000210: 0164 19bd 51ce d7bc b745 483d 8814 1dbd
00000220: 9060 90bb 6a09 173d ba83 28bd 2385 293c
00000230: 35cd ebbc 3deb 243b dbed 273d c841 d33c
00000240: 6d33 e5bb 06a4 0e3c 8a24 c3bc bfc4 22bd
00000250: d44e 1539 1aaf 2ebc db25 7fb4 8af8 7e3c
00000260: 58ff b5bb 8b48 073c 849b 8d3c d4a6 24bb
00000270: 499a a0bb 9620 a3b8 72ff 423c e9f6 d63c
00000280: e294 5db9 bf96 8db7 e009 eb3c 06bf 81b7
00000290: 0700 ec3c 8d54 8dbb bcad a0b9 9a98 6a3c
000002a0: e414 10bc 5473 1dbc 0d28 88b4 ebaf 8f3a
000002b0: b913 753c 9b70 72bc 57e3 f33a 4302 8b36
000002c0: fcef a2bc f156 e7bc c1ca 8d3c 5240 413c
000002d0: 4251 d5ba 87e4 bcbc 4290 62bb 57de 80bc
000002e0: 9b2f 063d 8f99 d23c 1c5c 953c 8da9 86bc
000002f0: 8c77 12bd 2f78 a6bc 8c33 31bb 881c 8dbc
00000300: 03ef 41bb 5161 833c c257 643c 7de9 07bd
00000310: 209c 46bc 9d53 99bc 9ad2 91bc 2e7e d53c
00000320: 1ff6 3c3d e77e 5fbc 482d d6bb 0bad 46bd
00000330: 2c02 913c 78c9 183d 700e cf3a c59b 433c
00000340: e447 063c 26dc 01bd af24 6a3a 4e00 303d
00000350: f369 393d bd7d 9b3c 5aea f73c a59c 19bc
00000360: 4a88 213d 8af5 0b3b 1ab8 393b 2534 c6bc
00000370: 6054 ed39 a076 32bd a186 ce3c e79e 273c
00000380: beab 07bd 5ca1 813c 1ae1 cfbc e4b7 2e3b
00000390: a1a5 22bd 98e6 ccb7 5cc9 dab8 2842 0fbd
000003a0: a449 2f3c 983b 0d3c 6ce6 e8bc 2763 27bb
000003b0: 5ec4 1a3d 23d2 be3c 4b89 ab3b 3e28 13bd
000003c0: 8c80 4a3c 9797 a53c 5c2f 79bc 6f72 a639
000003d0: 803a a03c de39 83bb 8347 993a dca2 14bc
000003e0: 9554 503c 0664 e53c f877 0739 ab8c c938
000003f0: d7cd 253c 85f6 9139 d119 60b4 a642 c23c

convs.2.bias f4 [50]
0.025500132 0.029669104 0.037944075 -0.033355217 -0.043242075 -0.033870872 0.020998413 -0.033799674
-0.029539451 0.017661193 0.03290804 0.024045177 0.0004270648 0.0061863717 0.04110151 -0.024566418
0.012420442 -0.0014948373 0.022474723 -0.017732305 -0.027717108 0.026211796 -0.033196293 0.014727899
-0.04965983 0.039225236 0.0009825019 0.03502595 -0.00890261 0.017593892 -0.009785723 -0.040877342
-0.019284355 -0.008963218 0.021186566 0.0015769444 -0.049088787 -0.011373988 0.008272127 -0.039314434
0.031868346 0.027363056 -0.036887694 -2.2451468e-05 -0.045335513 0.0137562305 -0.037814043 -0.039717518
-0.02898901 -0.012740248
00000000: a7e5 d03c 9f0c f33c 3f6b 1b3d 7b9f 08bd
00000010: 9a1e 31bd 2fbc 0abd dd04 ac3c 8771 0abd
00000020: b8fc f1bc 35ae 903c 95ca 063d 64fa c43c
00000030: abe7 df39 0cb7 ca3b 0f5a 283d 833f c9bc
00000040: 1c7f 4b3c 6bee c3ba e91c b83c 5743 91bc
00000050: fd0e e3bc 1fba d63c d6f8 07bd 494d 713c
00000060: 1b68 4bbd a4aa 203d 4bc7 803a 5f77 0f3d
00000070: 41dc 11bc 1121 903c 4c54 20bc 006f 27bd
00000080: 39fa 9dbc 76da 12bc 738f ad3c 79b1 ce3a
00000090: 5311 49bd f759 3abc d187 073c 2c08 21bd
000000a0: 6288 023d 7d28 e03c 8d17 17bd 2956 bcb7
000000b0: bbb1 39bd d061 613c e6e2 1abd d6ae 22bd
000000c0: 5c7a edbc 79bc 50bc

convs.3.weight f4 [50, 1, 8, 92]
0.024514569 -0.002304387 -0.008368263 -0.0111646615 0.020801198 0.023190761 -0.011485705 -0.010605866
-0.006771845 -0.024078142 0.0020708586 -0.029051976 0.02411132 0.018568262 0.013864684 0.0054677255
-0.014868686 0.029088566 0.009756214 -0.029013997 -0.022746162 0.0020339042 0.0115017705 -0.011818118
-0.030825954 0.0042734267 -0.0026767964 -0.0179813 0.026762903 -0.04490569 -0.028527897 -0.0143459495
0.013936276 -0.008100919 -0.006869237 0.01790962 -0.014077205 -0.01350378 -0.0039306665 0.022805227
-0.031523496 -0.024824534 -0.014814175 0.035301875 0.026615862 0.02796298 0.021099413 -0.00026081735
-0.020942636 -0.005948977 0.025838325 0.008150018 0.016692499 -0.0173752 -0.004218356 -0.010912144
1.3983317e-05 1.5579542e-06 -0.0064448114 -0.016178174 -6.0263515e-06 -0.0040219026 -7.099361e-08 2.3812694e-07
0.017582638 -0.001640782 0.0043676645 2.454547e-07 0.0010208988 -0.00032774432 -9.367979e-09 0.0058033443
0.013631311 0.0016726177 0.0027177655 0.013026077 2.412946e-07 4.938102e-06 0.0016146178 -0.0012742348
-0.000990206 5.4164924e-05 5.2116405e-08 0.00411487 -0.005612544 0.0008592773 0.0049236543 -0.0017923967
0.007177433 0.0019831778 1.9729067e-07 0.0024156983 -0.013706166 -0.02712171 -0.0062850486 -0.021307185
-0.0002955776 -0.012821508 -0.012753179 -0.03154537 -0.016348168 -0.007666873 -0.001612779 0.0036531899
0.0055921325 -0.0072157793 -0.025697539 -0.031058723 0.022658538 0.021203661 -0.017502842 -0.012028146
-0.019853856 -0.036745004 -0.008082296 -0.01636208 0.005042866 -0.01059455 -0.010780334 0.027231667
-0.01996301 0.02481949 -0.010522477 0.03409652 0.032539558 0.0010823681 0.024631534 0.02472884
-0.03087165 0.03557136 -0.017638989 0.00058862584 0.031621102 0.010857805 -0.024558019 0.027851664
0.022893202 0.010655871 -0.032044172 0.0045726122 -0.01950097 0.022502484 -0.023435494 -0.017364582
0.027363975 0.004904921 -0.018226143 -0.016455978 -1.8191675e-05 -0.016831644 2.2636263e-05 -0.009550211
-0.004777838 -0.0070608086 0.0016475025 -0.0011383542 -0.018388022 0.01701057 0.014904712 0.014144122
-0.0031676774 -0.0071672765 0.01873282 0.019770306 -2.7307227e-05 -0.016188202 -0.008416333 0.00027541054
0.0013243356 -0.01465941 0.008066279 -0.012039578 1.4848827e-05 0.01866295 0.0072515267 0.002503117
-0.0006478461 -0.0010603153 8.6075374e-08 -0.0061639957 -7.4063613e-09 -0.00049097755 -0.004313849 0.011157598
0.0029661222 -0.0058551803 0.023027714 -0.018037707 0.032560177 -0.015621389 0.033890836 -0.0002777161
0.015117219 -0.015120623 -0.033281494 0.028194953 0.042099208 0.021519218 0.0066936277 -0.002866937
0.041503645 -0.018643858 -0.014125259 -0.008312963 0.024505373 0.02292976 0.029468786 -0.0018484626
-0.010111557 -0.016350882 -0.02501135 0.018422903 0.02589924 0.019301187 0.014724903 -0.022952233
-0.006854811 -0.015477527 -0.021402558 0.003607874 -0.01571968 0.0052336412 -0.0072818906 -0.029354813
0.01582798 -0.037468657 0.021309013 0.029478148 0.0018426273 0.03042705 0.012089814 -0.04199853
0.0021556257 -0.018844308 -0.025997058 -0.023129907 0.029133113 -0.00011653307 0.025653174 0.021274282
0.016355528 -0.007948384 -0.007190497 -0.0006074135 0.015023238 -0.017347094 0.015827945 0.007756983
1.8551287e-05 0.00062627764 -0.00068304245 0.008623382 0.0016624574 0.013534488 -0.017395422 -0.00074040395
00000000: c7d2 c83c 3305 17bb 0a1b 09bc fceb 36bc
00000010: 4667 aa3c 8dfa bd3c 8a2e 3cbc 3ac4 2dbc
00000020: 5ae6 ddbb 863f c5bc 3eb7 073b 69fe edbc
00000030: 1a85 c53c 781c 983c b328 633c 9b2a b33b
00000040: ca9b 73bc 254b ee3c 87d8 1f3c c3ae edbc
00000050: 2956 babc 404b 053b ec71 3c3c c8a0 41bc
00000060: b686 fcbc 1a08 8c3b 316d 2fbb 854d 93bc
00000070: e03d db3c 07ef 37bd 56b3 e9bc 460b 6bbc
00000080: fa54 643c b8b9 04bc 5617 e1bb 32b7 923c
00000090: 14a4 66bc f53e 5dbc d2cc 80bb 07d2 ba3c
000000a0: c81e 01bd d25c cbbc 27b7 72bc b398 103d
000000b0: 8209 da3c 9f12 e53c add8 ac3c 50be 88b9
000000c0: e48f abbc a3ef c2bb e5aa d33c a787 053c
000000d0: b5be 883c 6f56 8ebc 233a 8abb d9c8 32bc
000000e0: e499 6a37 e61a d135 ff2e d3bb 1788 84bc
000000f0: f735 cab6 2aca 83bb 2675 98b3 d6af 7f34
00000100: 7709 903c 820f d7ba a01e 8f3b 09c7 8334
00000110: aecf 853a 19d5 abb9 cff0 20b2 fb29 be3b
00000120: dd55 5f3c bd3b db3a 8a1c 323b 546b 553c
00000130: 478b 8134 f9b1 a536 95a1 d33a 3a04 a7ba
00000140: cdc9 81ba 252f 6338 98d6 5f33 08d6 863b
00000150: 6ee9 b7bb 2041 613a 9b56 a13b daee eaba
00000160: ac30 eb3b 34f8 013b d9d6 5334 b150 1e3b
00000170: d48f 60bc 592e debc cff2 cdbb 688c aebc
00000180: c1f7 9ab9 4d11 52bc b6f2 50bc b835 01bd
00000190: 98ec 85bc 643a fbbb e263 d3ba 5b6a 6f3b
000001a0: 353e b73b 5872 ecbb a583 d2bc dd6e febc
000001b0: 669e b93c 4db3 ad3c 1f62 8fbc b311 45bc
000001c0: 8ea4 a2bc ee81 16bd 9b6b 04bc c509 86bc
000001d0: a03e a53b c394 2dbc ff9f 30bc f214 df3c
000001e0: 7789 a3bc 3e52 cb3c 7866 2cbc cba8 0b3d
000001f0: 3348 053d 3fde 8d3a 12c8 c93c 2394 ca3c
00000200: 8be6 fcbc 46b3 113d a47f 90bc 034e 1a3a
00000210: 2185 013d efe4 313c e62d c9bc 2c29 e43c
00000220: 868a bb3c f695 2e3c c040 03bd dad5 953b
00000230: 80c0 9fbc 2157 b83c cbfb bfbc 2b40 8ebc
00000240: 6a2a e03c 76b9 a03b fe4e 95bc b0ce 86bc
00000250: 539a 98b7 84e2 89bc 01e3 bd37 7d78 1cbc
00000260: 698f 9cbb 5b5e e7bb 03f1 d73a d434 95ba
00000270: 7aa2 96bc c059 8b3c e532 743c bfbc 673c
00000280: cf98 4fbb 79db eabb 9275 993c 56f5 a13c
00000290: d311 e5b7 1f9d 84bc a9e4 09bc fa64 9039
000002a0: 5495 ad3a 062e 70bc 6d28 043c a641 45bc
000002b0: 3a1f 7937 0be3 983c 379e ed3b 560b 243b
000002c0: 37d4 29ba 47fa 8aba 70d8 b833 58fb c9bb
000002d0: 0b7b feb1 f2b4 00ba 305b 8dbb 5cce 363c
000002e0: 4663 423b d0dc bfbb 9ea4 bc3c d0c3 93bc
000002f0: d25d 053d dbf0 7fbc 1ed1 0a3d 6d9a 91b9
00000300: 36ae 773c 7dbc 77bc 2d52 08bd 1af9 e63c
00000310: 3870 2c3d 1249 b03c 3856 db3b 39e3 3bbb
00000320: baff 293d 01bb 98bc a16d 67bc 1833 08bc
00000330: 7ebf c83c 31d7 bb3c 8668 f13c 1d48 f2ba
00000340: f2aa 25bc 49f2 85bc 9ae4 ccbc a1eb 963c
00000350: a52a d43c 861d 9e3c b840 713c 5206 bcbc
00000360: 539e e0bb 7495 7dbc 6b54 afbc 1572 6c3b
00000370: 8fc6 80bc f77e ab3b ed9c eebb 8179 f0bc
00000380: aea9 813c bc78 19bd 3d90 ae3c 287c f13c
00000390: 5084 f13a 2642 f93c 5b14 463c a706 2cbd
000003a0: 6645 0d3b 615f 9abc c8f7 d4bc ee7a bdbc
000003b0: 91a8 ee3c 3763 f4b8 9b26 d23c 6747 ae3c
000003c0: 07fc 853c f039 02bc 439e ebbb d43a 1fba
000003d0: 0724 763c 7e1b 8ebc 9ba9 813c 4a2e fe3b
000003e0: 969e 9b37 c82c 243a 340e 33ba 1649 0d3c
000003f0: d0e6 d93a c2bf 5d3c d880 8ebc ab17 42ba

convs.3.bias f4 [50]
-0.01909397 0.0131749725 -0.0283273 0.01644312 0.0052305376 -0.024430783 -0.0046415604 -0.035604373
-0.010677128 0.028378267 -0.028775338 -0.029639801 0.026765535 -0.0013973548 -0.020198375 0.0017514114
-0.027319958 0.020069027 0.028508317 0.035811238 -0.020836422 0.01689585 -0.033256833 0.0019445125
0.014743764 0.000671883 -0.0155247785 0.034357525 -0.0019605912 -0.019867407 0.00896742 -0.030783573
0.0037043144 4.5005167e-05 -0.022865787 -0.014685684 0.004069673 0.0265941 -0.013970545 -0.0368705
-0.018837992 0.025460245 0.009534065 -0.0039343997 0.0013547536 -0.018822018 -0.027857713 0.016573038
-0.0021899631 -0.0019643502
00000000: f56a 9cbc d7db 573c a70e e8bc b9b3 863c
00000010: ee64 ab3b 1123 c8bc 3b18 98bb e4d5 11bd
00000020: 1fef 2ebc 8a79 e83c 42ba ebbc 2bcf f2bc
00000030: 6543 db3c 7227 b7ba 1077 a5bc 9d8f e53a
00000040: 1bce dfbc cd67 a43c 468a e93c ceae 123d
00000050: 25b1 aabc 2a69 8a3c 5138 08bd 03df fe3a
00000060: d48f 713c 4e21 303a a45b 7ebc 7aba 0c3d
00000070: 437d 00bb f9c0 a2bc 16ec 123c d52d fcbc
00000080: 15c4 723b eec3 3c38 0851 bbbc 399c 70bc
00000090: e45a 853b dfdb d93c b6e4 64bc 8505 17bd
000000a0: 2252 9abc 0192 d03c c434 1c3c 23ec 80bb
000000b0: fd91 b13a a230 9abc dc35 e4bc 2ec4 873c
000000c0: 7c85 0fbb 54bc 00bb

convs.4.weight f4 [50, 1, 10, 92]
0.011863191 0.010677428 -0.020543365 0.004659191 0.025726138 -0.024739046 -0.02398364 -0.017883848
0.012877606 -0.0018425797 0.011281763 0.0231346 0.030908195 -0.02209143 0.0054476387 0.016880741
-0.0058355876 -0.012111995 -0.024379928 0.026284695 0.0027075324 0.025370874 0.015450457 0.027594412
-0.020622574 -0.019356724 -0.017751804 -0.01306865 0.023384158 -0.01910768 0.024151606 0.025864763
0.020711241 -0.010838445 0.008443752 0.017867105 -0.0028374316 0.016871434 0.011793841 0.011103943
-0.003488795 -0.0014892797 -0.009119478 0.006171788 -0.00975395 0.016009543 -0.011613542 0.017911011
0.010067084 -0.024059733 -0.005913449 -0.019177767 -0.0144174285 0.01447191 -0.020692354 0.02492144
0.008213546 0.004489628 0.0019824812 -0.010529276 -0.0018345565 -0.0023652287 0.010416994 -0.003760996
0.00013619752 -0.0035063124 -2.5331858e-07 -0.013173077 0.014928122 -0.008531602 -0.0008131564 -8.00488e-08
-0.00020401497 0.011476242 -0.0007735673 -0.00084123254 -0.01609023 1.3599387e-05 0.014201469 0.0025498134
0.004832819 -0.0027130854 -0.0039495183 -0.0033893108 0.00016454248 0.0016862733 5.0670704e-05 -0.016912831
1.7124841e-05 -0.014306907 2.5321728e-07 -0.00039717424 0.013976276 0.022376923 -0.038256638 -0.036722086
-0.0070346426 -0.017901165 -0.011090317 -0.009436088 -0.002170797 0.019306995 -0.026734434 0.01004778
-0.018281972 -0.026359553 0.026862156 0.00829408 0.018356439 -0.0030401882 -0.02787883 0.019210268
0.025794305 -0.022194086 0.014296169 0.00943483 -0.013862307 -0.0141496435 0.01338295 -0.009314158
0.017393902 -0.0030074366 -0.007565959 -0.020685693 -0.029903466 0.020977894 0.021439811 0.014894327
0.021474155 -0.0020481888 0.0208809 0.011985288 -0.02376508 -0.009054212 -0.020415938 0.03395108
-0.0012582988 -0.0056828554 -0.020220311 -0.0038418914 0.017915782 0.0076121967 0.008997474 -0.01127129
-0.027338319 0.004009818 0.03279916 0.004414069 -0.0093568675 0.0010376846 -0.005036287 -0.013476936
-0.0053930385 1.5287047e-05 -0.0036435798 0.0059418306 -0.016310325 0.0030122758 -0.0064812517 0.0055444688
2.7412296e-05 0.0040107057 6.948502e-05 -0.015766066 0.0025824574 0.009737555 -0.0044458937 -0.014718848
-5.966079e-06 -0.0018660608 3.3189442e-06 0.004211942 -0.016286189 0.003268496 0.0050959303 -0.0034259674
-0.011801125 0.00024525175 0.011728633 0.00902866 3.856704e-05 0.00011153163 -0.0044406564 -0.008512635
-0.027025329 -0.015912762 0.028128847 0.021318367 -0.012568951 -0.021258466 0.0019437241 -0.024018466
-0.0058913226 -0.014608691 -0.020740591 -0.02270737 -0.017256225 -0.004154085 0.00013375255 -0.029739613
0.0030845152 -0.017319648 -0.027227027 0.002995351 -0.022745306 0.018870233 -0.030549876 0.0038387736
-0.00953537 0.026499325 -0.022383045 0.023171289 0.019204063 -0.0033099314 -0.00812105 -0.017292159
-0.014358433 0.0115779955 -0.025630947 0.007635721 0.026792763 0.00561337 -0.024839705 0.0168818
0.0241668 -0.014481264 0.007958502 -0.018504737 0.0105319945 -0.011490202 -0.019489745 -0.016942097
-0.005965201 0.020117015 0.017097125 -0.0035265982 0.004180696 -0.019355703 0.013212136 -0.007383219
-0.0016544891 0.014031272 -0.0054316428 -0.007849524 0.012309302 -0.002907534 0.00013503844 0.0009435159
0.0027645584 0.0016282063 0.01191297 0.003455209 0.007875158 0.012606983 0.011005131 0.0028557677
00000000: d45d 423c 61f0 2e3c 8f4a a8bc 20ac 983b
00000010: 9fbf d23c 8aa9 cabc 5779 c4bc 2681 92bc
00000020: 98fc 523c b782 f1ba 25d7 383c c684 bd3c
00000030: 2f33 fd3c 16f9 b4bc 1b82 b23b 7b49 8a3c
00000040: 7538 bfbb 6471 46bc 6ab8 c7bc 0053 d73c
00000050: db70 313b 94d6 cf3c ea23 7d3c ad0d e23c
00000060: acf0 a8bc fe91 9ebc 3b6c 91bc e41d 56bc
00000070: 2290 bf3c b687 9cbc 97d9 c53c 57e2 d33c
00000080: 9faa a93c bc93 31bc aa57 0a3c 095e 923c
00000090: 34f4 39bb f635 8a3c f43a 413c 50ed 353c
000000a0: 44a4 64bb ef33 c3ba dd69 15bc b63c ca3b
000000b0: 08cf 1fbc 7226 833c ba46 3ebc 1dba 923c
000000c0: 69f0 243c eb18 c5bc 9bc5 c1bb b11a 9dbc
000000d0: 1437 6cbc 971b 6d3c 0383 a9bc 0c28 cc3c
000000e0: 1c92 063c bb1d 933b 84ec 013b fc82 2cbc
000000f0: 8075 f0ba f401 1bbb 0aac 2a3c 0b7b 76bb
00000100: 3ed0 0e39 29ca 65bb d7ff 87b4 e4d3 57bc
00000110: 1595 743c 22c8 0bbc 012a 55ba 4be7 abb3
00000120: daec 55b9 d906 3c3c 39c9 4aba 2986 5cba
00000130: a8cf 83bc ec28 6437 47ad 683c c51a 273b
00000140: a05c 9e3b 05ce 31bb f66a 81bb 331f 5ebb
00000150: 0989 2c39 f105 dd3a 4187 5438 c78c 8abc
00000160: 51a7 8f37 8467 6abc ebf1 8734 d33b d0b9
00000170: c0fc 643c cf4f b73c feb2 1cbd e669 16bd
00000180: dc82 e6bb 77a5 92bc 29b4 35bc d299 1abc
00000190: ee43 0ebb b429 9e3c 2c02 dbbc 729f 243c
000001a0: 13c4 95bc fdef d7bc 060e dc3c e5e3 073c
000001b0: 3e60 963c e53d 47bb 2562 e4bc da5e 9d3c
000001c0: 944e d33c 5fd0 b5bc 7b3a 6a3c 8c94 1a3c
000001d0: bb1e 63bc e8d3 67bc 2944 5b3c 699a 18bc
000001e0: a87d 8e3c 6a18 45bb ddeb f7bb 0b75 a9bc
000001f0: 1df8 f4bc d5d9 ab3c 8ba2 af3c 5607 743c
00000200: 91ea af3c e83a 06bb 6c0e ab3c f15d 443c
00000210: fcae c2bc 1e58 14bc 533f a7bc 4a10 0b3d
00000220: 80ed a4ba 3f37 babb 11a5 a5bc 3ec8 7bbb
00000230: 1ec4 923c bc6f f93b 246a 133c 37ab 38bc
00000240: 9cf4 dfbc cb64 833b 6958 063d e5a3 903b
00000250: 8c4d 19bc eb02 883a 7007 a5bb 5ece 5cbc
00000260: 16b8 b0bb af3c 8037 20c9 6ebb b0b3 c23b
00000270: 3b9d 85bc 9a69 453b ae60 d4bb 60ae b53b
00000280: 75f3 e537 3d6c 833b 7cb8 9138 d627 81bc
00000290: 723e 293b 448a 1f3c dcae 91bb 5327 71bc
000002a0: 3a30 c8b6 9c96 f4ba 07bb 5e36 5504 8a3b
000002b0: 9d6a 85bc 4334 563b c3fb a63b 3286 60bb
000002c0: 8159 41bc 2295 8039 7429 403c f2ec 133c
000002d0: 0bc3 2138 17e6 e938 ed82 91bb 9478 0bbc
000002e0: 3964 ddbc 7b5b 82bc 786e e63c dba3 ae3c
000002f0: 00ee 4dbc 3c26 aebc 8fc4 fe3a 60c2 c4bc
00000300: ff0b c1bb 4b59 6fbc 2ce8 a9bc ce04 babc
00000310: ed5c 8dbc fe1e 88bb ed3f 0c39 7da0 f3bc
00000320: 9425 4a3b efe1 8dbc 370b dfbc a74d 443b
00000330: 5d54 babc bf95 9a3c bc43 fabc ef93 7b3b
00000340: 3e3a 1cbc 1d15 d93c a65c b7bc b7d1 bd3c
00000350: d751 9d3c 6feb 58bb 270e 05bc 49a8 8dbc
00000360: a23f 6bbc a2b1 3d3c fef7 d1bc 1235 fa3b
00000370: 7f7c db3c 5cf0 b73b a37c cbbc b34b 8a3c
00000380: 74f9 c53c d342 6dbc 6064 023c 3f97 97bc
00000390: 638e 2c3c 6641 3cbc f5a8 9fbc 27ca 8abc
000003a0: bc77 c3bb 70cc a43c 450f 8c3c 801e 67bb
000003b0: 38fe 883b da8f 9ebc b777 583c eeee f1bb
000003c0: 71db d8ba 6ce3 653c ecfb b1bb 4a9b 00bc
000003d0: f4ac 493c 538c 3ebb 1b99 0d39 4856 773a
000003e0: 982d 353b 8a69 d53a 9e2e 433c ca70 623b
000003f0: cf06 013c 858d 4e3c dd4e 343c d527 3b3b

convs.4.bias f4 [50]
-0.0075586247 -0.022061685 -0.01391925 0.0326147 -0.01677364 -0.0023863756 0.021165367 -0.02485067
-0.0060648457 0.003672014 -0.033300918 -0.00829466 0.03509265 -0.027408624 0.01468739 0.016617553
-0.0041585136 -0.029706018 -0.02175416 0.001903111 0.012214757 -0.022855176 -0.022664897 0.020121599
-0.022184437 -0.010331292 -0.013127941 0.02555698 0.00024025496 0.019800203 0.0016593786 -0.0065603787
-0.017662287 -0.00060797407 -0.005122594 0.020869782 0.0080422275 0.012718832 0.00033396765 -0.023578892
-0.0046061045 -0.037705787 0.016262755 0.008667369 0.010645902 -0.0074902982 -0.025286397 -0.0005956111
-0.034197964 0.016610285
00000000: 57ae f7bb b5ba b4bc 910d 64bc fe96 053d
00000010: df68 89bc bd64 1cbb fe62 ad3c a293 cbbc
00000020: 9dbb c6bb 2ca6 703b 8b66 08bd 53e6 07bc
00000030: 50bd 0f3d 0d88 e0bc 61a3 703c 8921 883c
00000040: 2444 88bb 095a f3bc c835 b2bc cf71 f93a
00000050: 6720 483c c73a bbbc bcab b9bc 0dd6 a43c
00000060: 23bc b5bc 9444 29bc 9316 57bc df5c d13c
00000070: f3ec 7b39 0934 a23c 827f d93a 72f8 d6bb
00000080: 80b0 90bc 7360 1fba 6fdb a7bb 1bf7 aa3c
00000090: 8cc3 033c a662 503c 6118 af39 8528 c1bc
000000a0: ceee 96bb 6271 1abd 7839 853c 9501 0e3c
000000b0: 266c 2e3c 2d71 f5bb 6b25 cfbc c922 1cba
000000c0: 2a13 0cbd 4b12 883c

fc.weight f4 [3, 250]
0.01836591 -0.004028069 -0.03447339 -0.0063429424 -0.0009938258 -0.052735113 0.022152662 -0.03545738
0.044352155 -0.013401669 0.039082382 0.018094674 -0.03886005 -0.003187835 0.022118216 -0.028531741
0.024437819 -0.053300574 -0.05443638 -0.049680922 -0.03525416 -0.05663428 0.052337654 -0.06280046
0.006347058 0.01954399 0.05541451 0.0029821 0.010409526 0.03709828 0.02780462 -0.023579186
-0.059180383 -0.06515664 -0.012949838 0.008427466 -0.04064638 0.025624702 -0.0064751534 0.048362605
-0.057751115 -0.06593179 0.019688517 0.051163103 0.038043696 0.03173884 0.0003530195 -0.06413705
-0.0044621625 0.022193532 -0.028157068 0.029554974 -0.02145165 -0.027627645 0.045862034 0.04805075
0.04156988 0.00034794136 -0.049362343 0.05740662 -0.047521513 0.011634576 -0.049291335 -0.025147524
-0.0015954869 0.006855956 -0.032889966 0.030473968 0.044565175 0.017544031 -0.022885196 -0.056570373
0.0059904084 -0.012296378 0.0020072246 0.05106954 0.010126296 -0.030970812 -0.039292194 -0.060618546
-0.031605043 -0.029312743 -0.043560233 -0.057635967 -0.03282452 -0.04272981 0.047593344 0.034152646
0.010166028 -0.065037735 -0.06187189 -0.058655974 -0.030988427 0.04488953 -0.040659796 0.0035321228
-0.025393464 -0.043611694 -0.017934563 -0.0597609 -0.038516227 0.048384026 0.03056482 -0.041370634
0.046135847 0.0051875934 -0.0056293197 0.010201298 -0.006968159 -0.028845059 -0.008564061 0.010471195
0.011088385 -0.06284491 0.012327257 0.019133454 -0.0033043125 -0.017040476 -0.0644628 -0.054736324
-0.01633657 0.047761753 -0.026622608 -0.04160531 -0.04773016 -0.06668383 -0.031125758 -0.013287484
-0.012312311 0.034174412 -0.03907569 0.008144817 -0.011690197 0.03000448 -0.054437917 0.033381253
0.0043014972 0.048764322 -0.018094838 0.02560266 0.048213508 -0.0041774698 -0.034679737 0.055651154
0.025266798 0.033518992 -0.05730792 0.029086575 0.009870712 -0.006890541 0.019245528 -0.045721177
0.040662657 0.0015070217 0.0134594785 -0.05513661 -0.056337252 -0.058815736 -0.033717874 -0.06115277
0.0145958485 0.005720194 0.022520818 -0.042332623 0.016413413 -0.016755717 -0.024849793 0.0033431891
-0.04085693 0.023892336 0.04637568 -0.051740225 -0.059065085 0.037660014 -0.03231684 0.045305554
-0.06210395 -0.012615471 -0.023528047 0.045737643 -0.058136825 0.0594869 -0.060465645 -0.023220927
-0.049972158 0.030715961 0.00047385745 0.026740456 -0.04993741 0.01745556 -0.024196137 0.038336154
0.046402946 -0.040652193 -0.02625217 -0.008321407 0.000592435 -0.027721567 0.046703972 -0.011011178
-0.00069726014 -0.009272617 -0.005734764 -0.05085203 0.029832972 0.012817557 0.04573366 0.028833747
-0.015622679 0.05868615 0.00061104505 -0.024953313 -0.03696836 0.0045696422 0.031145273 -0.039644163
-0.010866987 0.0005470611 0.022261761 -0.045098826 -0.04338771 -0.04359369 0.021368101 -0.006277433
-0.02178528 0.03200827 -0.034413494 -0.010672134 -0.015996752 0.034967277 0.00030528553 -0.02144226
0.036941323 0.05160249 -0.0016940191 0.0117086675 0.003022081 -0.05600086 0.056738324 -0.035014544
-0.039636288 0.025502209 -0.042664908 -0.047946706 0.006492178 0.0013556831 0.04762807 -0.027222767
0.04890454 -0.041384812 0.044374555 0.039534308 -0.0008787773 -0.03430082 -0.04922113 -0.059650395
00000000: 1b74 963c e4fd 83bb f833 0dbd 75d8 cfbb
00000010: 4343 82ba c600 58bd 8079 b53c c23b 11bd
00000020: 9baa 353d ad92 5bbc d914 203d 483b 943c
00000030: b72b 1fbd ffea 50bb 4331 b53c 66bb e9bc
00000040: d231 c83c b451 5abd aef8 5ebd 397e 4bbd
00000050: ab66 10bd 59f9 67bd 0260 563d 879d 80bd
00000060: fbfa cf3b b81a a03c 53fa 623d 566f 433b
00000070: b78c 2a3c 5ef4 173d 84c6 e33c 2329 c1bc
00000080: 2167 72bd d870 85bd 8f2b 54bc 5b13 0a3c
00000090: d27c 26bd e5ea d13c 862d d4bb de17 463d
000000a0: 6f8c 6cbd 3f07 87bd d049 a13c 6790 513d
000000b0: b5d3 1b3d 9600 023d 7a15 b939 495a 83bd
000000c0: 5537 92bb 36cf b53c a7a9 e6bc 461d f23c
000000d0: 5fbb afbc 5f53 e2bc d4d9 3b3d ddd0 443d
000000e0: 2e45 2a3d e66b b639 2b30 4abd 3423 6b3d
000000f0: eba5 42bd f39e 3e3c b6e5 49bd 2e02 cebc
00000100: a81f d1ba eda7 e03b a1b7 06bd 8ba4 f93c
00000110: f989 363d 80b8 8f3c bc79 bbbc 56b6 67bd
00000120: 304b c43b bf76 49bc a48b 033b 4b2e 513d
00000130: c4e8 253c 80b6 fdbc daf0 20bd 274b 78bd
00000140: 4a74 01bd 4721 f0bc 376c 32bd b113 6cbd
00000150: 0173 06bd 7405 2fbd 3df1 423d a5e3 0b3d
00000160: 698f 263c 8132 85bd 616d 7dbd 3f41 70bd
00000170: 71db fdbc 15de 373d e38a 26bd 307b 673b
00000180: f405 d0bc 2da2 32bd 81eb 92bc d8c7 74bd
00000190: 31c3 1dbd 542e 463d 1363 fa3c 4174 29bd
000001a0: f1f8 3c3d b0fc a93b 2876 b8bb 5823 273c
000001b0: 2855 e4bb 794c ecbc 4650 0cbc 608f 2b3c
000001c0: 0fac 353c d5b4 80bd 43f8 493c c3bd 9c3c
000001d0: 2a8d 58bb 7898 8bbc 1305 84bd 3233 60bd
000001e0: 45d4 85bc d4a1 433d a817 dabc 546a 2abd
000001f0: b380 43bd 8891 88bd 72fb febc bfb3 59bc
00000200: 93b9 49bc 78fa 0b3d d50d 20bd d771 053c
00000210: 3d88 3fbc f5cb f53c 4bfa 5ebd c8ba 083d
00000220: 93f3 8c3b 19bd 473d a03b 94bc abbc d13c
00000230: 877b 453d 28e3 88bb 570c 0ebd 77f2 633d
00000240: 51fc ce3c 364b 093d b6bb 6abd f846 ee3c
00000250: c4b8 213c 0cca e1bb cca8 9d3c 2146 3bbd
00000260: e38d 263d 4287 c53a 2585 5c3c edd6 61bd
00000270: e4c1 66bd c5e8 70bd c11b 0abd 547b 7abd
00000280: 6d23 6f3c 7770 bb3b 947d b83c f964 2dbd
00000290: 6c75 863c 4943 89bc cb91 cbbc 6819 5b3b
000002a0: 9959 27bd dcb9 c33c 6df4 3d3d 8fed 53bd
000002b0: 3bee 71bd 6341 1a3d aa5e 04bd 5192 393d
000002c0: b660 7ebd 1fb1 4ebc e4bd c0bc 6557 3b3d
000002d0: e120 6ebd 89a8 733d d3aa 77bd d039 bebc
000002e0: 9baf 4cbd 0aa0 fb3c 1270 f839 cd0e db3c
000002f0: 2b8b 4cbd f6fe 8e3c fa36 c6bc 5f06 1d3d
00000300: 0411 3e3d ea82 26bd ca0e d7bc 8356 08bc
00000310: a44d 1b3a 5718 e3bc aa4c 3f3d 3a68 34bc
00000320: 56c8 36ba 2dec 17bc b0ea bbbb 384a 50bd
00000330: 4764 f43c bb00 523c 3853 3b3d c034 ec3c
00000340: 44f6 7fbc e360 703d 8a2e 203a e46a ccbc
00000350: 236c 17bd f0bc 953b 5f24 ff3c eb61 22bd
00000360: 720b 32bc a668 0f3a 4c5e b63c 8cb9 38bd
00000370: 50b7 31bd 4c8f 32bd 280c af3c edb2 cdbb
00000380: 0b77 b2bc 1b1b 033d 2af5 0cbd 2dda 2ebc
00000390: 9f0b 83bc d939 0f3d bb0e a039 aea7 afbc
000003a0: c94f 173d 225d 533d d909 deba b6d5 3f3c
000003b0: 1b0e 463b 2861 65bd 7266 683d 696b 0fbd
000003c0: a959 22bd 02ea d03c 66c1 2ebd c463 44bd
000003d0: 56bc d43b 2db1 b13a a715 433d 4802 dfbc
000003e0: 2050 483d 1f83 29bd 18c2 353d baee 213d
000003f0: bf5d 66ba 047f 0cbd 189c 49bd f953 74bd

fc.bias f4 [3]
0.036240224 -0.031212507 0.019782253
00000000: a170 143d 5fb1 ffbc 640e a23c
