saved_models/CNN_model3.pth (torch_old, 919761 bytes, 12 tensors)

convs.0.weight f4 [100, 1, 3, 91]
0	0x3d07de00	0.0331707
1	0xbbade1dc	-0.0053064656
2	0xbd1a883b	-0.037727576
3	0x3c876519	0.0165277
4	0xbd6f13b7	-0.05836841
5	0x3d87e719	0.06635875
6	0xbd172b82	-0.036906727
7	0x3b382f1f	0.0028104258
8	0x3bb9872d	0.005661866
9	0xbd4fe268	-0.050753027
10	0x3d8eda71	0.06975258
11	0x3cae1b38	0.021253213
12	0x3d96f5be	0.0737109
13	0x3d56bd8c	0.05242686
14	0xbc9574db	-0.018244198
15	0x3ce3d7dd	0.027812893
16	0xbd03b3ea	-0.032154
17	0xbda1200c	-0.078674406
18	0x3b2ed6ad	0.002667825
19	0x3d1afdc1	0.037839655
20	0x39924b8c	0.00027903577
21	0xbd110098	-0.035400957
22	0x3d1731ed	0.036912847
23	0xbd37155f	-0.044698115
24	0xbca9fe6b	-0.020751199
25	0xbd541b25	-0.0517837
26	0x3b660dad	0.0035103366
27	0xbda6cd23	-0.081445955
28	0x3b0f8618	0.0021899994
29	0xbcb96379	-0.02263044
30	0xbc7ff2db	-0.015621866
31	0xbd203805	-0.039115924
32	0xbd104f50	-0.03523189
33	0xbd28268b	-0.041052382
34	0x3a140e68	0.00056478987
35	0xbd962954	-0.073321015
36	0xbd89e973	-0.0673398
37	0xbd95d757	-0.073164634
38	0xbcd0028f	-0.025391845
39	0x3c8fad28	0.017538622
40	0x3d006586	0.03134682
41	0x3cbd5cd7	0.023115559
42	0x3d1b8a2f	0.03797358
43	0xbd5ac283	-0.053408157
44	0xbdbe958e	-0.09305869
45	0xbcec2fb6	-0.028831344
46	0xbd722b04	-0.059123054
47	0xbc9b794c	-0.018978737
48	0xbd676ba5	-0.056499142
49	0xbd5bc20e	-0.05365186
50	0x3d0099f7	0.031396832
51	0xbdf05a5e	-0.11735986
52	0x3d085ca5	0.033291478
53	0x3d920e14	0.071315914
54	0xbd2e2fe0	-0.042526126
55	0xbd47cd72	-0.048779912
56	0xbd3c9e2e	-0.04604929
57	0x3d6f78eb	0.058464926
58	0x3d634181	0.05548239
59	0xbcc549e4	-0.024083085
60	0x3ca6f162	0.020378772
61	0xbc80264c	-0.015643261
62	0xbd72b9b1	-0.05925912
63	0x3b953288	0.004553143
64	0x3d5d9d03	0.054104816
65	0x3d253e25	0.04034247
66	0xbd309400	-0.043109894
67	0x3cfc5dc6	0.030806433
68	0x3c94656e	0.018114772
69	0x3d1e707f	0.038681503
70	0x3cedad12	0.02901319
71	0x3c9e77ba	0.0193442
72	0x3cebc642	0.02878106
73	0xbd6daeea	-0.05802814
74	0xbd60cce8	-0.054882914
75	0x3ca0f6ca	0.019648928
76	0xbcbf33d6	-0.023340147
77	0xbc5a9538	-0.013341241
78	0xbc8b416e	-0.016998973
79	0xbd42a08a	-0.047516383
80	0xbc8d232e	-0.017228689
81	0x3d153259	0.03642497
82	0x3bfcd1a8	0.0077154227
83	0x3c06743c	0.008206423
84	0xbd49eff9	-0.04930112
85	0xbd5ab962	-0.05339945
86	0x3d6b96f5	0.05751701
87	0xbbec5188	-0.0072118677
88	0xbcae00a8	-0.021240547
89	0x3d343d37	0.04400369
90	0x3d37c131	0.044861976
91	0x3b70d90e	0.0036750468
92	0x3c70cba9	0.014696994
93	0x3d2824c7	0.0410507
94	0x3d1b76cb	0.037955087
95	0xbd0376d7	-0.032095756
96	0xbd2a9cd6	-0.041653477
97	0xbd5e91ca	-0.054338254
98	0xbac21d0b	-0.0014809681
99	0x3ccbffa1	0.024902167
100	0x3d167b73	0.036738824
101	0x3cf3ae78	0.02974628
102	0xbc9c1fbb	-0.019058099
103	0x3d9e9428	0.07743102
104	0xba4eb42e	-0.0007885125
105	0x3c2a8ff3	0.010410297
106	0x3d82b220	0.06381631
107	0x3c04cd82	0.0081056375
108	0xbd958129	-0.07300026
109	0xbce8a3ea	-0.028398473
110	0x3d7b45d8	0.061345905
111	0x3d40c48d	0.047062445
112	0x3cd30f41	0.02576411
113	0x3cf905e9	0.030398326
114	0xbd66ad52	-0.056317635
115	0x3cc3d504	0.023905285
116	0x3db6bd77	0.08922856
117	0x3c860bb0	0.016362995
118	0x3ce42015	0.02784733
119	0xbabd2ee0	-0.0014433526
120	0xbc1fb761	-0.009748311
121	0xbb95547a	-0.0045571895
122	0xbddae8fd	-0.1068897
123	0x3d85800c	0.06518564
124	0xb48c9800	-2.6187627e-07
125	0x3c9b080b	0.018924734
126	0x3d504b05	0.050852794
127	0xbc72f359	-0.014828526
128	0x3d5b60a4	0.05355896
129	0x3cd5c478	0.02609466
130	0xbc91f84b	-0.01781859
131	0x3cf27261	0.029595556
132	0x3d1f18b6	0.038841926
133	0x3b48ad29	0.003062079
134	0xbd08b137	-0.03337213
135	0xbd1fc242	-0.039003618
136	0xbd9b3b8a	-0.075797155
137	0x3da001a5	0.07812814
138	0x3d072319	0.032992456
139	0xbd09b2d0	-0.033617795
140	0xbd7e8464	-0.062137976
141	0x3d09895f	0.033578273
142	0xbd337e87	-0.043821838
143	0xbc116809	-0.008874902
144	0xbcdfac42	-0.027303819
145	0xbc898e54	-0.0167915
146	0xbd0cab2b	-0.034342926
147	0x3d265535	0.040608604
148	0x3ca21d3e	0.019789334
149	0x3d40d95b	0.047082286
150	0x3d6d1c99	0.0578886
151	0xbd02abba	-0.031902052
152	0xbd1929fa	-0.037393548
153	0x3d274f43	0.040847074
154	0xbb9c0c48	-0.004762206
155	0xbc5f147c	-0.013615724
156	0x3d3193ff	0.04335403
157	0x3c68b52c	0.014203351
158	0x3d332bcd	0.043742944
159	0x3d6d02f7	0.057864156
160	0xbd258243	-0.04040743
161	0x3c1c6c24	0.009547267
162	0x3d39477d	0.045234192
163	0x3d27ce5f	0.040968295
164	0x3ccd4e3a	0.025061715
165	0x3cace9d2	0.021107588
166	0x3d6f3487	0.058399703
167	0x3cdcf326	0.026971411
168	0x3bebf758	0.0072011165
169	0x3cf422da	0.029801775
170	0x3c30f8b4	0.010801483
171	0x3cec1a4a	0.02882113
172	0x3d3603f7	0.044437375
173	0xbd042574	-0.03226228
174	0xbcbf6b18	-0.023366496
175	0x3d39af35	0.045333106
176	0xbd2ed198	-0.042680353
177	0x3cb9c55a	0.022677112
178	0xbd56d45a	-0.052448608
179	0xbd44e6e0	-0.048071742
180	0x3d34cc7f	0.044140335
181	0x3c98316a	0.01857825
182	0xbd390cd2	-0.045178242
183	0x3c49f040	0.0123253465
184	0x3bd3f40f	0.006468303
185	0x3cba4f54	0.022742905
186	0xbd22a38a	-0.039706744
187	0x3d936363	0.07196691
188	0xbd074153	-0.033021282
189	0xbd4660ea	-0.04843227
190	0xbbb72bce	-0.0055899387
191	0x3d8e2807	0.06941228
192	0x3e110ae8	0.14164317
193	0x3d7fa686	0.06241467
194	0x3d90c517	0.07068842
195	0x3b33fb8c	0.0027463166
196	0xbcff62c8	-0.031175032
197	0xbb7ae149	-0.0038281253
198	0x3d1c7a5c	0.03820263
199	0xbcf9f2e6	-0.03051133
200	0xbc051d72	-0.008124696
201	0xbcb9ee24	-0.022696562
202	0x3d51550f	0.05110651
203	0x3ca94108	0.020660892
204	0x3db0be13	0.08630004
205	0x3c8e4026	0.017364573
206	0x3c34811a	0.011017108
207	0x3c6d12a3	0.014469775
208	0xbce25816	-0.027629893
209	0xbcc608d9	-0.02417414
210	0x3d21c336	0.03949281
211	0x3ca3d4c2	0.019998912
212	0x3d3caa7b	0.04606102
213	0xbbaeab5f	-0.0053304876
214	0x3d2822fb	0.041048985
215	0xbd479c56	-0.048733078
216	0xbd0d1009	-0.03443912
217	0x3c653bc8	0.013991304
218	0xbcf7dc9a	-0.030256558
219	0xbd5611c4	-0.052263036
220	0xbca1205d	-0.019668752
221	0xbd37824a	-0.044801988
222	0x3c4a5dd3	0.012351471
223	0xbba96535	-0.0051695355
224	0xbd90eacb	-0.07076033
225	0xbd5bdf4d	-0.053679753
226	0x3d04e262	0.032442458
227	0x3c7fa2b5	0.015602757
228	0x3c0d8ee4	0.008640025
229	0x3cfffd2c	0.031248651
230	0xbd520874	-0.051277593
231	0xbb93b152	-0.004507222
232	0xbce6d428	-0.028177336
233	0xbc48db92	-0.012259381
234	0xbd557245	-0.05211093
235	0x3cd23c49	0.025663512
236	0xbb0bccf0	-0.002133187
237	0x3d6385a1	0.05554736
238	0xbcab4b08	-0.020909801
239	0xbcb016a6	-0.021495175
240	0xbd4d2cf2	-0.05009169
241	0x3d1738a3	0.036919247
242	0xbb8f5b30	-0.004374884
243	0x3cffa6b6	0.031207424
244	0x3ccf4dd2	0.025305662
245	0xbcd104ae	-0.025514927
246	0x3d4423df	0.04788577
247	0xbd19988b	-0.037498992
248	0xbd530d71	-0.05152649
249	0xbc847648	-0.016169682
250	0xbd6311f7	-0.055437054
251	0x3c8aee26	0.016959261
252	0xbd1d7a7c	-0.03844689
253	0x3c9890e6	0.01862378
254	0xbc3dee60	-0.011592478
255	0x3d52f527	0.051503327

convs.0.bias f4 [100]
0	0xbcfaf534	-0.0306345
1	0xbd2fff4f	-0.04296809
2	0xbd1fa4f6	-0.03897568
3	0xbd192c41	-0.03739572
4	0x3bd53b40	0.0065073073
5	0xbd2a63f2	-0.04159922
6	0xbda918db	-0.08256694
7	0x3bad7095	0.005292962
8	0xbd18f328	-0.037341267
9	0xbc4e47de	-0.012590377
10	0xbd504af6	-0.05085274
11	0xbd7e9381	-0.06215239
12	0x3ca6d782	0.020366434
13	0x3c1db492	0.009625571
14	0xbd265dda	-0.040616848
15	0xbd9c3928	-0.07628089
16	0x3ced237e	0.028947588
17	0xbaa3bd8d	-0.0012492404
18	0x3d3b010f	0.045655306
19	0xbd02faeb	-0.031977575
20	0x3cf21427	0.029550625
21	0x3c02a316	0.007973453
22	0xbbdedcaf	-0.00680121
23	0xbd14645c	-0.036228523
24	0xbd84475f	-0.064589255
25	0x3b9575d9	0.0045611677
26	0xbcb8e3de	-0.022569593
27	0x3b64552e	0.003484081
28	0xbd014ffb	-0.031570416
29	0x3c8594c7	0.016306294
30	0xbcd5b3e1	-0.02608675
31	0xbd182c42	-0.037151583
32	0xbd005789	-0.03133348
33	0xbd429acf	-0.04751092
34	0x3aa8a825	0.0012867494
35	0xbd314cf1	-0.043286268
36	0xbc81b89d	-0.0158351
37	0xbd77fd88	-0.06054452
38	0xbd934392	-0.071906224
39	0x3d229b42	0.039698847
40	0xbbb7a017	-0.005603801
41	0xbd609eb8	-0.054838866
42	0x3ca09855	0.019603888
43	0xbd2ce20a	-0.042207755
44	0x3b9d01b2	0.004791462
45	0x3c541b29	0.012945929
46	0x3c902276	0.017594557
47	0x3bff6c4d	0.007794893
48	0x3c6dd65c	0.014516439
49	0xbcf30d69	-0.02966948
50	0x3c83bc10	0.016080886
51	0xbd78fbf1	-0.060787145
52	0xbd41b427	-0.047290947
53	0xbd1f77f0	-0.03893274
54	0xbc27f1ee	-0.010250552
55	0x3c071151	0.008243875
56	0xbcae4300	-0.021272182
57	0xbbadcb37	-0.005303766
58	0xbd5fb5fb	-0.05461691
59	0x3cefd6db	0.029277256
60	0xbda21851	-0.07914794
61	0x3b65e833	0.0035081028
62	0x3b74cec9	0.00373547
63	0xbc092c20	-0.008372337
64	0x3be54c45	0.0069976174
65	0x3bb1e6fd	0.0054291473
66	0xbd7bd686	-0.061483882
67	0x3aec4bd8	0.0018027974
68	0xbda0e809	-0.07856757
69	0x3c2b013f	0.010437309
70	0xbcb323cd	-0.021867657
71	0x3c4b8e6f	0.0124240955
72	0xbd78c440	-0.060734034
73	0x3c8ede1a	0.01743989
74	0x3a77e972	0.00094570883
75	0xbccdcb30	-0.025121301
76	0xbd2a942f	-0.041645225
77	0x3c5bf400	0.013424873
78	0x3c147be3	0.00906274
79	0xbce50a00	-0.02795887
80	0xbd401f79	-0.046905015
81	0x3d157e28	0.036497265
82	0xbd84122e	-0.0644878
83	0x3ce90919	0.02844672
84	0xbd958429	-0.07300598
85	0xbc60ca26	-0.013720071
86	0x3d1e8a6b	0.038706224
87	0x3a5f3d6c	0.00085159275
88	0x3af601d4	0.0018768855
89	0xbd683aa1	-0.056696538
90	0xbd03b52c	-0.0321552
91	0xbd0048b0	-0.03131932
92	0xbd33ec65	-0.043926615
93	0xbd941120	-0.07229829
94	0xbd71f5b3	-0.059072208
95	0x3c0aad7d	0.008464214
96	0x3cd54251	0.026032599
97	0x3c612490	0.013741627
98	0xbcbf2199	-0.02333145
99	0xbd3e53e5	-0.046466727

convs.1.weight f4 [100, 1, 4, 91]
0	0xbc474211	-0.012161748
1	0x3ca14adc	0.019689016
2	0xbc954d53	-0.018225348
3	0xbd9b4ad2	-0.0758263
4	0xbb84cfab	-0.0040530763
5	0xbce6510b	-0.028114816
6	0xbcc546d4	-0.024081625
7	0x3d46eb9b	0.048564535
8	0x3c989749	0.018626826
9	0x3d7174fb	0.058949452
10	0xbd83efd9	-0.06442232
11	0xbb07e0a7	-0.0020733268
12	0xbc497767	-0.012296534
13	0xbc97710d	-0.018486524
14	0x3c94dd92	0.01817206
15	0x3c90c2c4	0.017670996
16	0x3dbde641	0.09272433
17	0xbd22295d	-0.03959023
18	0xbb4b5a56	-0.0031029186
19	0x3cdc3692	0.02688149
20	0xbcc34f9f	-0.023841677
21	0x37d1dcb8	2.5017522e-05
22	0xbba9453b	-0.0051657236
23	0xbd561c35	-0.052272994
24	0x3c274b32	0.010210799
25	0x3d7f13f1	0.062274877
26	0x3c90b443	0.01766408
27	0x3d1868af	0.03720921
28	0xbcba4d48	-0.022741929
29	0x3d3bb141	0.04582334
30	0xbd01130d	-0.03151231
31	0xbd933834	-0.07188454
32	0xbd2ba3dc	-0.041904315
33	0x3ccad480	0.024759531
34	0xbd89266d	-0.06696782
35	0xbc848fa7	-0.01618178
36	0x3c614882	0.013750197
37	0x3ba55ea3	0.005046682
38	0xbbd67d03	-0.0065456643
39	0xbcb7d629	-0.022440987
40	0x3c07a5b1	0.00827925
41	0x3b911ef9	0.004428741
42	0xbaaa9fa4	-0.0013017547
43	0x3d0759ba	0.033044554
44	0x3d70c870	0.058784902
45	0x3c0a6119	0.008446001
46	0x3c1199b0	0.00888674
47	0x3da4c474	0.08045283
48	0xbc47c899	-0.012193822
49	0x3d01efd3	0.031722855
50	0xbc2f1745	-0.0106867
51	0xbc18e6e3	-0.009332391
52	0xbc927713	-0.017879045
53	0x3d2cf1b3	0.04222269
54	0x3c8afe00	0.01696682
55	0x3c62f7fc	0.013853069
56	0x3d0d4245	0.034487028
57	0xbcd6649b	-0.02617102
58	0x3d040779	0.03223369
59	0x3d36b2fd	0.04460429
60	0x3ce7471a	0.028232146
61	0xbc9f4850	-0.019443661
62	0x3d1af353	0.03782971
63	0xbbbd0500	-0.0057684183
64	0xbd556fa9	-0.05210844
65	0x3d1707ef	0.0368728
66	0x3d0013eb	0.031268995
67	0xbd049007	-0.032363918
68	0xbc58719c	-0.01321068
69	0xbbc9d7c8	-0.0061597563
70	0xbc93edbc	-0.018057697
71	0xbcd51100	-0.026009083
72	0x3d551e33	0.052030753
73	0xbbc2ef10	-0.0059489086
74	0x3d3e2c5d	0.046429027
75	0xbcb85b62	-0.022504512
76	0x3d2e0289	0.042482886
77	0xbc76a9e8	-0.015055157
78	0x3d0beee3	0.034163367
79	0xbd4e9e24	-0.050443783
80	0x3d323943	0.04351164
81	0xbd0b522b	-0.03401391
82	0x3d33d7a3	0.04390682
83	0xb9e5ea80	-0.00043853
84	0x3cd093fe	0.025461193
85	0x3a9623c0	0.0011454746
86	0xbbc3e2c0	-0.0059779584
87	0x3d20f757	0.03929838
88	0x3cbd170a	0.023082275
89	0xbc7c5ecc	-0.015403461
90	0xbc025858	-0.007955633
91	0x3c1033b3	0.008801389
92	0x3d8d3f67	0.06896859
93	0xbc8cbc3b	-0.017179599
94	0x3c33edff	0.010982036
95	0x3d80382d	0.06260715
96	0xbc911227	-0.017708851
97	0xbcb895df	-0.022532402
98	0xbc94821f	-0.018128453
99	0xbc0fb463	-0.008771035
100	0x3b147503	0.0022652752
101	0xbc35431e	-0.011063365
102	0x3c121520	0.008916169
103	0x3b0b1e6a	0.0021227845
104	0xbcda5d36	-0.026655775
105	0x3ce74103	0.028229242
106	0xbc6410db	-0.013920034
107	0xbd1f7340	-0.03892827
108	0xbd17e81a	-0.037086584
109	0xbc906b4a	-0.017629284
110	0xbb535c0d	-0.0032250911
111	0xbd203df1	-0.039121572
112	0xbc9fa319	-0.01948695
113	0xbcaacf76	-0.020850878
114	0x3ceb1fed	0.028701747
115	0x3d42a27a	0.04751823
116	0x3d274147	0.040833738
117	0xbca17f0e	-0.019713905
118	0x3d438c47	0.0477412
119	0xbc722b84	-0.014780883
120	0xbd095fb1	-0.033538524
121	0x3d15b60b	0.036550563
122	0xbda8bcb9	-0.08239121
123	0x3d397784	0.045279995
124	0xbd2c90ef	-0.042130407
125	0xbd5086bf	-0.050909754
126	0x3c905ab3	0.017621374
127	0x3c822f73	0.015891766
128	0xbd377f7c	-0.044799313
129	0x3d16ab3c	0.036784396
130	0x3abe2175	0.001450582
131	0xba453b38	-0.0007523778
132	0x3ca9b6cb	0.020717045
133	0xbcfc3ad0	-0.030789763
134	0x3bd3b160	0.0064603537
135	0x3a95a2bf	0.00114163
136	0x3cf39058	0.029731914
137	0xbb6ca6f9	-0.0036110266
138	0xbd26e289	-0.040743385
139	0x3c6ecffd	0.014575955
140	0x3bc2b46a	0.005941917
141	0xbd0a39fc	-0.033746704
142	0xbc1e6ea7	-0.009669936
143	0xbd0c74b6	-0.03429099
144	0x3d1eb182	0.038743503
145	0xbcdeed10	-0.02721265
146	0xbc0ca0e0	-0.008583277
147	0x3d1f3577	0.038869347
148	0x3ce5d5ea	0.028056104
149	0x3ce12fc2	0.027488593
150	0x3d425381	0.047442917
151	0x3c24109c	0.010013726
152	0xbb6719f0	-0.0035263263
153	0xbc810364	-0.015748687
154	0x3b88f7b8	0.004179921
155	0x3d323c4b	0.04351453
156	0xbb38d5e0	-0.0028203651
157	0xbbf45d98	-0.0074574463
158	0xbcf850ce	-0.030311968
159	0xbd0671ec	-0.032823488
160	0x3d0c77ab	0.03429381
161	0x3cef5de6	0.029219579
162	0x3cbd9ec2	0.02314699
163	0xbd0fc602	-0.035100944
164	0xbca7a4f0	-0.02046439
165	0x3d2368e9	0.039894972
166	0x3c5749fc	0.013140198
167	0xbc058ac4	-0.00815076
168	0x3c9210ae	0.01783022
169	0xbd4f76c3	-0.05065037
170	0x3d37955f	0.044820186
171	0xbceb7c8e	-0.028745916
172	0xbcaa6e16	-0.020804446
173	0x3b488f20	0.0030602887
174	0xbd2399e2	-0.039941676
175	0x3cb302c6	0.021851908
176	0xbcd80299	-0.026368426
177	0x3c52dbf4	0.012869824
178	0x3cd8ee5a	0.026480842
179	0xbd3ea07a	-0.04653976
180	0xbd0c76f4	-0.03429313
181	0x3a2b5780	0.0006536171
182	0xbd02d663	-0.031942736
183	0x3c743f4b	0.014907668
184	0x3cee35ea	0.029078443
185	0x3cd0a9ee	0.025471654
186	0xbc082319	-0.008309149
187	0x3d4fb021	0.05070508
188	0x3d733265	0.05937423
189	0x3cc7fb9c	0.024411969
190	0x3d1d9892	0.03847558
191	0xbd0ca258	-0.03433451
192	0x3d2b4bde	0.0418204
193	0x3d5141bb	0.051088076
194	0x3c282689	0.010263094
195	0x3c12748b	0.008938919
196	0x3c9f2072	0.01942465
197	0x3d21da42	0.039514787
198	0x3d62b7d1	0.055351082
199	0xbc7ce6b5	-0.015435864
200	0x3d3f70d9	0.04673848
201	0x3d0a04b2	0.033695884
202	0x3d596a7c	0.053080067
203	0xbcc5e9af	-0.02415928
204	0x3c3f2798	0.011667155
205	0x3cb7900f	0.02240756
206	0xbd1b6d13	-0.03794582
207	0xbca02fc5	-0.019554028
208	0x3c1e112b	0.009647648
209	0xbd784c08	-0.060619384
210	0xbdafa990	-0.08577263
211	0xbc736924	-0.01485661
212	0x3c9c19d8	0.019055292
213	0xbcb88604	-0.022524841
214	0xbce019cd	-0.027356053
215	0x3cc11f24	0.02357442
216	0xbd865fc5	-0.06561235
217	0x3cb28e90	0.021796495
218	0xbbb2225a	-0.005436224
219	0xbbd72088	-0.0065651573
220	0x3d9e47eb	0.07728561
221	0x3a5064f1	0.0007949612
222	0x3d2532bf	0.0403316
223	0xbcfbe382	-0.030748133
224	0x3d001ee7	0.03127947
225	0x3d523dd0	0.05132848
226	0xbc6ec25f	-0.014572709
227	0xbd6d40a3	-0.05792297
228	0xbb87390b	-0.004126673
229	0xbc224e90	-0.009906426
230	0xbd2b2620	-0.041784406
231	0x3d06eaee	0.03293889
232	0xbcb7a757	-0.022418661
233	0x3c1b3cb4	0.009474922
234	0x3bdbdd0d	0.006709701
235	0xbc899394	-0.016794004
236	0x3d7cf1ff	0.061754223
237	0x3d013b01	0.03155041
238	0xbd18c172	-0.03729386
239	0xbd395d1f	-0.045254823
240	0xbd1345ff	-0.035955425
241	0xbd4f2fee	-0.05058282
242	0x3cb75276	0.022378188
243	0xbd20a3b1	-0.03921861
244	0xbb6b9420	-0.0035946444
245	0xbc47a054	-0.012184221
246	0xbd4f6a00	-0.0506382
247	0xbcde4d54	-0.027136482
248	0xbd1291da	-0.035783626
249	0x3c9204ce	0.017824557
250	0xbc944380	-0.018098593
251	0x3d20b4ff	0.03923511
252	0x3cc4c236	0.024018388
253	0xbcd7924a	-0.026314873
254	0x3d2c7dc3	0.042112123
255	0x3ccad66e	0.024760451

convs.1.bias f4 [100]
0	0xbb9e8eb2	-0.004838788
1	0xbd95e783	-0.07319548
2	0x39444746	0.00018718568
3	0x3caceee2	0.021110002
4	0x3c8e5cd7	0.017378254
5	0xbd0b6ab3	-0.034037303
6	0xbc8b7acf	-0.017026333
7	0x3ba268fa	0.004956362
8	0xbd60c83d	-0.054878462
9	0xbc03f156	-0.008053144
10	0xbc13d14b	-0.009022067
11	0xbc2b5fe2	-0.010459872
12	0x3c92556f	0.017863004
13	0xbd2c4ddd	-0.042066444
14	0xbd2b0577	-0.04175326
15	0x3c48f43a	0.012265259
16	0xbbdfe330	-0.006832503
17	0xbc6049d4	-0.013689477
18	0xbbeda91d	-0.007252826
19	0xbd7965e9	-0.060888205
20	0xbc9525cb	-0.018206498
21	0xbb3934ea	-0.00282603
22	0xbd8a763b	-0.06760832
23	0xbceea389	-0.029130714
24	0xbcfa166d	-0.030528272
25	0x3d2c6166	0.042085074
26	0xbd5b6814	-0.053566054
27	0x3ca25268	0.019814685
28	0xbb225901	-0.0024772289
29	0xbd36be95	-0.044615347
30	0xbacb3db8	-0.0015506065
31	0xbcd0394a	-0.025417943
32	0x3c0b1fd7	0.008491478
33	0xbb472aa2	-0.0030390401
34	0xbc5acf7d	-0.013355133
35	0xbd9a1610	-0.07523739
36	0x3d106e53	0.035261463
37	0xbbbb5094	-0.005716393
38	0x3bbb7095	0.005720208
39	0xbd943a97	-0.072377376
40	0xbd8b928d	-0.06815062
41	0xbb84328e	-0.004034347
42	0x3c0e6fc4	0.008693639
43	0xbd51f5e7	-0.0512599
44	0xbcd63702	-0.026149277
45	0xbd439fc1	-0.047759775
46	0xbd175352	-0.036944695
47	0xbd65bde6	-0.056089304
48	0xbd23cac7	-0.039988305
49	0x3d014873	0.031563234
50	0xbd169341	-0.036761526
51	0xbd309971	-0.043115083
52	0xbc59ae37	-0.013286165
53	0xbd076e10	-0.03306395
54	0xbd08cbb4	-0.03339739
55	0x3c9789c2	0.018498305
56	0xbcd12254	-0.025529064
57	0xbcabb12a	-0.020958502
58	0xbd0bcb3d	-0.03412937
59	0x3c2d3f95	0.010574241
60	0xbc7bf0e9	-0.015377262
61	0x3bcb3805	0.0062017464
62	0x3b7e12b8	0.0038768481
63	0x3d042044	0.032257333
64	0xbc8cb624	-0.017176695
65	0xbd286a59	-0.041117046
66	0xbc7f20fb	-0.015571828
67	0xbce9ede7	-0.028555823
68	0xbca5ea72	-0.020253394
69	0x3c7d31ea	0.015453795
70	0xbd8a123e	-0.06741761
71	0xbd18950a	-0.03725151
72	0xbcd0f9d3	-0.02550975
73	0xbd234a1e	-0.039865606
74	0xbcd7a55c	-0.026323967
75	0xbcaf7aea	-0.021420915
76	0x3b874a3e	0.0041287234
77	0xbd5a4e9c	-0.053297624
78	0x3cbe95c5	0.023264775
79	0xbd57be11	-0.052671496
80	0xbca7bd6a	-0.020476062
81	0xbcef67b9	-0.029224264
82	0x3cee675e	0.029102024
83	0xbb354e05	-0.0027664911
84	0xbcd02889	-0.025409954
85	0xbd844e95	-0.06460301
86	0xbc18d772	-0.00932871
87	0x3b5409f6	0.003235457
88	0xbd513742	-0.05107809
89	0x3cae4b18	0.021276042
90	0xbcf0935b	-0.02936714
91	0xbd7ff538	-0.06248972
92	0x3ce63417	0.02810101
93	0xbd82c864	-0.06385878
94	0xbd5e0fd9	-0.054214332
95	0xbd4bd179	-0.049760316
96	0xbce3fc9c	-0.027830414
97	0xbbc91aa5	-0.0061372095
98	0xbcb1df85	-0.021713028
99	0xbcf9e8be	-0.030506488

convs.2.weight f4 [100, 1, 5, 91]
0	0x3d94f27b	0.07272812
1	0x3d2c81be	0.04211592
2	0xbd1344f8	-0.035954446
3	0x3d23a384	0.039950863
4	0x3c65e69c	0.014032032
5	0xbd92909b	-0.071564876
6	0x3b6c77e2	0.0036082198
7	0x3d3a70af	0.04551762
8	0xbd31d0c6	-0.043411992
9	0xbc8a413e	-0.016876813
10	0xbc80822d	-0.015687073
11	0xb9f5a21e	-0.00046850828
12	0x3c082363	0.008309218
13	0x3c769a76	0.015051475
14	0xbcd8b97e	-0.026455637
15	0xbce9f4d8	-0.028559133
16	0xbcb9cf8b	-0.022681972
17	0x3d5706b0	0.052496612
18	0xbd112a11	-0.03544051
19	0xbd878fbb	-0.06619211
20	0x3d070a4a	0.032968797
21	0xbd2db34f	-0.04240733
22	0x3c0d0018	0.008605979
23	0x3c9060a7	0.017624212
24	0xbd2f7332	-0.04283447
25	0xbc5c8e20	-0.01346162
26	0xbd53c044	-0.05169703
27	0x3cd47a28	0.025937155
28	0xbd20b29f	-0.039232846
29	0x3c4f92aa	0.012669245
30	0x3bc9c352	0.006157317
31	0xbbd47a41	-0.0064843004
32	0x3cbe7ba6	0.02325232
33	0xbd29e614	-0.041479185
34	0x3cbbc80d	0.02292254
35	0x3c21efe1	0.009883852
36	0xbd926dd5	-0.07149855
37	0x3c51ea4b	0.012812207
38	0xbc4caa06	-0.012491709
39	0x3d880430	0.06641424
40	0xbc898e81	-0.016791584
41	0xbcedcf33	-0.029029464
42	0xbd075be3	-0.033046614
43	0x3d21c727	0.039496567
44	0x3caf2c1c	0.021383338
45	0xbbb396d2	-0.0054806257
46	0x3c604754	0.013688881
47	0x3da8ccd4	0.08242193
48	0x3bce4191	0.006294437
49	0xbcf5ed37	-0.03002034
50	0xbd6f9d9d	-0.05849992
51	0xbd364bae	-0.044505768
52	0x3c9de843	0.01927579
53	0x3d1ec46a	0.038761534
54	0xbd9a37db	-0.07530185
55	0xbced1996	-0.028942864
56	0x3c953164	0.018212028
57	0x3d31b5de	0.043386333
58	0xbcfe85cb	-0.031069657
59	0x3be879b8	0.007094588
60	0xbc22f2b4	-0.00994556
61	0xbcf12b55	-0.029439608
62	0xbc2691d8	-0.010166608
63	0xbd2f8a0a	-0.042856254
64	0xbd30975b	-0.043113094
65	0x3cef25d8	0.02919285
66	0xbb7f7aa0	-0.0038983002
67	0xbd13c8fc	-0.036080346
68	0xbbaf5fa8	-0.0053519793
69	0xbcd5db10	-0.026105434
70	0xbd0e0973	-0.03467698
71	0x3c43fd2c	0.011962216
72	0x3c8a7664	0.016902156
73	0xbc8eb3d9	-0.017419742
74	0x3c8d9c54	0.017286457
75	0xbcdafbb3	-0.026731348
76	0xbd1eb017	-0.03874215
77	0xbc960570	-0.01831314
78	0xbc4b7908	-0.012418993
79	0x3c3572a4	0.011074696
80	0x3d3f9898	0.046776384
81	0xbcecc63e	-0.028903123
82	0xbc17d0f0	-0.009266123
83	0x3ccd2d84	0.025046118
84	0xbca2b52f	-0.019861786
85	0xbce1c0ae	-0.027557697
86	0x3c341ab4	0.010992695
87	0xba9abb40	-0.0011805072
88	0x3a2677c0	0.00063502416
89	0x3b3eee90	0.0029133894
90	0xbc9fbd66	-0.019499492
91	0x3cd42409	0.02589609
92	0xbc299b42	-0.010351958
93	0x3d9ace1f	0.07558846
94	0x3cafb6a6	0.021449398
95	0xbcbc31ae	-0.022972908
96	0x3ca47325	0.020074436
97	0x3c169831	0.009191559
98	0x3c78225c	0.015144911
99	0x3ca52bfc	0.020162575
100	0xbbb017db	-0.0053739375
101	0x3aa484c4	0.0012551774
102	0x3d7d3da9	0.06182638
103	0xbd6912dc	-0.05690275
104	0xbc85c825	-0.016330788
105	0x3d0b430d	0.03399949
106	0x3dbb70cc	0.09152374
107	0x3cb80af8	0.022466168
108	0xbd72e2c2	-0.059298284
109	0x3d2036d9	0.039114807
110	0xbd76131f	-0.06007683
111	0xbd9ab174	-0.07553378
112	0x3c4e8ffe	0.012607573
113	0x3d2a2c93	0.041546416
114	0xbd8f7a87	-0.07005792
115	0x3cb70928	0.022343233
116	0xbd5d7a7b	-0.054071885
117	0xbd462cc1	-0.048382524
118	0x3b7d1f7f	0.003862351
119	0xbcba4c43	-0.022741443
120	0x3ab4daad	0.0013798081
121	0xbcbae293	-0.022813117
122	0xbd5beaa1	-0.053690556
123	0x3d3c9e74	0.04604955
124	0xbbf086b6	-0.0073402775
125	0xbbb8a976	-0.0056354357
126	0xbc94350f	-0.018091707
127	0x3ca4e83c	0.02013027
128	0x3aff0f9d	0.0019459609
129	0x3d4ce99b	0.05002747
130	0xbd39b2c4	-0.0453365
131	0x3c2c034c	0.010498833
132	0x3d49504e	0.04914885
133	0x3dbce1fb	0.0922279
134	0xbbc0632b	-0.0058711967
135	0x3db2ad47	0.08724456
136	0xbca8f7c2	-0.020625953
137	0x3c25bc81	0.010115744
138	0xb8ff4706	-0.00012172577
139	0xbc9cfc47	-0.019163264
140	0xbd427764	-0.04747714
141	0xbdc9cb18	-0.0985319
142	0xbd6d1437	-0.057880607
143	0xbc816e13	-0.015799558
144	0x3d34f42a	0.044178165
145	0xbc1ecf3e	-0.009692965
146	0x3c6fe1b8	0.014641218
147	0x3c67b178	0.014141433
148	0x3ccab318	0.024743602
149	0x3d108ac0	0.035288572
150	0xbc7cf7f4	-0.015439976
151	0x3d0e0fd2	0.034683056
152	0x3d096efc	0.03355311
153	0x3a958ac0	0.0011409149
154	0xbd331e3a	-0.04373
155	0xbaee2080	-0.0018167645
156	0x3d0f8bea	0.03504554
157	0xbd08d8b4	-0.03340979
158	0xbd21d0dc	-0.039505824
159	0x3ce002e0	0.02734512
160	0x3c538a58	0.012911402
161	0xbb9c4e58	-0.0047700815
162	0xbc456b50	-0.012049511
163	0xbcf59b11	-0.029981168
164	0x3d2c39c4	0.042047277
165	0x3cac2f20	0.021018565
166	0x3bbf29d0	0.005833842
167	0xbd0a0b60	-0.033702254
168	0xbc800d82	-0.015631441
169	0x3d219316	0.039446913
170	0xbd1f7463	-0.038929354
171	0xbd056984	-0.03257133
172	0x3c6599f4	0.014013756
173	0x3cf74bb0	0.030187458
174	0x3c9c3438	0.019067869
175	0x3c3746f4	0.01118635
176	0xbd3bb0b1	-0.045822803
177	0xb9f61f00	-0.00046943873
178	0xbc827451	-0.015924605
179	0xbcd0444c	-0.025423191
180	0xbc2ba14c	-0.010475468
181	0xbd1661c8	-0.036714345
182	0x3d64d877	0.0558705
183	0xbd85a2e0	-0.065252066
184	0x3c16d3c4	0.009205762
185	0xbd32e47d	-0.043674935
186	0xbd9c9f86	-0.07647614
187	0x3d50c085	0.05096485
188	0x3d09bd15	0.03362759
189	0x3d054f9d	0.03254663
190	0xbc1780b6	-0.009246996
191	0xbc6495b3	-0.013951707
192	0x3ceb8433	0.028749561
193	0x3cdffa44	0.027341016
194	0x3c0a16e3	0.008428308
195	0xbd1a114c	-0.03761415
196	0xbcf5196e	-0.029919352
197	0x3d180a61	0.037119273
198	0x3d1221e2	0.035676844
199	0xbd150060	-0.03637731
200	0x3d3de0e7	0.04635706
201	0x3c387a68	0.011259653
202	0xbc8d8503	-0.017275339
203	0xbda56859	-0.08076543
204	0xbd972551	-0.073801644
205	0xbd46a4d8	-0.04849705
206	0x3cb41b7c	0.021985762
207	0x3cc33561	0.023829164
208	0x3c3e2da1	0.0116075585
209	0xbd829d57	-0.063776664
210	0x3d7f1ad5	0.06228145
211	0x3cf646a0	0.030062973
212	0xbcad8cf8	-0.021185383
213	0xbae6a5cc	-0.0017597019
214	0xba6f7ddf	-0.0009135883
215	0x3d79b856	0.060966812
216	0x3b66a9e2	0.0035196473
217	0xbd4373c2	-0.047717817
218	0x3d06f242	0.03294588
219	0x3c524f9e	0.012836365
220	0x3b05b5a2	0.002040245
221	0xbd186475	-0.03720518
222	0xbc16e041	-0.00920874
223	0xbccd5085	-0.025062809
224	0xbc2aa65e	-0.010415642
225	0xbc82f4c0	-0.015985847
226	0x3d94ec22	0.07271601
227	0xbd334798	-0.04376945
228	0x3c352678	0.011056535
229	0x3d228f21	0.03968728
230	0xbd848acd	-0.06471787
231	0x3c92455e	0.017855342
232	0x3b53df3e	0.0032329108
233	0xbadc9098	-0.001682776
234	0xbc97fa18	-0.018551871
235	0x3db87039	0.0900578
236	0x3d5a1827	0.05324569
237	0xbcecd7b8	-0.028911456
238	0x3d1167d6	0.035499416
239	0xbd31e245	-0.043428678
240	0x3d086692	0.033300944
241	0xb9ccb480	-0.00039044395
242	0x3c9bf378	0.019036993
243	0xbd3bdd81	-0.04586554
244	0x3d362dec	0.04447739
245	0xbc04f480	-0.008114934
246	0xbce46303	-0.027879244
247	0x3c595dc0	0.013266981
248	0x3cb84714	0.02249483
249	0x3b967a40	0.00459221
250	0xbd28582f	-0.041099723
251	0xbc6a71c8	-0.014309354
252	0x3cdc3ca0	0.026884377
253	0xbd115c05	-0.035488147
254	0x3d0cc902	0.034371383
255	0x3b82e748	0.003994856

convs.2.bias f4 [100]
0	0xbd8a939f	-0.06766438
1	0x3c769a48	0.015051432
2	0xbc8eaf89	-0.017417686
3	0xbd037765	-0.032096285
4	0xbd4b44d1	-0.049626175
5	0xbd5c76b9	-0.05382416
6	0xbb6fd57d	-0.0036595755
7	0xbd3b1acc	-0.045679852
8	0xbae74706	-0.0017645068
9	0xbc307b42	-0.010771574
10	0xbc0eb778	-0.008710735
11	0xbd73eb37	-0.05955049
12	0xbd4ca89b	-0.049965482
13	0xbd8b4676	-0.06800549
14	0xbd4086a4	-0.047003403
15	0xbaf37874	-0.0018575327
16	0xbc9a95c0	-0.018870234
17	0xbd85681a	-0.065139964
18	0xbced312b	-0.02895411
19	0xbd33a9a3	-0.04386295
20	0xbd09c817	-0.033638086
21	0x3b9ffb26	0.004882234
22	0xbc68ed65	-0.0142167555
23	0xbcc38a26	-0.023869585
24	0xbc32a663	-0.0109039275
25	0xbb1838e2	-0.0023227264
26	0xbd873889	-0.0660258
27	0xb95d6fd4	-0.00021117862
28	0xbd879d10	-0.06621754
29	0xbca05272	-0.019570563
30	0xbd8a1512	-0.067423
31	0x3c047972	0.008085595
32	0xbd91c466	-0.07117538
33	0xbd1463d7	-0.036228027
34	0xbcfee372	-0.031114314
35	0xbd061b83	-0.03274108
36	0xbccd24f0	-0.025042027
37	0x3c831da1	0.01600534
38	0xbd6630e5	-0.056198973
39	0x3caa7563	0.020807927
40	0xbd7fa082	-0.06240893
41	0xbd2add71	-0.04171509
42	0xbd40d928	-0.047082096
43	0xbb43330d	-0.0029785067
44	0xbd3e19b8	-0.046411246
45	0xbd043984	-0.032281414
46	0xbd29bca2	-0.04143966
47	0x3cb08373	0.021547055
48	0xba8ca6ef	-0.0010730902
49	0xbc19da1c	-0.00939038
50	0xbd550989	-0.052011047
51	0xbd05a579	-0.03262851
52	0xbd64ccea	-0.055859484
53	0xbd127cfd	-0.03576373
54	0x3b8210ea	0.0039693015
55	0xbd4511c9	-0.048112664
56	0xbd44d11f	-0.048050996
57	0x3c3e2a27	0.01160673
58	0xbd6ee4f4	-0.058323815
59	0x3bfeb841	0.0077734296
60	0x3b6dfbc9	0.0036313406
61	0x3aae4020	0.0013294257
62	0x3b8732f2	0.004125946
63	0xbd281ba1	-0.041041974
64	0xbc2d08f0	-0.010561213
65	0xbd50255d	-0.050816882
66	0xbcf41a42	-0.029797677
67	0xbd8402f9	-0.064458795
68	0x3caea16d	0.021317208
69	0xbd3fb007	-0.046798732
70	0xbd87d2fe	-0.066320404
71	0xbd0a2f19	-0.033736322
72	0xbd2c902c	-0.04212968
73	0xbc3093fc	-0.01077747
74	0xbd2a9576	-0.041646443
75	0xbd3f3eb8	-0.046690673
76	0x3c994c05	0.018713007
77	0xbcb9d8ed	-0.022686446
78	0xbcb34a8f	-0.021886138
79	0xbcd90714	-0.026492633
80	0x3a22f25a	0.0006215923
81	0xbd2b2720	-0.04178536
82	0xbcfe2ffc	-0.03102874
83	0x3c61f0e7	0.013790346
84	0xbaae2788	-0.0013286928
85	0xbc1fa311	-0.009743468
86	0xbd37167b	-0.044699173
87	0xbce27e74	-0.027648188
88	0xbd2c555c	-0.042073593
89	0xbbfac74a	-0.0076531516
90	0xbb869a0f	-0.0041077207
91	0xbd317f31	-0.04333419
92	0xbca747f0	-0.020420045
93	0xbc459c97	-0.01206126
94	0xbd3afa9c	-0.045649156
95	0xbd5d898d	-0.054086257
96	0xbc9a1115	-0.018806973
97	0xbd5dbf6d	-0.054137636
98	0xbd610002	-0.054931648
99	0xbc951f60	-0.018203437

convs.3.weight f4 [100, 1, 6, 91]
0	0x3d2505f2	0.040288873
1	0x3b2acd11	0.002606217
2	0x3c55ee31	0.013057278
3	0x3c1d3484	0.00959504
4	0xbd16453b	-0.036687117
5	0x3cf5be0f	0.029997854
6	0xbc834ea0	-0.016028702
7	0xbd4c3b65	-0.04986133
8	0xbcce4ba5	-0.025182554
9	0xbc19a371	-0.009377346
10	0xbcdf925a	-0.027291466
11	0xbd0e7514	-0.034779623
12	0x3cdefb8f	0.027219562
13	0x3bfdffa0	0.00775142
14	0xbd46d572	-0.0485434
15	0x3c7589f4	0.014986504
16	0x3cd77ef0	0.026305646
17	0x3caff368	0.02147837
18	0xba9df0b9	-0.001204989
19	0xbd145920	-0.03621781
20	0x3cf11c18	0.029432341
21	0xbd5b9181	-0.05360556
22	0x3cfc50c8	0.030800238
23	0xbcc8e85b	-0.024524858
24	0xbd33950f	-0.043843325
25	0x3b88c386	0.004173699
26	0x3c8b8eeb	0.017035922
27	0x3c1f9195	0.009739299
28	0x3c86cdde	0.016455587
29	0xbd372b35	-0.04471894
30	0xbc2cc76f	-0.010545596
31	0x3c535221	0.012897999
32	0x3cafcf4a	0.021461148
33	0x3ca05268	0.019570544
34	0xbbbf900d	-0.0058460296
35	0xbc0128ea	-0.00788329
36	0x3c12a94c	0.008951496
37	0x3d4162ac	0.04721324
38	0x3cbfe040	0.02342236
39	0x3d2fa66b	0.042883318
40	0xbd16fd39	-0.036862586
41	0x3c85e2bd	0.016343469
42	0x3d0b8d61	0.034070376
43	0xbc752666	-0.014962768
44	0x3d2aebd7	0.04172882
45	0x3ce06870	0.02739355
46	0xbca76fc8	-0.020439044
47	0xbd1f9f14	-0.038970068
48	0xbd40fb6f	-0.047114786
49	0xbbc5daa3	-0.0060380264
50	0x3ccb6680	0.02482915
51	0xbd830b88	-0.06398684
52	0xbca86361	-0.0205552
53	0x3d52f626	0.051504277
54	0xbd287af0	-0.041132867
55	0x3d19a7b1	0.03751344
56	0xbc1eab50	-0.009684399
57	0x3ba2bd48	0.0049664117
58	0xbcd09262	-0.025460426
59	0xbce9f1d7	-0.028557701
60	0xbc3fb0c6	-0.011699861
61	0x3cd79402	0.026315693
62	0xbcd2ffef	-0.025756804
63	0x3c1cb4a8	0.009564556
64	0xbc4e9c32	-0.012610482
65	0xbc195724	-0.009359155
66	0x3ceca852	0.028888855
67	0xbd136ee6	-0.035994433
68	0xbc6c46de	-0.014421193
69	0x3c950d48	0.01819481
70	0xbc521df2	-0.012824522
71	0xbd181e4d	-0.037138272
72	0xbd2ad2fd	-0.04170512
73	0xbd1d67d3	-0.038429093
74	0x3d078c05	0.033092517
75	0xbd0ed3dc	-0.034870014
76	0xbcfe570b	-0.031047365
77	0xbd1a3c30	-0.037655056
78	0x3c18f60c	0.009336006
79	0xbc3e7e92	-0.011626856
80	0xbbf96668	-0.0076110847
81	0xbb049600	-0.0020231009
82	0xbd067ad2	-0.032831974
83	0xbccb16ba	-0.02479111
84	0xbd1f4301	-0.03888226
85	0x3c8f6e80	0.017508745
86	0x3cec09f2	0.028813336
87	0x3cb1130e	0.021615531
88	0x3d04f019	0.032455537
89	0x3ce73eba	0.028228153
90	0x3cd1d272	0.025613043
91	0xbd06c95f	-0.032906886
92	0x3c53d658	0.0129295215
93	0xbcf2899a	-0.02960663
94	0x3c2abe12	0.010421293
95	0xbd04cc7f	-0.032421585
96	0xbca9d123	-0.020729607
97	0xbccbb4e5	-0.02486653
98	0x3d92f517	0.071756534
99	0x3c92bfcd	0.017913723
100	0x3b478726	0.0030445545
101	0x3db29689	0.087201186
102	0xba987c3e	-0.0011633707
103	0x3d2931d1	0.041307274
104	0x3da21912	0.07914938
105	0xbbe73eda	-0.007057053
106	0xbdc045c3	-0.09388306
107	0xbd291634	-0.04128094
108	0xbd437d6f	-0.047727045
109	0xbc3aeb0b	-0.011408578
110	0xbd3867f7	-0.045021024
111	0x3c35234a	0.011055777
112	0x3d20828e	0.039187007
113	0x3cfd1c4a	0.030897278
114	0x3ba0e003	0.004909517
115	0xbb74e65a	-0.0037368746
116	0x3d31b2e2	0.043383487
117	0x3c40c244	0.0117650665
118	0x38921e04	6.967413e-05
119	0x3c9cf120	0.019157946
120	0x3d12ee58	0.035871834
121	0x3c15da4d	0.009146285
122	0xbd60e2ba	-0.054903723
123	0x3ae8d4ec	0.0017763651
124	0xbcdf3069	-0.027244763
125	0xbd4539af	-0.048150714
126	0xbd713a33	-0.058893394
127	0x3c25c969	0.010118821
128	0xbd127130	-0.035752475
129	0x3b9a0d98	0.0047013275
130	0xbbd265f8	-0.006420847
131	0xbc745175	-0.014911999
132	0xbcf0a6a1	-0.02937633
133	0x3d53d240	0.051714182
134	0xbd62fc82	-0.05541659
135	0xbd59f37d	-0.053210724
136	0x3c4fe5ed	0.012689096
137	0x3c4a1812	0.01233484
138	0xbc3006ba	-0.010743791
139	0x3cc15a07	0.023602499
140	0x3c0d31f9	0.008617871
141	0x3daa6e4c	0.08321819
142	0x3d5422b8	0.051790923
143	0xbd974c40	-0.073875904
144	0x3ba166a5	0.0049255663
145	0xbd12300a	-0.035690345
146	0xbd160004	-0.03662111
147	0x3d2ce569	0.04221097
148	0x3bc61578	0.0060450397
149	0x3c6ce148	0.014458008
150	0x3d09e007	0.033660915
151	0x3c95d146	0.018288266
152	0xbc9cc40a	-0.019136447
153	0xbbee1c38	-0.0072665475
154	0xbb5cd160	-0.0033694133
155	0xbc8ba728	-0.01704748
156	0x3a9f7d80	0.0012168139
157	0xbd1c59d3	-0.0381716
158	0xbce189ca	-0.027531523
159	0x3ca2723e	0.019829866
160	0xbd020f7c	-0.03175305
161	0x3d003ad5	0.031306107
162	0x3c8925fa	0.016741741
163	0xbcafda29	-0.021466332
164	0xbc385b38	-0.011252217
165	0x3ca9fe7e	0.020751234
166	0x3bfd3200	0.0077269077
167	0xbb62bcd0	-0.0034597404
168	0xbd008d75	-0.031384904
169	0xbd18d71b	-0.037314516
170	0x3ce00d5a	0.027350117
171	0xbd2ac320	-0.041689992
172	0x3d2314cf	0.039814766
173	0x3d1dcb79	0.038524125
174	0x392d2300	0.00016511604
175	0xbc025d78	-0.007956855
176	0xbd143909	-0.036187205
177	0x3c8f429a	0.017487813
178	0x3cf9650a	0.030443687
179	0xbd2b16f5	-0.04176994
180	0x3aebc800	0.0017988682
181	0xbc8ebf1c	-0.017425112
182	0xbc6e5a9a	-0.014547968
183	0xbc2ae77b	-0.010431166
184	0x3d7ea434	0.062168315
185	0x3c8da61b	0.01729112
186	0x3c5f9d3a	0.013648326
187	0x3d3a7a7c	0.045526966
188	0xbc32608a	-0.0108872745
189	0x3d2e288c	0.042519137
190	0xbd3be839	-0.04587576
191	0x3d14b246	0.036302827
192	0x3cb7541b	0.022378972
193	0x3cacd769	0.02109881
194	0x3d2b1cd2	0.041775532
195	0x3b15dab4	0.0022865953
196	0x3c1fae83	0.009746197
197	0xbd78a4fa	-0.06070421
198	0xbd032526	-0.03201785
199	0x3bdc083a	0.006714848
200	0x3cb96540	0.022631288
201	0xbba361db	-0.0049860305
202	0xbc8cb29e	-0.017175015
203	0xbb192a1b	-0.0023371044
204	0x3d0240f3	0.03180022
205	0x3d8108d1	0.0630051
206	0xbc5a57b6	-0.013326576
207	0xbccb79d7	-0.024838371
208	0xbd9a23e6	-0.07526378
209	0xbc547b1e	-0.012968807
210	0x3c66c3f4	0.014084805
211	0x3ca9050c	0.02063229
212	0xbcbae211	-0.022812875
213	0xbd3d6162	-0.04623545
214	0x3c22bd03	0.009932759
215	0x3cf4a68a	0.029864568
216	0xbdb6cd0a	-0.08925827
217	0xbdb10775	-0.086440004
218	0xbdbb0f3e	-0.091337666
219	0x3c1eb045	0.009685581
220	0x3d4f7755	0.050650913
221	0x3c8ccbd5	0.017187038
222	0x3d0108c0	0.031502485
223	0x3cc362b2	0.023850773
224	0x3d2c0af4	0.042002633
225	0x3cc385fa	0.023867596
226	0xbd18657b	-0.037206154
227	0xbd051509	-0.032490764
228	0xbd1871ee	-0.037218027
229	0xbd535012	-0.051590033
230	0x3d2fe702	0.042944916
231	0x3ce6488f	0.02811077
232	0x3c88e786	0.016711961
233	0xbc9fe825	-0.019519875
234	0xbc5f972d	-0.013646883
235	0x39830b84	0.00024994847
236	0x3c01a9a0	0.007913977
237	0xbd02bbc6	-0.031917356
238	0xbc120030	-0.0089111775
239	0xbceafa10	-0.028683692
240	0xba2b69c0	-0.00065388903
241	0x3bda81d0	0.006668307
242	0xbca5bfc5	-0.020233044
243	0x3cfbb616	0.030726474
244	0xbcf87a7a	-0.030331839
245	0xbaf55880	-0.0018718392
246	0x3c6baaf0	0.014384016
247	0x3bd0e550	0.0063749924
248	0x3c3dad4c	0.011576962
249	0xbcfc7d82	-0.030821566
250	0x3be32630	0.0069320425
251	0xbce6b7de	-0.028163847
252	0x3c9eb8a2	0.01937515
253	0x3c944dc2	0.018103484
254	0xbd2a50f2	-0.0415811
255	0x3ca8aa82	0.020589117

convs.3.bias f4 [100]
0	0xbd4e228e	-0.050325923
1	0xbd41fa8b	-0.047358077
2	0xbc98f8f9	-0.018673407
3	0xbd3d3b7a	-0.0461993
4	0xbd465ea5	-0.048430104
5	0xbd1a0862	-0.03760565
6	0x3b4fe2ea	0.0031720945
7	0xbd2fe92c	-0.04294698
8	0x3ba65d91	0.005077072
9	0xbd62b22e	-0.055345707
10	0xbc9e4832	-0.019321535
11	0xbc3c573a	-0.011495406
12	0xbd5616da	-0.052267887
13	0xbd4ce9b5	-0.050027568
14	0xbd26c4c0	-0.04071498
15	0xbd3402fd	-0.043948162
16	0x3b80a281	0.003925622
17	0xbcb78a80	-0.02240491
18	0xbc4e1425	-0.012578045
19	0xbcdd4fcf	-0.027015595
20	0xbd75aefe	-0.05998134
21	0xbcfd1dec	-0.030898057
22	0x3c707712	0.014676826
23	0xbd7c63c3	-0.061618578
24	0xbad8d3b3	-0.0016542583
25	0xbc236961	-0.009973855
26	0xbd706861	-0.058693293
27	0xbd6af289	-0.057360206
28	0x3cb2b422	0.02181441
29	0x3c8a2df1	0.01686761
30	0xbc11dd8c	-0.008902919
31	0xbc8b3475	-0.016992787
32	0xbc3919f6	-0.0112976935
33	0xbd902a00	-0.07039261
34	0xbc080031	-0.008300827
35	0x3c775f82	0.015098454
36	0xbcfc5c8f	-0.030805854
37	0xbc46cd8f	-0.01213397
38	0xbb7b787f	-0.0038371382
39	0xbc266179	-0.010155075
40	0xbd2657d8	-0.040611118
41	0xbc5634f4	-0.013074148
42	0xbd7cb1ff	-0.061693188
43	0xbd27e1d6	-0.04098686
44	0xbc5a1335	-0.013310243
45	0x3c272b4b	0.010203193
46	0xbbdf4e76	-0.006814773
47	0xbb16f557	-0.0023034418
48	0x3b8e9e37	0.004352357
49	0xbbf4fedb	-0.00747667
50	0x37ea0450	2.7896982e-05
51	0xbcd0575e	-0.025432285
52	0x3c867886	0.016414892
53	0xbd5c2982	-0.053750522
54	0xbc48eb1d	-0.012263087
55	0xbcb757a5	-0.02238066
56	0x3c950512	0.018190894
57	0x3bdd643e	0.0067563346
58	0xbd7b5802	-0.061363228
59	0xbd354b98	-0.044261545
60	0xbd16bc25	-0.036800522
61	0x3b14f39d	0.0022728213
62	0xbcae140d	-0.021249795
63	0xbc350292	-0.011047976
64	0xbb98959e	-0.0046565076
65	0xbcce405e	-0.025177177
66	0xbd199803	-0.037498485
67	0xbd4c5dfb	-0.049894314
68	0xbc1e198e	-0.009649647
69	0xbd2f2ec6	-0.042769216
70	0xbc316356	-0.010826906
71	0xbca1c6dd	-0.019748146
72	0xbd0d7930	-0.0345394
73	0xbc7a8052	-0.015289383
74	0xbc762e9d	-0.015025762
75	0x3cabf538	0.020990953
76	0xbbea1157	-0.0071431804
77	0xbd78a1e0	-0.06070125
78	0xbccacb2e	-0.024755087
79	0xbcbcc4a9	-0.023042994
80	0xbd2afeb3	-0.041746806
81	0x3c0ba7d1	0.008523897
82	0xbd7e3980	-0.062066555
83	0xbb9ce9b9	-0.004788604
84	0x3c9bceff	0.019019602
85	0x3c37b670	0.01121293
86	0xbd39a4c6	-0.045323156
87	0xbcd57bce	-0.026060011
88	0xbd5723ac	-0.052524254
89	0xbc51d6b4	-0.012807537
90	0xbd8a1b5f	-0.06743502
91	0xbcd0ba62	-0.0254795
92	0xbce51acb	-0.027966877
93	0x3c88340c	0.01662638
94	0xbd31c37f	-0.04339933
95	0xbbac888b	-0.0052653006
96	0xbd3e408b	-0.04644827
97	0xbd389346	-0.045062326
98	0xbd0c160f	-0.034200724
99	0x3aa497f6	0.0012557495

convs.4.weight f4 [100, 1, 7, 91]
0	0x3d0b42b0	0.033999145
1	0x3da2640d	0.079292394
2	0xbd61e7b5	-0.055152614
3	0xbc4193cb	-0.011815022
4	0x3cdc4b94	0.026891507
5	0xbcf76d82	-0.030203585
6	0x3c0549aa	0.008135239
7	0xbcb4ffc0	-0.022094607
8	0xbc2844a5	-0.010270272
9	0xbce2a814	-0.027668037
10	0xbd1a90ee	-0.037735872
11	0x3ccc336a	0.02492686
12	0x3b37e356	0.0028059087
13	0xbc6bfd17	-0.014403603
14	0xbdb1091a	-0.08644314
15	0x3c74d986	0.01494444
16	0xbc56608d	-0.013084543
17	0x3d6ad1d3	0.05732901
18	0x3cc6ef27	0.024283959
19	0x3823a9ea	3.9020473e-05
20	0xbc8ea9a0	-0.017414868
21	0xbcd2b02c	-0.02571877
22	0xbca3dba2	-0.02000219
23	0xbc48c7fc	-0.012254711
24	0x3c226a6a	0.009913066
25	0xbc9cfa06	-0.01916219
26	0x3b98a30e	0.0046581095
27	0xbc80f0ec	-0.01573988
28	0xbc8a7c51	-0.016904982
29	0xbcf5ab4e	-0.029988911
30	0x3cb93f08	0.022613063
31	0xbbc7eeef	-0.006101481
32	0xbc024713	-0.007951516
33	0xbc5d9b03	-0.013525727
34	0x3cd14e1b	0.025549939
35	0xbd0ffc80	-0.035152912
36	0xbd2809bd	-0.041024912
37	0xbc50ddc5	-0.0127481865
38	0x3d8274e7	0.063699536
39	0x3ceb01a6	0.02868731
40	0x3d4b90fc	0.049698815
41	0xbcc65b15	-0.024213353
42	0xbda7ed8c	-0.08199605
43	0x3d2ff1c3	0.04295517
44	0xbc1228ae	-0.008920832
45	0x3d95752e	0.07297741
46	0xbb6e87f0	-0.0036396943
47	0x3d0e1912	0.034691878
48	0xbbca0bbb	-0.006165949
49	0x3cd729ea	0.026265103
50	0x3cc0bcc1	0.023527505
51	0xbd2cf3f9	-0.042224858
52	0xbc16b5d5	-0.009198626
53	0x3dcb341d	0.09922049
54	0x3b27fafa	0.0025631771
55	0xbd0f16b8	-0.034933776
56	0x3d0909ee	0.033456735
57	0x3bfdbe40	0.007743627
58	0x3c8f4cf2	0.017492745
59	0x3d0b8530	0.034062564
60	0x3ac83c20	0.0015276708
61	0xbca3d05b	-0.019996813
62	0xbcc78994	-0.024357595
63	0xb9bb9d00	-0.00035784394
64	0xbc5c9852	-0.01346405
65	0xbc95321f	-0.018212376
66	0xbcf9bb78	-0.0304849
67	0xbcfa3576	-0.03054307
68	0xbd06ea83	-0.03293849
69	0x3c021c70	0.00794135
70	0x3cd35d40	0.025801301
71	0xbd061a14	-0.032739714
72	0xbc9c61f4	-0.019089676
73	0x3cf7d128	0.0302511
74	0xbd21f837	-0.039543357
75	0xbafb91c0	-0.0019193217
76	0xbcc36d6c	-0.023855887
77	0xbcfdc9aa	-0.03097995
78	0x3ca3e03c	0.020004384
79	0x3d004588	0.03131631
80	0x3cbbdbdc	0.022931986
81	0xbb282f80	-0.0025663078
82	0xbcab1425	-0.02088363
83	0xbcd3f964	-0.025875755
84	0x3cd9ed48	0.026602402
85	0x3c8cc808	0.017185226
86	0xb9dfc380	-0.00042679533
87	0xbcf93ff4	-0.030426003
88	0xbcb68033	-0.022277927
89	0xbcb8f6b7	-0.02257858
90	0x3b498670	0.0030750297
91	0xbc5f8bfa	-0.013644213
92	0xbbeb123e	-0.0071738055
93	0xbbdc2632	-0.0067184204
94	0x3d6f6432	0.058445163
95	0xbd3cb368	-0.046069533
96	0x3d311724	0.04323496
97	0x3c8a8386	0.016908418
98	0x3d4694c7	0.04848173
99	0x3d606e8e	0.054792933
100	0x3d07b745	0.033133764
101	0xbd8d6054	-0.06903139
102	0xbd449694	-0.047995165
103	0xbd37f2b3	-0.04490919
104	0xbc80f25a	-0.015740562
105	0x3cd81a4a	0.026379723
106	0xbcdc8c09	-0.026922243
107	0xbc2f07f7	-0.010683051
108	0xbd3e3cdc	-0.04644476
109	0x3b07d9a6	0.0020729094
110	0xbd234ade	-0.03986632
111	0xbd8301f5	-0.06396858
112	0xbd2b175d	-0.041770328
113	0x3cc398ac	0.02387651
114	0x3c8adba4	0.016950436
115	0xbcb22f98	-0.02175121
116	0x3d42813f	0.04748654
117	0xbcc64814	-0.024204291
118	0xbc1220b9	-0.0089189345
119	0xbb66ad50	-0.0035198517
120	0x3d15e4a3	0.036594998
121	0xba8aaffc	-0.0010581012
122	0xbc58fa50	-0.013243273
123	0x3c9478c6	0.018123996
124	0xbb7d2d0a	-0.0038631582
125	0x3cafd300	0.021462917
126	0xbd37fe89	-0.044920478
127	0xbca2d47a	-0.019876707
128	0x3c20f5a7	0.009824193
129	0xbc17c8d8	-0.0092641935
130	0x3d470db2	0.048597045
131	0xbc52106c	-0.012821298
132	0xbc31fb1d	-0.010863093
133	0x3bb50912	0.005524763
134	0x3c7af9bb	0.015318329
135	0x3c44e6ad	0.012017888
136	0xbad74eb0	-0.0016426649
137	0xbccc399e	-0.024929818
138	0x3c79317b	0.015209551
139	0x3c2c6c13	0.010523814
140	0xbd1a754a	-0.03770951
141	0xbb9c672a	-0.0047730403
142	0x3c9d5185	0.01920391
143	0xbd480702	-0.04883481
144	0x3ce9d375	0.028543213
145	0xbd065588	-0.032796413
146	0xbcf8a7de	-0.030353483
147	0x3ce81e50	0.028334767
148	0x3cbd0c5c	0.023077182
149	0x3ca82806	0.020526897
150	0xbba148c0	-0.0049220026
151	0xbcde575c	-0.027141266
152	0x3c176c60	0.009242147
153	0xbb4869d0	-0.0030580647
154	0x3cb44e24	0.022009917
155	0x3c634b9c	0.013873007
156	0x3cd09224	0.02546031
157	0x3d10418c	0.03521876
158	0xbc9e0fef	-0.019294707
159	0xbd1df163	-0.038560282
160	0xbb9a6bb0	-0.0047125444
161	0xbd21a923	-0.039467942
162	0x3d184a4c	0.03718023
163	0xbcfc310d	-0.030785108
164	0xbca60fb8	-0.020271167
165	0x3cf2e92c	0.0296522
166	0x3c92118c	0.017830633
167	0xbc8b8ab1	-0.017033907
168	0x3d1cff38	0.038329333
169	0x3c12233c	0.008919533
170	0xbc990f03	-0.018683916
171	0x3cb25194	0.021767415
172	0x3c806696	0.015673917
173	0xbc8ad668	-0.01694794
174	0xbcc7d989	-0.024395721
175	0x3cf64ee0	0.030066907
176	0x3d03b920	0.03215897
177	0xbcfe8af8	-0.031072125
178	0xbcebedd6	-0.028799932
179	0x3c90a17e	0.01765513
180	0xbd1cc681	-0.038275246
181	0xbc45703e	-0.012050686
182	0xbb3d3145	-0.0028868478
183	0x3d2370c3	0.03990246
184	0x3cfe03c2	0.031007651
185	0x3d583b67	0.052791025
186	0x3c225c22	0.0099096615
187	0x3c904c4a	0.017614502
188	0x3d2e902a	0.042617954
189	0x3c71973f	0.014745533
190	0xbc841a01	-0.01612568
191	0xbcc9158e	-0.02454641
192	0x3d0f93cc	0.03505306
193	0x3cf55455	0.02994744
194	0x3d15dd2f	0.03658789
195	0x3bf587ea	0.007493009
196	0xba97b8fd	-0.0011575517
197	0xbc010ff7	-0.0078773415
198	0x3db87e3f	0.090084545
199	0xbd0dba41	-0.034601454
200	0xbc4e04e6	-0.01257441
201	0xbcf7e299	-0.030259417
202	0xbbbc774d	-0.0057515264
203	0xbcd3dde9	-0.025862651
204	0x3c8b038f	0.01696947
205	0x3bd02a98	0.006352734
206	0x3c3fa7d1	0.011697725
207	0xbc2527f9	-0.010080331
208	0xbd1da2fb	-0.03848551
209	0xbd79bb93	-0.0609699
210	0x3c9184c8	0.01776351
211	0x3c8717db	0.016490867
212	0x3cb770c5	0.02239264
213	0xbd096106	-0.033539794
214	0xbd8bf654	-0.06834093
215	0xbbcd072b	-0.006256958
216	0x3cccda61	0.025006475
217	0xbd1013c4	-0.0351751
218	0xbd104e90	-0.035231173
219	0xbae78fd5	-0.0017666767
220	0x3d1ebe9c	0.038755998
221	0xbbbddb2f	-0.005793951
222	0xbaafa1d6	-0.0013399671
223	0x3becc447	0.0072255465
224	0x3d27a9cf	0.040933426
225	0x3d3a6fb2	0.045516677
226	0xbda518de	-0.08061384
227	0xbc35d1f7	-0.011097423
228	0xbd5601e9	-0.052247915
229	0x3cf48cdc	0.029852323
230	0xbc95ec9f	-0.018301306
231	0xbc88f1fb	-0.016716948
232	0x3c8a43d6	0.01687805
233	0xbd19b894	-0.037529543
234	0xba8e8faf	-0.0010876561
235	0x3d71a1f5	0.058992345
236	0xbb81027e	-0.0039370647
237	0xbcc7071b	-0.02429538
238	0xbba1c488	-0.0049367584
239	0xbcc25c70	-0.023725718
240	0xba3ca800	-0.0007196665
241	0xbd1743d3	-0.036929917
242	0xbcf70338	-0.030152902
243	0x3c54ab30	0.012980267
244	0xbc27c266	-0.010239219
245	0xbccad54a	-0.024759907
246	0x3c01542c	0.007893603
247	0xbcf9f6fc	-0.03051328
248	0xbc016c08	-0.007899292
249	0xbd17ae05	-0.037031192
250	0xbca30730	-0.019900888
251	0xbc8f1045	-0.017463813
252	0x3c890ec0	0.016730666
253	0xbd02892a	-0.03186909
254	0x3d1a82b8	0.03772232
255	0x3c0c1e44	0.008552138

convs.4.bias f4 [100]
0	0xbb3b3783	-0.0028567023
1	0x3b9cfabd	0.0047906325
2	0xbca71e4d	-0.02040019
3	0x3c309b48	0.010779209
4	0xbcea2488	-0.028581873
5	0xbbe62108	-0.0070229806
6	0xbbce6f8b	-0.006299918
7	0xbcf8b4ed	-0.03035971
8	0xbb28c856	-0.0025754175
9	0x3b8ee467	0.004360724
10	0xbc8616b5	-0.01636825
11	0xbc3a22b2	-0.011360811
12	0xbd21bedb	-0.039488655
13	0xbcc8d946	-0.024517667
14	0xbb84a9d4	-0.0040485654
15	0xbd6e7ed3	-0.058226418
16	0xbcc6cb15	-0.024266759
17	0xbcccb29e	-0.024987515
18	0xbd08c168	-0.03338757
19	0xbcac81ea	-0.021058042
20	0xbd2dce01	-0.04243279
21	0xbd5dfcb5	-0.05419608
22	0xbcbf6e3d	-0.023367995
23	0x3bf2744c	0.0073991176
24	0x3b98bce3	0.004661189
25	0x3bf87f0a	0.0075835036
26	0xbd4131b3	-0.047166537
27	0xba69723b	-0.00089052663
28	0xbb96ebdc	-0.0046057533
29	0x3c373db7	0.011184148
30	0xbd204c61	-0.03913534
31	0xbcf16d70	-0.02947113
32	0xbb296a95	-0.0025850881
33	0xbd2cb342	-0.04216314
34	0x3b9ed38d	0.004846996
35	0xbd53bdf5	-0.05169483
36	0xbca6e220	-0.020371497
37	0xbd6fac62	-0.058514006
38	0xbbdb4ec3	-0.0066927387
39	0xbb450f92	-0.0030069095
40	0xbca5a00e	-0.020217922
41	0xbd4395c7	-0.04775026
42	0xbcdaa5e4	-0.026690431
43	0xbd0903e7	-0.033450987
44	0xbb4be97d	-0.0031114512
45	0xbd259626	-0.040426396
46	0xbd42212b	-0.047394913
47	0xba0580be	-0.00050927314
48	0xbd2d49d6	-0.042306744
49	0xbcc1d345	-0.023660311
50	0xbb8ace82	-0.0042360434
51	0xbcc70b17	-0.02429728
52	0xbc728007	-0.014801032
53	0xbd22459e	-0.039617173
54	0xbd4d233d	-0.050082434
55	0xbc827e5b	-0.015929392
56	0xbd106051	-0.035248104
57	0xbccb5336	-0.024819952
58	0xbd81ac5b	-0.06331702
59	0xbd1c3b8b	-0.038142722
60	0xbd0b9ca1	-0.03408492
61	0xbcec4176	-0.028839808
62	0xbc97cf83	-0.018531566
63	0xbcfb8e36	-0.03070746
64	0xbd12d6dc	-0.035849437
65	0x39c2606c	0.00037074403
66	0xbbd8f0cf	-0.0066205035
67	0xbd4e4e01	-0.05036736
68	0xbc2440a4	-0.010025177
69	0xbcd9f7c9	-0.026607411
70	0xbcde9e84	-0.027175196
71	0xbd021656	-0.031759582
72	0xbcecac1c	-0.028890662
73	0x3c2b7e03	0.010467055
74	0xbd929e8d	-0.071591474
75	0x3b890004	0.00418091
76	0xbd43621f	-0.047700997
77	0xbd14d3b2	-0.0363347
78	0xbc850ac1	-0.01624048
79	0x3b247120	0.0025091842
80	0xbd66d90b	-0.056359332
81	0xbcc85102	-0.02445269
82	0xbcf4d5ac	-0.029887043
83	0x3c1c0934	0.009523679
84	0xbd773ac1	-0.060358766
85	0xbd096d65	-0.033551592
86	0x3c4c614c	0.012474369
87	0xbd237274	-0.039904073
88	0xbc01d47f	-0.007924198
89	0xbccce5ed	-0.02501198
90	0xbc9241ea	-0.017853696
91	0xbd838ef9	-0.06423754
92	0xbd01b45c	-0.031666145
93	0xbda68638	-0.08131069
94	0xbcb16bb3	-0.0216578
95	0xbd41a8ed	-0.04728024
96	0x3c842a5d	0.016133482
97	0xbb94b186	-0.004537764
98	0xbc3370a2	-0.010952147
99	0xbd45d652	-0.048300095
