saved_models/CNN_model_softmax2.pth (torch_old, 919761 bytes, 12 tensors)

convs.0.weight f4 [100, 1, 3, 91]
000000 cf 55 39 3d 67 1d d1 3b ec 01 b8 3b 28 7b b7 3d
       0.04524785 0.006381679 0.0056154635 0.08959037
000010 33 63 4d bd a8 76 1a 3c 04 af 02 bd e6 06 48 bd
       -0.050143432 0.009427704 -0.03190519 -0.048834704
000020 59 bd 0e 3d 3b f8 e6 3b 20 da ab 3d 16 0d 0a bd
       0.034848545 0.0070486343 0.083912134 -0.033703886
000030 d2 ee 8d 3c 3c 0e 4c 3c 46 6d 40 3c 04 b1 c8 3c
       0.017325792 0.012454566 0.011744803 0.02449847
000040 46 13 93 bd 68 30 9a bc 70 10 f3 bc b8 a1 46 3c
       -0.071814105 -0.01882191 -0.029670924 0.012123518
000050 26 76 c2 3c a9 cb cd bc e3 4a dd 3c 88 17 42 bb
       0.023737978 -0.025121527 0.027013248 -0.0029616076
000060 60 9a a2 3c 87 5d 7c bc 88 5c 06 3c b8 0e 16 3d
       0.019849002 -0.015403158 0.008200772 0.03663513
000070 3c b5 c2 3b cc 4d 2b bd 58 07 e2 3b 68 a2 c1 3c
       0.005942015 -0.04182224 0.006897848 0.023637012
000080 b9 e5 08 3c 65 a0 10 3d 01 e7 49 3d ce f3 5b bc
       0.008355551 0.035309214 0.049292568 -0.013424827
000090 35 2f 26 3d a1 90 4b 3d bc 3f 58 bc 4f dd ae bd
       0.040572364 0.049698476 -0.013198789 -0.08538305
0000a0 33 a2 5d bd 51 2f 33 bc 0b 9d 01 bd e0 a9 a0 bb
       -0.054109763 -0.010936574 -0.03164391 -0.004903063
0000b0 2a 15 e9 3c 1e 75 3e bc 07 2c 4b 3c 97 37 4c 3d
       0.028452475 -0.011624603 0.012400634 0.049857702
0000c0 bb 6d a8 bd ee 0f 71 3d 3b e3 c0 3b ad 09 0c 3d
       -0.082240544 0.058853082 0.005886463 0.034188915
0000d0 43 f5 55 3b da 51 ea 3c 67 a7 c2 3c 38 23 85 bc
       0.0032647408 0.028603483 0.023761464 -0.016252145
0000e0 f0 d6 6b 3b 18 72 bd 3b 61 0c 6e 3d bc 50 1c 3c
       0.0035986267 0.0057814233 0.058117274 0.009540733
0000f0 f7 40 66 3d 8a 73 8e 3c 66 0d 99 bc 77 88 2a 3d
       0.0562143 0.017389078 -0.018683147 0.04163405
000100 a0 5e dd 3a d6 fb 18 bd a5 e6 15 3d 65 a3 71 3d
       0.0016889162 -0.037349544 0.036596913 0.058993716
000110 73 49 09 bd 7f 78 69 3d de cd 24 bd cb 2f 77 bd
       -0.033517312 0.05699968 -0.040235393 -0.060348313
000120 22 80 d5 bc 2d d8 65 3d 8a 2c db bc be 60 e9 3c
       -0.026062075 0.056114364 -0.026754636 0.028488513
000130 74 70 80 bc d5 6f 61 3d d5 6e 0c 3d bb 8b 3a 3d
       -0.015678622 0.055038292 0.034285385 0.045543414
000140 90 a3 b7 bc 0c 40 76 bc cd 69 67 3d 04 7b ec bc
       -0.02241686 -0.015029918 0.056497384 -0.028867252
000150 70 5f 51 3b 5a 88 fe 3c a0 d1 2b bb 51 d0 06 3d
       0.0031947754 0.031070877 -0.0026217476 0.03291351
000160 a8 51 9a 3b 90 39 ba bc a0 6d 96 3a 85 99 88 bc
       0.004709441 -0.022732526 0.0011476763 -0.016674766
000170 13 0f be 3c c7 60 0b bd 98 17 1b 3d 78 ca 90 bb
       0.023200547 -0.03402784 0.037864298 -0.0044186674
000180 d7 f8 26 3d bd ad 07 3d bf fb ff bc 76 99 1b 3b
       0.040764656 0.033124674 -0.031247972 0.0023742593
000190 b0 94 97 bc 86 26 73 3d 27 69 0b 3d 51 31 8d 3c
       -0.018503517 0.05936291 0.034035828 0.01723543
0001a0 a1 e7 0a 3d 26 10 8c 3d e5 ed 63 bd e3 43 c1 3c
       0.033912305 0.068390176 -0.055646796 0.023591941
0001b0 05 e7 bc 3c 26 88 0b bc 5b 4f 38 3c 44 66 f2 ba
       0.023059377 -0.008516347 0.011249389 -0.0018493612
0001c0 34 7c 2d 3d ad f2 2c 3d 12 fe 12 bd 76 d4 03 3d
       0.042354777 0.04222362 -0.03588683 0.03218504
0001d0 84 07 7e bd 0d f6 82 3d 85 1e 7a 3c d3 da 03 bd
       -0.062018886 0.06394587 0.0152660655 -0.03219111
0001e0 3a 9e 0f bd 92 e9 0f bd 06 cc 1a 3c e4 ba 42 bd
       -0.035063006 -0.03513486 0.009448057 -0.047541514
0001f0 2c e9 56 bd 30 b8 96 3c 4d 9d 02 3d 4b c9 69 bd
       -0.052468464 0.018398374 0.031888295 -0.057076734
000200 d8 08 f8 3a 11 ca 81 3d c3 79 3c bd d1 e2 fe 3c
       0.0018923534 0.06337369 -0.04601456 0.031114014
000210 39 d0 97 bb cc c5 3f 3d 80 ed 84 bd 67 7b 2e 3d
       -0.0046329764 0.046819493 -0.06490612 0.042598154
000220 8b b2 fd bb e7 e4 61 bd 50 05 02 3d d0 0e ec 3c
       -0.0077422312 -0.05514994 0.031743348 0.028815657
000230 15 53 7c bc 03 54 4d 3d 45 56 2e 3d 41 85 d3 bc
       -0.015400668 0.050128948 0.04256274 -0.025820376
000240 ad e5 fe 3c 35 06 36 3c ba f4 e9 3c 2c b2 b9 bc
       0.031115377 0.011109878 0.028559078 -0.022667967
000250 ca b4 04 bd 43 92 4e bd 87 7d 6b 3d 73 8a 23 3d
       -0.032398976 -0.050432455 0.05749276 0.039926957
000260 ea 01 b3 3c b0 26 66 bc 42 d6 a3 3c 8c 10 09 bc
       0.021851499 -0.01404731 0.019999627 -0.0083657615
000270 50 5d 2c bb 48 da b5 bb 5a 4c 40 bd 2b cb 54 3d
       -0.0026300736 -0.005549703 -0.046947815 0.05195157
000280 17 66 41 3d e1 a1 1a 3d 45 6c 44 bd fe 0b 3f bd
       0.0472165 0.037752036 -0.047954816 -0.046642296
000290 36 98 8b 3c 38 f7 6a bd ed 5e 0b 3d 30 58 4f bd
       0.017040353 -0.057364672 0.034026075 -0.05062121
0002a0 3e 2e ea bc 45 84 72 bd 3f 39 62 3d 16 99 19 bd
       -0.028586503 -0.059208173 0.055230375 -0.03749951
0002b0 a8 10 0b bc 5e 09 fb 3c c7 bc 12 3d 16 21 5a bd
       -0.008487858 0.030644115 0.035824563 -0.05325421
0002c0 92 fa bd 3c 5b 05 43 bd d5 10 3b bd 52 ce af 3c
       0.02319077 -0.04761253 -0.04567035 0.021460686
0002d0 2e d8 43 bd c0 3c ec ba 22 ce f0 3c 32 df a9 3c
       -0.047813587 -0.0018023476 0.029395167 0.02073631
0002e0 44 69 c1 bc 1e 50 71 3d bf e5 9e 3c 99 f0 ab bc
       -0.023609765 0.058914296 0.01939666 -0.02098875
0002f0 31 da 6d bd cf 5f 01 bd ab 5a aa bb 57 52 c9 bb
       -0.05806941 -0.03158551 -0.0051987967 -0.006143849
000300 4f 6b f8 bc b9 4d 08 3d 1b 3d b9 3a e1 53 66 bd
       -0.030324606 0.033277247 0.0014132591 -0.056232337
000310 55 7c aa 3c 20 60 14 3d 26 e9 4f 3c 50 a2 d6 3c
       0.02081124 0.036224484 0.012689864 0.026200444
000320 90 1e 76 bc 3d f0 02 3d cb e3 f5 bc 88 6f 3f bd
       -0.015021935 0.03196739 -0.030015847 -0.046737224
000330 00 3f 1e bd c0 3b 3d 3d e6 87 c4 bc 30 86 54 bd
       -0.0386343 0.04619956 -0.023990583 -0.051885784
000340 ec 74 28 3d e4 8b ff bc bb fb 72 bd 60 73 a5 bc
       0.04112713 -0.031194635 -0.0593221 -0.020196617
000350 19 f1 3b bd ab fb c9 bc 42 fe 4b bd 25 47 2e 3d
       -0.045884226 -0.024656137 -0.049803026 0.042548317
000360 be 07 1f bc ba cd 1f 3d 9b 9a df bc 28 49 28 3d
       -0.009706436 0.039014556 -0.027295401 0.041085392
000370 d1 88 22 bd d0 95 61 bc 7b 08 01 3d 6c da 15 bd
       -0.03968126 -0.013768628 0.03150223 -0.036585256
000380 87 81 44 3d 36 97 33 bd 1f bc 75 3d ad 67 97 3c
       0.04797509 -0.043845378 0.05999386 0.018482054
000390 a9 35 3f 3d 4e 0f 7e bd 90 6a ec bb 73 6d 0c bd
       0.046682034 -0.062026314 -0.0072148517 -0.034284066
0003a0 39 0f df ba 25 4c 18 bc 5c a1 e3 3c 25 c1 73 3d
       -0.0017018087 -0.009295498 0.027786903 0.05951037
0003b0 2b a7 dc 3c 46 11 b5 bc 92 e5 84 3c d6 4b 8d 3c
       0.02693518 -0.022102963 0.016222749 0.017248075
0003c0 4f 2e 29 bd 2b 86 49 3d f6 45 d4 bc ec 8f 4f bc
       -0.04130393 0.04920022 -0.025912266 -0.012668591
0003d0 1a cb 37 bd 81 be 32 3d ee 30 4a bd 8f cb 73 3d
       -0.044871427 0.04363871 -0.04936307 0.0595203
0003e0 4a e8 ae 3c 3e a9 fd 3c c6 9a dc 3c 60 b9 68 bd
       0.021350998 0.03096449 0.02692927 -0.056817412
0003f0 80 1b 4f 3a 24 a8 2d 3c 75 bc 48 3d 71 f3 71 bd
       0.0007900521 0.01059917 0.04900785 -0.059070054

convs.0.bias f4 [100]
000000 f7 12 49 bd d5 a9 60 3d cf 3a 77 bd 1f 6f fe bc
       -0.049090352 0.054849464 -0.06035882 -0.031058846
000010 69 9e 8d 3c 9d 55 77 bd 03 c5 60 bd be 37 4e bc
       0.01728745 -0.06038438 -0.054875385 -0.012586532
000020 94 98 10 3c bf 8f 85 bd 97 8e f2 3b 89 9f 24 3d
       0.00882544 -0.06521558 0.007402252 0.040191207
000030 71 1c 4d bd 46 28 2c bd 5a 59 c2 bc dd b7 0e bd
       -0.050075952 -0.042030595 -0.023724247 -0.034843314
000040 9c 12 1e bd d7 2a cc 3b 93 79 d3 bc a2 41 3a bc
       -0.038591966 0.006230693 -0.025814807 -0.011368187
000050 1b c8 ac bb 40 1d 27 b9 00 e5 10 bd 24 fb 18 bd
       -0.005272878 -0.00015937258 -0.03537464 -0.03734888
000060 0c 2a 88 3c 9e 28 ea bc a4 65 61 bd 85 c0 64 bd
       0.016621612 -0.02858382 -0.055028573 -0.055847663
000070 a5 ed 44 3d da 53 f2 3c fd 99 05 bd f8 00 86 bc
       0.048078198 0.029581 -0.032617558 -0.016357884
000080 b8 a9 5f 3d 4a 27 60 bb c6 8c 5d 3d a9 26 86 bd
       0.054605216 -0.0034203106 0.05408933 -0.065503426
000090 e3 3f f5 3c 92 6d 79 bd 13 b8 07 bd 99 6f 22 bd
       0.02993769 -0.06089551 -0.03313453 -0.03965721
0000a0 92 a1 d3 3b b2 70 db 3c 00 7b 38 bd 01 06 80 bd
       0.0064584697 0.026787136 -0.045039177 -0.06251145
0000b0 9e 5c 80 3b 79 76 28 3d 49 5a e6 3c 7d 17 22 3d
       0.003917291 0.04112861 0.028119223 0.03957318
0000c0 dd 7d 07 3d 66 2d 2f 3d b9 96 6c bc 12 eb 8d bc
       0.033079017 0.042767905 -0.014440232 -0.017324004
0000d0 fb bf 03 3c bd 55 3a 3d 83 ef c8 bc 05 0e 20 bc
       0.008041377 0.045491923 -0.02452827 -0.0097689675
0000e0 30 03 ea bc 6a 9e 92 bb 0d 68 57 bc 5f c8 50 bd
       -0.028565973 -0.004474451 -0.013147366 -0.05097234
0000f0 84 9b ef 3b 94 af 9c 3b a2 fe 71 bd 17 72 01 bd
       0.00731224 0.0047816727 -0.059080727 -0.031602945
000100 0f 7e 27 3d bb 6c 77 bd 77 5e a0 bc b1 d3 13 bc
       0.040891703 -0.060406428 -0.019576294 -0.009022639
000110 ef 52 78 ba 59 c1 3b 3d f3 6f 5e bd 5a d1 bb bb
       -0.0009472807 0.045838688 -0.05430598 -0.0057317438
000120 b9 57 38 3d c2 ef a1 3c 1c 07 1e bd a9 20 26 bd
       0.045005534 0.019767646 -0.038581 -0.04055849
000130 20 eb 2a bd ef 5a 5e 3c e3 3a e9 bb f8 0c b5 3c
       -0.04172814 0.013571485 -0.0071176155 0.02210091
000140 17 2d 80 bd 54 21 96 3c 40 aa 1f 3d 62 80 73 bd
       -0.062586 0.018326439 0.038980722 -0.059448607
000150 b3 0f 15 3d 69 24 ef bc f3 22 db 3c 32 bd 2c bd
       0.036391925 -0.029192166 0.026750064 -0.04217262
000160 e2 fd f9 3c 69 28 90 bd 49 7b 80 3c 63 92 1c 3c
       0.030516569 -0.070389576 0.015683787 0.009556386
000170 25 5e 35 3d c2 62 0b bb 76 7b c5 bc 49 c6 f8 bc
       0.044279236 -0.002126858 -0.024106722 -0.030367987
000180 15 ad c5 3c 8f 23 d6 bc 7d fa 7c bd 10 93 ff bc
       0.024130384 -0.026140003 -0.06176232 -0.031198055

convs.1.weight f4 [100, 1, 4, 91]
000000 92 f1 ef bc d4 5c a4 3a ee 7a b5 bc b2 87 34 3d
       -0.029289994 0.0012539872 -0.022153344 0.04407472
000010 21 d6 1d 3c 3a 59 da b9 11 fe 22 bc ef f7 6e 3c
       0.009633572 -0.0004164668 -0.009948269 0.014585479
000020 1a c4 fc bc 82 a0 ed bc 9d 50 93 bc e0 66 0c bd
       -0.030855227 -0.0290072 -0.017982775 -0.034277797
000030 ba d3 8a 3c 29 08 05 bc 3d 35 69 3b 55 3b 7a bb
       0.016946662 -0.008119621 0.003558471 -0.0038182337
000040 ad 72 7c 3d 1e 74 9e bc 1c 52 6e bd b8 aa 02 3d
       0.0616328 -0.019342478 -0.058183774 0.03190109
000050 60 97 c9 3c 1e e2 87 bc 06 e5 01 bd 76 c1 a0 3c
       0.024608314 -0.016587313 -0.031712554 0.0196235
000060 77 81 a1 3c fa 93 44 3d 68 03 9e bc 91 20 e4 bc
       0.019715054 0.047992684 -0.019288734 -0.02784756
000070 0b 1a d0 bc 8e f7 28 3d 6d 10 75 bc 20 5e ec 3c
       -0.025403043 0.04125171 -0.0149575295 0.028853476
000080 de c9 18 bc a4 b8 39 3d 4b aa a7 bb 4d f3 bd bb
       -0.009325473 0.045342103 -0.005116736 -0.005796826
000090 0a 43 a9 3c ca 1f c7 bb f2 bf 00 3c f3 47 1f 3c
       0.02066185 -0.0060767876 0.007858263 0.009721744
0000a0 71 00 ed 3c ac e6 4d bb ea db ee 3c df e3 01 3d
       0.028930875 -0.0031418009 0.029157598 0.031711455
0000b0 b6 1e bb 3c 10 59 34 3d a8 0f 50 3d cc be 53 bb
       0.022841793 0.04403025 0.05079618 -0.0032309769
0000c0 7c 34 ee bb fe 57 3f bd 9d d6 33 bd 9c 80 d0 ba
       -0.00726944 -0.046714775 -0.043905843 -0.0015907469
0000d0 63 db 55 3c 4d 87 07 3c da 12 6d bd d7 d3 1d bd
       0.013052794 0.008272004 -0.057879306 -0.038532104
0000e0 6c e0 1f bc 64 9e 59 bc ad 81 52 3d d5 f7 03 3d
       -0.009758096 -0.013282392 0.0513932 0.032218773
0000f0 d1 ab 3e bd 13 c9 29 3d 94 d5 66 3c 68 81 09 bc
       -0.046550576 0.041451525 0.014089007 -0.008392669
000100 4d d0 40 3d 94 9e 62 bc 18 55 bc bb 2b a1 41 3d
       0.04707365 -0.013831753 -0.0057474487 0.047272842
000110 d7 d6 10 3d fd 71 f0 bc bb 18 b6 bc f8 31 35 bd
       0.035361137 -0.029351229 -0.02222859 -0.044237107
000120 d4 77 13 bc 3d 88 1d 3d 41 18 47 3d 8a 60 87 3c
       -0.009000737 0.038460005 0.048607115 0.016525526
000130 55 7a 51 3d bb 84 d2 bc 35 27 36 3d 40 13 6a 3a
       0.051142056 -0.025698056 0.044470984 0.000892926
000140 6c ca 38 bc 6a cf c8 3c 08 cf 44 bd c3 8a 4e bd
       -0.01127873 0.024512965 -0.048049003 -0.050425302
000150 88 50 fc 3b f3 8d f6 bc 70 50 74 3b c5 48 ee bc
       0.0077000298 -0.030096984 0.003727939 -0.029087434
000160 b8 05 d6 bb 72 fd 33 bd 80 fb 98 bc 77 7f 11 3d
       -0.0065314434 -0.043942876 -0.018674612 0.03552195
000170 06 dc 4c 3c 43 6f 1d 3d 4c 37 4b 3d 7b d5 a1 bc
       0.01250363 0.038436186 0.049613282 -0.019755116
000180 cb 85 5c bc 18 07 04 3d 6b 7e 15 3d 7e c1 a8 3c
       -0.013459633 0.032233328 0.036497515 0.020600077
000190 5a 53 02 3d 6d 29 65 3d 39 85 00 3d 17 45 49 3d
       0.03181777 0.05594771 0.03137705 0.049138155
0001a0 ec 67 a3 3c 95 50 df 3b 76 0f f6 3c 75 ec 3b 3d
       0.019947015 0.006815026 0.03003667 0.0458798
0001b0 6b e2 ad ba 88 d6 47 bc 89 0a e6 3c 83 81 04 bc
       -0.001326633 -0.012197144 0.028081195 -0.008087519
0001c0 ad b2 b3 bc fa 50 a9 3c d3 4d 1f bd a0 6d b0 3c
       -0.021935785 0.020668495 -0.03889258 0.021536648
0001d0 70 db 39 bd 14 a9 10 3d 1c 14 12 3d 89 a7 e6 bc
       -0.045375288 0.035317495 0.03566371 -0.028156059
0001e0 1b 9e 78 bc 09 45 7f bd 11 f8 88 bd 4c da ee bc
       -0.015174414 -0.062321696 -0.0668794 -0.029156826
0001f0 21 d9 57 bd 9c 08 77 3b c3 24 a1 3c a6 b7 96 bd
       -0.052697305 0.003769434 0.01967085 -0.07359247
000200 0f d3 d9 3c 19 cd 59 3d 3c 80 76 3b 8c fa 62 bd
       0.026589898 0.053174112 0.0037613055 -0.05541472
000210 1c 3a 40 bc f0 3e 29 bc b7 54 84 bc 56 cc 83 bd
       -0.011732604 -0.010329947 -0.016153676 -0.06435458
000220 0e 9b 03 bc 8b d9 18 bd b8 7a 38 bd 8b 69 73 bc
       -0.008032573 -0.03731684 -0.04503891 -0.014856706
000230 4c 83 d4 bc 65 43 ea bc 59 f7 55 bc cd fc 81 bc
       -0.025941513 -0.02859659 -0.013059461 -0.015867615
000240 8c e4 a8 bc 95 76 ca b9 df 98 25 3d 58 56 5f bc
       -0.020616792 -0.00038616793 0.040428992 -0.013631426
000250 10 c5 bb 3b 21 d0 2e 3d 8b 9c 4c 3d 18 ce a6 bb
       0.005730279 0.042678956 0.04995398 -0.0050904863
000260 bf e9 0d bd 60 4e 19 3c 99 2b 55 3d 9e 34 f9 3c
       -0.034646746 0.009357065 0.05204353 0.030420598
000270 7b f9 49 3d fe 19 54 bd 57 97 0f 3d a3 73 dd bc
       0.04931019 -0.0517826 0.03505644 -0.027032679
000280 50 15 8c 3b 9a 97 df 3c 20 95 15 bd 90 28 03 3b
       0.0042750016 0.027293969 -0.03651917 0.002001319
000290 2c 38 4b bc bb 39 42 bd e8 2a 2f bd f7 0d 56 3d
       -0.012403529 -0.047418337 -0.042765528 0.05225941
0002a0 2c 48 18 bc 33 a9 4c 3d f0 98 ee bb 21 33 14 3d
       -0.009294551 0.04996605 -0.007281415 0.036181573
0002b0 3b 02 14 3d a6 40 1f bd 7c 36 5d 3c 2c 22 7f bc
       0.03613494 -0.038880013 0.01350176 -0.015572112
0002c0 86 28 a0 3c 54 bf a0 bc 88 a3 17 bc 74 0b 5f 3c
       0.019550573 -0.019622482 -0.0092552975 0.0136135705
0002d0 ab eb 01 3d 40 21 fc bb c2 0c 33 3c be 6f 0e 3d
       0.03171889 -0.0076943934 0.010928335 0.034774534
0002e0 2a b0 ca 3c 8b 28 50 ba 8e 47 a2 bc 08 08 6e 3d
       0.024742205 -0.00079406117 -0.01980951 0.058113128
0002f0 1a 09 3e 3d 98 5e 61 3c a3 ec bb 3c 3d de 4a bd
       0.0463954 0.013755463 0.022939986 -0.04952835
000300 91 66 d5 3c a3 7b f6 3c a6 d2 ba 3c 5a 34 e4 bc
       0.026049884 0.030088251 0.022805523 -0.027856994
000310 53 06 a1 bc 18 28 c7 bb bb 52 b1 bc 89 58 5c bc
       -0.019656336 -0.0060777776 -0.021645894 -0.013448843
000320 e8 a7 c6 bc 42 c3 ca 3c fa 6f ee 3b 8e ed 26 bd
       -0.024249986 0.02475131 0.0072765322 -0.040753894
000330 63 a6 0e bc bf f7 11 bd 4a 62 c7 3c e5 31 81 3c
       -0.008706662 -0.03563666 0.02433886 0.015770862
000340 6b d2 bf 3c 51 29 33 3b 38 3c 81 3c 63 de 7a bc
       0.023415765 0.002733786 0.015775785 -0.01531181
000350 c0 24 b9 3c 03 9e 5d bd ca 81 44 bd 28 12 48 3c
       0.022600532 -0.05410577 -0.04797534 0.01221136
000360 bd 5e bc 3c 34 62 5e 3b 8e 1f 77 3c 55 b5 bd 3c
       0.022994393 0.0033933045 0.015083207 0.023157755
000370 a2 2d e6 3c be 14 7c bc c0 9d 3b bc 18 53 8e 3c
       0.028097931 -0.015385805 -0.011451185 0.017373607
000380 fd 44 d4 bc b9 9f 13 3b 4c 1d 81 bd e0 a2 11 bd
       -0.025911802 0.0022525622 -0.06304416 -0.03555572
000390 1f b7 00 3d b1 bc a8 3c 25 af 00 bd f9 35 53 bc
       0.031424638 0.020597788 -0.03141703 -0.012891286
0003a0 c1 69 f1 bc 63 68 ea bc 30 bc 3d bd 3f c2 24 3d
       -0.029469373 -0.028614229 -0.046322048 0.04022431
0003b0 91 b5 5f bc 76 27 56 bd fc 67 9c bc d0 31 de 3b
       -0.013654129 -0.052283727 -0.019092552 0.0067808405
0003c0 9b 5c 28 3d 8d 05 36 3d 74 da 1b 3c 68 73 11 bd
       0.04110394 0.044438887 0.0095125325 -0.03551045
0003d0 b7 c1 55 bd 88 ba 31 bd d9 e3 3f bd a5 33 d8 bc
       -0.052186694 -0.04339078 -0.04684815 -0.026391814
0003e0 61 fb 4f 3d 4e 28 4a bd ee 71 92 bc e4 74 28 bd
       0.050776843 -0.049354844 -0.017876592 -0.0411271
0003f0 09 00 20 3d cc df 67 3c e7 eb 04 bd 41 6d 12 3d
       0.039062534 0.014152478 -0.032451537 0.035748724

convs.1.bias f4 [100]
000000 a5 83 34 bd 35 ac 1d 3d 3e 6f bd bc 3c 6a 10 3d
       -0.04407086 0.038494308 -0.023124333 0.035257563
000010 19 61 87 3c ca c6 db bb da 06 eb bc 00 f6 c1 ba
       0.016525792 -0.006707047 -0.02868979 -0.0014798045
000020 b2 22 07 3b 64 f3 7f 3c 6c 49 2d 3b 5f c1 9a 3a
       0.0020620045 0.015621994 0.0026441468 0.0011806897
000030 e5 3b 09 bd a8 1d eb 3c be 6e 6d ba 5b a5 ea bc
       -0.033504386 0.028700665 -0.00090573344 -0.0286433
000040 9f 4d 01 3d 52 f5 be 3c 14 69 ff 3c 17 6c 6f bc
       0.031568166 0.023310337 0.031178035 -0.014613173
000050 f0 89 89 bc 0d 08 64 bd 86 6d 47 bd 4f e0 b2 bc
       -0.016789407 -0.05567174 -0.048688434 -0.021835474
000060 a2 69 5c bd 98 80 9d bc b0 10 f7 bc 54 39 04 bd
       -0.053811677 -0.019226357 -0.030159324 -0.032281235
000070 ba 72 f0 3c 39 38 dd bb 71 6f 78 3c e2 45 9b 3c
       0.02935158 -0.006751087 0.015163288 0.018954221
000080 fc 3c 55 bd 96 bb 59 bd 90 59 5a bd 88 7a 09 3c
       -0.052060112 -0.05315741 -0.05330807 0.00839103
000090 c8 ec 80 bb 90 29 88 bc 09 ed 70 bc d0 83 c4 bc
       -0.0039344765 -0.016621381 -0.014704951 -0.023988634
0000a0 42 89 2e 3d 3d ad 62 bc a7 71 1f bd 2b a0 b6 3c
       0.042611368 -0.013835249 -0.038926747 0.02229317
0000b0 ce 64 d5 3b 12 07 c7 3b 9b 30 6e bb 45 93 0e 3d
       0.006512261 0.006073841 -0.003634489 0.034808416
0000c0 46 9c 01 bd 91 45 91 bc 69 4a 09 3d e1 d0 1b 3d
       -0.031643175 -0.017733367 0.03351823 0.038041
0000d0 cd e5 2d 3c 60 06 15 bd 55 9c d0 ba e0 3a 16 bc
       0.010613871 -0.036383033 -0.0015915731 -0.00916931
0000e0 93 ad 44 bd 83 b8 09 3c 69 88 bb 3c be 88 10 3d
       -0.048017096 0.008405807 0.022892194 0.035286658
0000f0 6b f8 22 bd 65 a7 ee 3c b2 71 27 bd c1 5b 6f bd
       -0.03978769 0.029132554 -0.040879913 -0.058437113
000100 7c bd a3 3a 69 89 06 bd 94 fa be bb 6e 59 fc 3b
       0.0012492384 -0.03284589 -0.005828211 0.0077010905
000110 98 b0 88 3c 54 05 37 bd f5 ac a0 bc 36 4b 58 bd
       0.016685769 -0.044682816 -0.019613722 -0.0528061
000120 2a 3d bd 3c 39 1b fc bb 08 af cc bc 71 48 ee bc
       0.023100454 -0.007693675 -0.024985805 -0.029087277
000130 ff ab bd 39 58 16 0c bd f3 5d 41 bd 40 7d 24 bd
       0.00036177036 -0.034200996 -0.047208738 -0.04015851
000140 ed ca 0f 3b b9 b8 33 bc 19 18 58 bd 0a 4b 0d bd
       0.0021941022 -0.010969334 -0.052757356 -0.03449539
000150 ba 82 25 bd b6 4f a2 3a ef 36 09 bd 40 8b d5 bc
       -0.040407874 0.0012383375 -0.033499654 -0.026067376
000160 2b d8 f0 bc d4 8c 5a 3b df 4f 04 3d 8e 84 03 3c
       -0.029399952 0.00333481 0.032302734 0.008027209
000170 a2 5c 6c bd 51 f3 34 bd d6 d2 b1 3b 1c 42 86 bb
       -0.05770553 -0.044177357 0.005426745 -0.0040972363
000180 40 6a 80 3c 33 c1 2c 3c 91 83 a8 bc fa f0 13 bd
       0.015675664 0.010544109 -0.020570548 -0.036118485

convs.2.weight f4 [100, 1, 5, 91]
000000 48 f6 d2 3b 9d a2 08 bd a9 13 a7 3c 82 59 38 bb
       0.0064380504 -0.033358205 0.020395117 -0.0028129523
000010 c6 69 38 3c b2 ca e3 3a bf e1 2b 3d b7 1a 2d 3d
       0.011255687 0.0017379133 0.041963335 0.042261805
000020 61 d6 6b 3b fe 17 91 3b 9e d4 c2 bc 92 cc b8 bc
       0.0035985934 0.004427909 -0.023783024 -0.022558484
000030 7e bc 8c bc e8 ac ba 3b 88 5d 28 3d 6f ec 39 3d
       -0.017179724 0.0056968816 0.041104823 0.045391496
000040 7f 51 1c bc e9 f7 c7 3c 13 b7 46 bc 65 ad da bc
       -0.009540915 0.024410205 -0.012128609 -0.02669401
000050 2b 93 0f bd 7d c2 a4 3c c8 9b a2 bc 66 67 99 bc
       -0.03505246 0.02011227 -0.019849673 -0.018726062
000060 46 bb 87 3c 8b d9 e3 bc e7 d8 f9 bc 26 75 cf 3c
       0.016568791 -0.027813694 -0.030498935 0.025324415
000070 a0 96 ba 3b 5e 69 b8 3c 78 61 a6 3a c2 f2 49 bb
       0.0056942254 0.02251118 0.0012693843 -0.003081486
000080 d9 87 07 3d 6b 80 f2 3c 26 14 d0 bc 6e b4 df bc
       0.03308854 0.02960225 -0.025400233 -0.027307715
000090 50 2b f1 bb 76 4b 34 bb a0 17 98 bc 57 1e 72 bc
       -0.0073598996 -0.0027510799 -0.018565953 -0.014777741
0000a0 bc c5 87 bd 44 df 04 bd 3f 92 d4 bc d9 d0 16 3d
       -0.06629512 -0.032439485 -0.025948642 0.036820266
0000b0 8e 40 d1 3c 98 e2 6d 3d 75 4e 1a bd 11 66 02 bd
       0.025543477 0.058077425 -0.03767248 -0.03183562
0000c0 07 7e 6f 3d 39 52 00 3d a9 4f 85 bd 34 0b 5d 3d
       0.0584698 0.031328414 -0.065093346 0.053965762
0000d0 c4 93 f8 3c 3d 96 1f bd cd 6b 1f bc 10 36 09 3c
       0.030343898 -0.038961638 -0.009730292 0.008374706
0000e0 10 31 16 bc d2 7d 1a bd b5 db 0c bd bb 73 36 bd
       -0.009166971 -0.037717648 -0.034389216 -0.044543963
0000f0 30 80 4c bb d4 ea e8 3c d6 dc be bc 8d fc 22 bd
       -0.0031204335 0.028432287 -0.023298662 -0.039791632
000100 7a be 05 3d 72 63 08 bd b8 fe ac bb d0 e9 13 3d
       0.032652356 -0.033297963 -0.0052793883 0.036111653
000110 14 7f 65 bc 1c 20 a3 3c a0 85 1b 3b 28 01 0c 3c
       -0.014007349 0.019912772 0.002373077 0.008545198
000120 b2 75 eb bc 77 e5 ec bc 9c a1 26 3d 70 09 7e bb
       -0.028742645 -0.028918011 0.040681466 -0.003876295
000130 d8 d5 a7 bb 6c 62 2c bc 14 45 cb 3c 08 77 a8 bb
       -0.0051219277 -0.0105215125 0.024813212 -0.0051411428
000140 30 08 89 bc 84 81 08 bd b8 51 f7 3b 04 ab fc 3c
       -0.016727537 -0.03332664 0.0075475834 0.030843265
000150 78 ec f0 3b ad 78 11 bd 34 a3 bd 3c 0c b1 ba 3c
       0.007352408 -0.035515476 0.02314911 0.0227895
000160 4b 99 35 bd 1b 5b e2 bc 9c d4 94 3c 2c 2e 1a bd
       -0.044335645 -0.027631333 0.018167786 -0.03764169
000170 2f 19 74 bd d5 e3 8c bd fd b9 f9 bb 42 9c 98 bc
       -0.05959433 -0.06879393 -0.0076210485 -0.018629197
000180 66 a7 bd 3c 3d e9 b1 3d e8 34 a1 bc cd e5 17 3b
       0.02315111 0.08687065 -0.019678548 0.0023177743
000190 fd d3 0c bc 2a 70 2f 3b 9c 2b 1f 3d 2f 60 e7 bc
       -0.008595464 0.0026769736 0.03885995 -0.028244106
0001a0 32 14 17 bd 3c a5 f8 bb 48 3e 1a bd dc c9 2f 3d
       -0.036884494 -0.007588057 -0.037657052 0.042917117
0001b0 46 a8 36 3d cd 2b 14 3d 0e 20 5d 3c 64 18 03 bc
       0.04459407 0.036174584 0.013496412 -0.008001421
0001c0 6f 89 54 3c 59 81 3a 3d 6b 8d b7 bc d1 cf 99 3c
       0.01297222 0.04553351 -0.0224063 0.018775852
0001d0 09 6e 78 3d 97 21 78 bc f0 27 f6 bc c9 9b e5 bb
       0.060651813 -0.015144727 -0.03004834 -0.0070070964
0001e0 f3 e5 dc 3c 5c 4f 7e bd 4d 77 d7 bc 13 32 24 3d
       0.026965117 -0.0620874 -0.026302004 0.040086817
0001f0 a5 09 72 3c f8 f5 75 3d 99 46 2f bc 32 ad 1f bd
       0.014772807 0.060049027 -0.010697984 -0.03898353
000200 44 3a 58 bb 9d 7e a0 3c 49 7f d0 bc ca 70 82 bd
       -0.0032993713 0.019591624 -0.02545132 -0.06369169
000210 74 b4 3b 3c 7e 89 87 3d d1 e8 1a bd 3d 23 a9 bc
       0.011456598 0.066180214 -0.037819687 -0.020646686
000220 02 15 33 3d 2a 96 79 3d 2c 3b bf 3a f2 41 fe 3c
       0.043721206 0.060934223 0.0014589778 0.031037305
000230 e6 2e 0b bc 87 83 b1 3a 0b 22 c9 3c bc d2 89 ba
       -0.008495068 0.0013543227 0.024552366 -0.0010515074
000240 be 8e 8c bb e0 51 08 3d 36 05 13 bd 88 44 11 bc
       -0.004289477 0.033281207 -0.03589364 -0.008866437
000250 80 7d e5 39 20 bd 9f ba 41 7d 27 bd a4 35 a2 3c
       0.00043771788 -0.0012187101 -0.040890936 0.019800968
000260 34 72 c2 3c 48 75 dd 3b 70 22 f3 3c 88 f1 b7 3c
       0.023736097 0.006758366 0.029679507 0.022454038
000270 d6 cd 21 3d 58 7c 2d 3d f7 74 14 bd 74 01 bd bc
       0.03950294 0.04235491 -0.03624436 -0.023071982
000280 80 15 ac 39 d8 4c d7 bc ca fd 02 3d 48 81 cf bb
       0.00032822415 -0.02628176 0.031980313 -0.00633255
000290 44 41 8d 3c c0 a8 be bc c8 7d f3 3b 28 85 29 bd
       0.017243035 -0.023273826 0.007430766 -0.041386753
0002a0 cc cc 3a 3d 28 8a 04 3d fc e5 9f 3c 62 3b 16 3d
       0.045605466 0.03235832 0.019518845 0.036677726
0002b0 27 d0 c4 bc 5c 45 52 3c e1 ab 3e bd de bf 16 3d
       -0.024025036 0.012833919 -0.046550635 0.036804073
0002c0 44 03 1d 3c a0 78 11 3d 52 28 02 3d e4 1f 1b bc
       0.009583298 0.035515428 0.031776734 -0.009468053
0002d0 d4 26 ed 3c 00 1a a9 38 21 07 77 bd bb 19 4e 3c
       0.028949179 8.063391e-05 -0.060309533 0.012579377
0002e0 c7 a8 8b bd bc c7 5f bd 28 7f e1 3c 3c 5f ef 3b
       -0.06819301 -0.05463384 0.027526453 0.007305054
0002f0 01 db 49 3d f7 a2 26 3d 40 41 21 3d 28 89 31 3a
       0.049281124 0.04068276 0.039368868 0.0006772452
000300 dc c2 ac 3c c0 2a 8b bb b2 d9 5a 3d 9f e4 0c bc
       0.02108901 -0.0042470396 0.053430267 -0.008599429
000310 10 59 ae bc 1c 0b 0e 3d 16 50 01 bd 8d 17 25 3c
       -0.021282703 0.034678563 -0.031570517 0.010076416
000320 27 2d 97 bc c5 b0 3f bd 47 f3 e6 bb 94 a1 1f 3d
       -0.018454148 -0.04679944 -0.007048044 0.038972452
000330 aa 40 f9 bc 23 1d 11 3d d0 70 1f bd 3a 6d a4 bb
       -0.030426342 0.035428178 -0.038925946 -0.0050179036
000340 1b e6 ae bc 29 d9 10 bd 89 67 20 3d 3d e5 01 3c
       -0.021349957 -0.03536335 0.03916124 0.00792819
000350 13 39 77 bc dc a5 75 bc 9e 9f be bc cf 2d 78 3c
       -0.015089291 -0.014993157 -0.02326947 0.01514764
000360 d8 b7 87 ba 4e f3 21 3d c1 9b 52 3d 2a 94 04 bd
       -0.0010354472 0.039538674 0.05141807 -0.032367863
000370 e7 3d 5a 3c eb b9 a8 3c 21 73 0c bd 8a 5a 18 3c
       0.013320423 0.020596465 -0.034289483 0.00929893
000380 bb f1 05 3d f1 f2 02 3a f6 dc 0a bd 81 b2 67 bd
       0.032701235 0.00049953075 -0.03390213 -0.05656672
000390 e0 ef 17 bd 13 7e 46 bd 41 91 72 3d 78 98 06 3d
       -0.037093997 -0.048460077 0.059220556 0.03286025
0003a0 00 31 c1 bc 94 51 d8 bb a4 09 b9 3c 14 b4 28 bd
       -0.023582935 -0.0066015217 0.022587605 -0.04118736
0003b0 7b 3a a7 3c 30 d2 98 3c 00 91 14 3d 58 23 1c 3c
       0.020413628 0.018654913 0.036271095 0.009529911
0003c0 10 8e bc 3c 10 73 31 bb 08 f3 3f 3d cc e2 0b bd
       0.02301696 -0.002707664 0.046862632 -0.034151837
0003d0 4c f7 cb 3c 1a 48 36 3d 06 49 2e bd ec 1e 57 3c
       0.024898194 0.044502355 -0.04255011 0.013129931
0003e0 7c fb 5e bc 69 d4 22 bd 10 d3 ed 3b 54 d7 6f 3c
       -0.013609763 -0.03975335 0.0072578266 0.014638741
0003f0 80 f4 02 3d d0 17 a9 3c ea 83 ca bc 78 9f ab 3c
       0.031971455 0.020641237 -0.024721105 0.020950064

convs.2.bias f4 [100]
000000 57 a5 44 bc 73 ee d9 3c 0e 6d 03 3d 21 10 f4 3b
       -0.012002311 0.02660296 0.032086425 0.007448212
000010 5e 51 18 bd 95 7f 38 3d 0e 49 17 3d 14 52 3c bd
       -0.037186973 0.045043547 0.036934905 -0.045976713
000020 ae 74 68 bd a7 29 12 bd 75 06 0e 3c 55 03 39 bd
       -0.0567519 -0.035684254 0.008668532 -0.045169193
000030 da 69 e1 3c cf f4 25 3d 04 c9 dd 3c ee dc 26 3d
       0.027516294 0.04051667 0.02707339 0.04073804
000040 e7 91 a5 bc b6 20 80 3c 71 8c ca 3a ff d4 12 3d
       -0.020211173 0.015640598 0.0015453232 0.03584766
000050 6b 73 1c bb ae f8 c0 bc ca 77 89 bb cb 4b 3b 3d
       -0.0023872505 -0.02355608 -0.004195188 0.04572658
000060 39 b8 45 bd 76 23 ac 3c 5a f3 66 bd de 91 73 bc
       -0.04827139 0.021013003 -0.056384422 -0.01486632
000070 e3 5c 96 bc b5 d6 48 bc 0c e1 15 3d 5d 42 db bc
       -0.018354839 -0.012258221 0.036591575 -0.026765043
000080 01 d0 b7 bb d1 a0 94 3a 24 3e 2f 3d 40 93 2a bd
       -0.005609513 0.0011339431 0.04278387 -0.041644335
000090 33 c7 db 3b aa f2 83 bd 18 4f f8 bc e8 0c 05 3c
       0.006707096 -0.06442769 -0.030311152 0.008120753
0000a0 72 9e 28 bd 8b 00 1f bd 3e 34 d9 bc 6b bd cd 3c
       -0.04116673 -0.038818877 -0.026514169 0.025114736
0000b0 2a 39 41 bd 85 81 4a 3c 0e 2a 45 bd b8 18 40 3c
       -0.047173657 0.012359981 -0.04813581 0.011724643
0000c0 11 6d f5 bc 26 1c a2 bc a4 2f a7 ba 0f 30 6a bd
       -0.029959233 -0.019788813 -0.0012755287 -0.05717474
0000d0 22 58 19 bc ab 6b c8 bc 38 62 dc 3c 6a 5c 1d 3d
       -0.009359391 -0.024465403 0.026902303 0.03841821
0000e0 b6 3b d3 3c f4 26 2d bb 67 ca 38 bc f3 00 3b bd
       0.025785308 -0.0026420923 -0.011278725 -0.045655202
0000f0 8b 1f 50 bd b2 48 fa bc 94 41 a6 3b 2f 97 99 3c
       -0.05081133 -0.030552242 0.0050737355 0.018748848
000100 75 9c 8d 3c db 4d bf 3a b5 6d 46 bd f6 73 65 bc
       0.017286519 0.0014595346 -0.04844447 -0.014004698
000110 ad 52 a2 3a 73 84 15 bd dd 1b 8a bc 37 7c 7a 3c
       0.0012384258 -0.036503267 -0.01685899 0.015288404
000120 4d a2 3d bd 32 3e 66 3b be 36 cf 3c c3 70 2a 3d
       -0.04629736 0.0035132286 0.025294658 0.041611444
000130 11 9c 40 3b cf b5 6b bd 4b 66 08 bd 98 11 51 bc
       0.0029389898 -0.057546433 -0.03330068 -0.012760542
000140 ad 77 16 3d 74 20 c0 bc e0 d9 a2 3c d0 a2 57 3c
       0.036735225 -0.023452975 0.019879282 0.013161376
000150 b4 29 8e ba 87 a8 72 3c 95 07 f1 39 00 0c 3c bc
       -0.0010846169 0.014810688 0.0004597275 -0.01147747
000160 0f bd ed 3b 89 48 52 3c 81 56 ae 3b cb d9 94 bc
       0.0072552036 0.012834677 0.0053203707 -0.018170258
000170 98 5e 9c bc 29 90 03 3d 1e 76 c3 bc ea 07 83 bc
       -0.019088075 0.032119904 -0.023860034 -0.015994985
000180 f7 95 fb bc ea 41 c7 bb b0 14 af 3b 0c 9a 35 bc
       -0.030711157 -0.0060808556 0.0053430423 -0.011084091

convs.3.weight f4 [100, 1, 6, 91]
000000 9f a6 92 bc e9 5d 16 bd dc 61 e2 bb df aa fc 3b
       -0.017901717 -0.036710653 -0.0069086384 0.007710799
000010 8e 76 af 3c 56 8d d4 3b 54 e7 4c 3d 23 42 59 bb
       0.021418836 0.006486575 0.0500253 -0.0033150993
000020 71 da 5f 3c 0d 54 02 3d d8 c2 08 bc 4c d5 50 3c
       0.01366292 0.03181844 -0.008347236 0.012746166
000030 b1 42 2b 3d f2 35 33 3d 63 b6 8c bb 61 33 ac bc
       0.04181165 0.043752618 -0.004294203 -0.021020593
000040 55 ef 8b 3c 18 e3 a8 bc 9b a1 06 bd 03 db 81 3c
       0.017081896 -0.0206161 -0.032868963 0.015851503
000050 37 7f 81 3d 2e 4f b6 bc 08 a0 d1 3c 36 a4 50 bc
       0.063230924 -0.022254553 0.025589004 -0.012734463
000060 72 c8 00 3d 2b 60 dd 3b 1a d9 88 3d da 26 20 3b
       0.03144116 0.006755849 0.06682034 0.002443722
000070 58 4d d3 3c 5d 0d 27 bd 90 92 2a 3c 45 a0 40 3d
       0.025793716 -0.04078423 0.01041092 0.047027845
000080 ff 83 00 bd bb 9b 74 3d 41 d8 32 bd 45 60 8f 3d
       -0.03137588 0.05971883 -0.043663267 0.07000784
000090 dd 7b c7 bc f7 eb 96 3c 0f 45 31 bd dc 94 fc bc
       -0.024351055 0.018423064 -0.04327875 -0.0308327
0000a0 eb 3c 7f 3c 84 d7 ba bc 68 a7 31 3c 9d 43 d6 3c
       0.015578489 -0.022807844 0.010843135 0.026155287
0000b0 c2 71 c5 ba cb 61 de 3b 30 e8 f5 3b 46 2c 14 3b
       -0.001506381 0.00678656 0.0075044855 0.0022609397
0000c0 e7 67 74 3d 77 db 18 bc 9d 66 32 bd a2 f3 39 3d
       0.0596694 -0.009329668 -0.04355489 0.045398362
0000d0 de 19 05 3b f5 af a3 bc c9 55 62 3c 65 a7 2b 3d
       0.0020309607 -0.019981364 0.013814398 0.041907687
0000e0 e8 b4 ec bb 80 05 89 3a a8 3a 1a bd b0 76 47 bb
       -0.007223714 0.001045391 -0.037653595 -0.0030435733
0000f0 cc a8 3b 3c 72 8b cc 3c 20 c9 f6 3b dc 65 13 3c
       0.0114538185 0.024968836 0.0075313 0.008996453
000100 f0 d9 cc bc f9 de 0a bd 0a fb e1 3c a3 d0 2a 3d
       -0.025006264 -0.03390405 0.027585525 0.041702878
000110 9b f5 05 3d 40 3b a1 3c b0 cd 8f 3b b5 27 03 3d
       0.03270493 0.019681573 0.0043885335 0.03202029
000120 6e 5f 4c bc fe a7 fb 3c 90 78 6f bb 62 35 6c bc
       -0.012473924 0.030719753 -0.0036540367 -0.014417024
000130 16 28 c7 3c f8 78 0d 3c cf fe eb bc 01 f2 23 bd
       0.024311107 0.008634798 -0.028808026 -0.040025715
000140 e8 80 f5 bc 60 22 82 3a 25 51 cb bc bf a6 87 bc
       -0.029968694 0.0009928457 -0.024818966 -0.016559003
000150 b9 ec 25 3d 81 bc 06 3d 58 98 11 bc 4e 21 f2 3c
       0.04050896 0.032894615 -0.008886419 0.029556897
000160 7f 8c 8b bc 98 e6 e2 bc 02 1f b2 bc 8e 72 57 bd
       -0.017034767 -0.027697846 -0.021743301 -0.052599482
000170 38 00 bd 3c d8 67 47 bd 63 46 7a bc 74 9a e2 3c
       0.023071393 -0.048683017 -0.015275571 0.02766154
000180 52 9a 44 3d 5a 38 08 bd 5b 37 0c bc c4 40 89 38
       0.047998734 -0.033256866 -0.00855812 6.5447326e-05
000190 6c 48 d2 3c 4d 53 84 3c 34 a6 03 bd 18 67 ef 3c
       0.025669299 0.016153002 -0.032140926 0.029223964
0001a0 4e 5d 54 3c cf ad 2a 3c 1a c4 21 3c 09 53 12 3d
       0.012961699 0.010417416 0.009873414 0.03572372
0001b0 26 2d 5b bc 4f 5d c7 3b 1a 83 c3 bc 07 fd 81 bb
       -0.013377463 0.0060841213 -0.023866225 -0.003966931
0001c0 8a e3 5d bb a0 5f 2f bd b6 4d 40 bc be 1b 74 bb
       -0.0033857548 -0.042815804 -0.011737278 -0.003724798
0001d0 7f 0a 3c 3c 0d 00 18 bc 49 4b eb bc ae 5f 87 3c
       0.011477112 -0.009277356 -0.028722422 0.016525116
0001e0 32 1a 9d bc 46 8c f8 3c 6e 3f ba 3c ea dc cf bc
       -0.01917753 0.030340325 0.022735324 -0.025373895
0001f0 69 82 30 3c 13 b1 e2 bc 9b 22 40 bc 1e 16 53 3b
       0.01077328 -0.027672326 -0.011727001 0.0032209228
000200 76 80 c0 3b 0a e5 0d bd e0 84 a0 bc b2 88 84 bc
       0.0058746887 -0.034642257 -0.01959461 -0.016178463
000210 a2 9e a8 bc 7f 68 ca 3c 00 10 70 3c 47 f7 07 3c
       -0.020583455 0.02470803 0.014652252 0.008298702
000220 d9 fc 8e 3c 1c 50 6d bb e5 96 93 bc 6d a6 ed 3c
       0.017454552 -0.003621108 -0.018016288 0.029010022
000230 a5 2f f5 3b 44 f7 0c bd ae 08 22 bc 32 ef e7 38
       0.0074824863 -0.0344155 -0.009889765 0.00011059492
000240 58 80 be 3c 62 d5 f9 bc f0 2d 69 bc 44 4a 39 bc
       0.023254558 -0.030497257 -0.014232144 -0.01130921
000250 9f c4 d1 bc 61 9b 15 3d 75 14 8c bc 08 f1 fb 3b
       -0.025606452 0.036525134 -0.017099598 0.0076886453
000260 d0 32 6a 3b 82 7f 4c bc 38 a4 bc 3b f8 c2 8c 3b
       0.0035735853 -0.012481572 0.005756881 0.004295703
000270 c0 d4 55 bc 58 39 94 3c 8f 5c 22 3d 30 5a 68 3c
       -0.013051212 0.01809375 0.039639052 0.014181659
000280 9b e5 25 bd a0 19 3e 3b 18 22 14 bd 60 eb f9 3b
       -0.040502172 0.0029006973 -0.036165327 0.007626936
000290 a2 04 c2 3c b8 22 f0 bb ce 5f bc 3c 00 79 3d 3a
       0.02368385 -0.0073283575 0.022994902 0.0007227808
0002a0 a4 b5 04 3c d2 f5 d0 3c d8 5e 1e 3c 9e 40 a7 3c
       0.008099947 0.025507841 0.009666167 0.020416554
0002b0 d7 a4 26 bd 0c e8 7b 3c 2c f4 0c bc f4 b5 80 3c
       -0.040684547 0.0153751485 -0.008603137 0.015711762
0002c0 fc a7 91 bc a4 78 29 bc 07 90 f7 bc f4 92 04 3c
       -0.017780297 -0.010343704 -0.030220045 0.008091677
0002d0 c0 0a 23 3b 85 f9 b1 bc a4 9a 81 bc b7 a5 74 3c
       0.0024878234 -0.021725425 -0.015820809 0.014932088
0002e0 4f 32 1b bc f4 bf 05 bd 58 f4 ef 3a f4 09 dc bc
       -0.009472444 -0.032653764 0.0018307073 -0.026860215
0002f0 3f 18 0b 3d 5e 4c 07 ba 7c 02 47 bb ba 2f 2b bd
       0.03395867 -0.0005161221 -0.003036647 -0.041793562
000300 73 01 9a bb ba 18 0f 3d fa 5c 84 bc 70 c5 08 3c
       -0.00469988 0.03493569 -0.016157616 0.008347854
000310 34 30 13 bb 51 79 14 bd 84 bb 07 3d 1e 5b d1 bc
       -0.0022459151 -0.03624851 0.033137813 -0.025556143
000320 a4 05 f9 bc b9 40 52 bd 76 12 32 3d c6 5b dd bc
       -0.030398197 -0.051331256 0.043474637 -0.0270213
000330 d2 9b 02 bc 03 30 ba bc 49 3c 1a bc 50 f6 52 3c
       -0.007971721 -0.022727972 -0.009413787 0.012876108
000340 03 4d 1d bd 3f 40 bd bc 37 45 09 bd 8d cb 23 3d
       -0.038403522 -0.023101924 -0.033513274 0.039989043
000350 c2 65 d0 bc ab 9f 90 3b 06 9f fb bc de 4d e2 3c
       -0.025439147 0.004413565 -0.030715477 0.02762502
000360 4b 71 db bc 4e 7b 4d bb cf 89 13 3d a0 7a 99 bc
       -0.02678742 -0.0031354013 0.036020096 -0.01873523
000370 cb 62 eb 3c 26 4e b9 bb d0 90 f3 bc 43 8a 64 bc
       0.028733632 -0.005655068 -0.029732138 -0.01394898
000380 bf 0f 69 bc 09 8b 3e bd 2a a2 74 3c ac bf b6 3b
       -0.014224946 -0.046519313 0.014931241 0.0055770483
000390 6d be d0 bc 55 2d 93 3b 3a 48 03 3d b5 ed cc 3c
       -0.025481427 0.004491488 0.032051302 0.025015691
0003a0 98 2d 3a bd 05 ca 93 bc 98 b0 9e bc 12 bd 5b 3c
       -0.045453638 -0.018040666 -0.019371316 0.013411777
0003b0 8b 32 d8 bc b5 ef c6 bc 38 1a ba bb 74 0e 2a 3c
       -0.026391288 -0.024284223 -0.005679395 0.010379422
0003c0 cc 26 02 bc 4d fe 0d 3d 50 3e 16 bc 75 8d 01 3d
       -0.00794382 0.03466635 -0.00917013 0.031629045
0003d0 47 9c 00 3d 20 d5 c1 3b 90 0c 91 bb f0 61 21 3c
       0.031399038 0.005915299 -0.0044265464 0.00985001
0003e0 68 14 b4 bb c0 3a 55 3c 90 90 ac bb 52 e8 94 3c
       -0.0054955967 0.013014495 -0.0052662566 0.018177185
0003f0 ba 4e e8 3c 92 13 16 bd d0 f9 8a bc dc 4e 09 bd
       0.028357852 -0.036639757 -0.016964823 -0.03352247

convs.3.bias f4 [100]
000000 1f 36 99 bb 39 3a 15 3d 96 cc 03 3d db f1 e0 3b
       -0.004675641 0.03643248 0.03217753 0.006864769
000010 fa ba 01 3d 01 e2 f3 bc c7 9a f4 bc 38 cd 10 bb
       0.031672455 -0.029770853 -0.02985896 -0.0022094976
000020 fb 7f 00 bd 6e d6 21 bd 27 c2 c3 3c d3 76 04 3d
       -0.03137205 -0.039511137 0.02389629 0.032339882
000030 d7 2f d1 3c df 56 b5 3c fd ca 45 3c 60 f3 24 ba
       0.025535507 0.02213615 0.012072322 -0.0006292369
000040 3e 7c 00 bd 6d c3 ee 3c df 4b 03 3d 0c aa e1 3c
       -0.031368487 0.02914592 0.03205478 0.027546905
000050 f7 f8 7c bc 89 db 97 3c 22 dd 57 bc 17 b4 d5 3b
       -0.015440217 0.0185373 -0.013175281 0.0065217125
000060 6b 1d c7 bc 50 ca 16 3b 80 a3 06 3c c3 59 38 bd
       -0.02430602 0.0023008771 0.008217692 -0.04500748
000070 03 82 c4 3c 64 ed 1b bd f5 66 93 bc 8b eb 4d bd
       0.023987776 -0.03806819 -0.01799343 -0.05027346
000080 06 9b b8 bc c1 76 a2 bc b3 bf 29 bd 06 94 6e 3c
       -0.022534858 -0.019832017 -0.041442584 0.014561659
000090 50 cb 17 3d 7e 28 b5 bc 7e 56 8c bc d3 67 29 bc
       0.03705913 -0.022114035 -0.017131086 -0.010339695
0000a0 8e 07 76 3c 10 cf 7f bb e6 0e 9b 3a 76 3c 4a bc
       0.01501645 -0.003903333 0.0011830002 -0.012343517
0000b0 d1 23 3b bd 3b 0a 31 bd 98 8e df bb 6e f5 86 3b
       -0.045688454 -0.043222647 -0.0068224184 0.004118613
0000c0 c5 fb 1f bb 18 13 6a bb e1 1d e6 3b d2 4e 30 bd
       -0.002441154 -0.0035716947 0.007022605 -0.04304392
0000d0 b5 f5 85 bc 64 da 26 bd ee 78 b1 bc 6d dc ea bc
       -0.016352514 -0.040735617 -0.02166411 -0.02866956
0000e0 1b e2 e7 3c 66 b5 e0 3c 66 ee ce bc eb a4 4a bd
       0.028306058 0.027430248 -0.025260162 -0.049473684
0000f0 eb e5 9e bc c2 b6 82 bb ee aa ff 3c 11 27 29 bd
       -0.019396743 -0.0039890716 0.031209435 -0.041297022
000100 85 e3 96 bc 7a 4e c3 bc a3 1e 38 bc 53 40 23 bd
       -0.018419037 -0.023841131 -0.011237773 -0.039856266
000110 fc f1 24 3d 18 9f 68 3c 4c 4c f6 3c 66 60 0b 3c
       0.040269837 0.014198087 0.030065678 0.00850687
000120 f3 e9 d1 3b 7d 2d f3 bc 16 8c b8 3c 51 3a b1 3b
       0.0064060627 -0.029684776 0.022527736 0.005408563
000130 00 bd 1c 3d 70 85 6a bc f1 96 54 bc 44 e4 73 3c
       0.038266182 -0.014314041 -0.01297544 0.014885966
000140 c3 78 c9 bc 5b 33 c9 3a 9c f5 67 bc 11 bb 62 3c
       -0.024593716 0.0015350388 -0.014157679 0.013838545
000150 78 46 f7 3c 3a 27 d4 3c a5 9b 16 bd c3 33 72 3c
       0.03018497 0.025897611 -0.036769528 0.014782849
000160 3d 9b 10 bd 22 92 31 bd 33 9b c8 3b 06 8d f9 3c
       -0.035304297 -0.043352254 0.006122017 0.030462753
000170 35 cb 1c 3d ff 75 d5 bc 56 bc 0c 3d 5f 83 0c 3c
       0.03827973 -0.026057241 0.0343593 0.008576243
000180 32 49 e5 3c 38 6b 89 bc a3 68 4f bd 32 8b 44 3c
       0.027989004 -0.016774759 -0.0506369 0.011996077

convs.4.weight f4 [100, 1, 7, 91]
000000 ea 3b ec 3b 75 a1 32 bc c6 2f b6 bb 7a da ef 3c
       0.0072092908 -0.010902752 -0.0055598943 0.029278982
000010 e4 60 d6 bc 40 1a 7b 3b 8a f1 18 bd 1c f9 eb 3c
       -0.026169248 0.0038315207 -0.037339725 0.028805308
000020 13 77 05 bd 5f bf 6b bc 59 b1 f5 bc a2 76 ca 3c
       -0.03258426 -0.014388888 -0.029991793 0.024714772
000030 02 12 81 3b 2d 26 8e bc dc d3 8d 3c 5f 8f 4c bd
       0.0039389143 -0.017352188 0.017312936 -0.049941417
000040 52 24 c4 3c 49 55 92 3c ba 8a 0b bd d8 32 f9 3b
       0.0239431 0.017862933 -0.034067847 0.007604938
000050 be 66 d7 3b 89 bd 46 bc 06 06 68 3c 7e 87 47 bc
       0.006573527 -0.01213015 0.014161592 -0.0121783
000060 46 26 a4 ba e5 5c 13 bc 8c ac 6f bc 7e 47 9a ba
       -0.0012523613 -0.008994316 -0.014628541 -0.0011770574
000070 c0 8f 70 3c e6 fe fa bc cf b5 cb 3c 57 d0 57 bb
       0.01468271 -0.030639123 0.024866967 -0.0032930577
000080 e6 82 4d 3b 4a 1f b8 bc 4b 28 10 3d 4f 94 28 3d
       0.003135854 -0.022475857 0.035194676 0.041157063
000090 a4 b6 85 3a a3 27 e6 bc a5 5f 28 bc 7c 50 ae bb
       0.0010201526 -0.028095072 -0.01027671 -0.005319653
0000a0 0a 6a 28 3c d8 36 9f ba b6 98 4b bc b5 e7 5f 3c
       0.010279188 -0.0012147082 -0.012426546 0.013666083
0000b0 6b 89 8a bc 53 16 04 3d ca 10 d3 3c 65 35 3a 3c
       -0.01691123 0.032247853 0.025764842 0.011365269
0000c0 ee cb e5 bc 11 09 0c bd 58 b4 00 bd d8 e2 b0 3c
       -0.028051343 -0.034188334 -0.03142199 0.021592543
0000d0 76 af 02 bc 74 c0 b1 3b 48 71 3c bb 26 8c 13 bc
       -0.007976403 0.0054245535 -0.0028754044 -0.009005582
0000e0 ab 58 1f bd a0 9a 2f 3c a8 fb 25 3c 79 6d 0e bd
       -0.03890292 0.010718018 0.0101308 -0.03477237
0000f0 50 bf 83 3b 58 83 e5 bb 54 83 0e 3c c8 dc ba 3c
       0.004020609 -0.007004183 0.008698303 0.022810355
000100 28 a8 c8 bb a0 49 82 ba fd 5e e5 bc 40 24 99 ba
       -0.0061235614 -0.0009940155 -0.027999396 -0.0011683777
000110 f0 07 9d 3c 1a df 1f bd 63 d2 00 bd d8 c6 bb bc
       0.019168824 -0.039031126 -0.03145064 -0.022921965
000120 bc 7d a3 3c 64 4b d5 bc 44 c4 e2 3c 02 33 1e bd
       0.019957416 -0.026036926 0.027681477 -0.038622864
000130 e8 8f ed 3c 40 3f 08 3a fa 9f 85 bc 58 0d 2b 3c
       0.028999284 0.0005197413 -0.016311634 0.010440193
000140 1c c2 62 bc 1e 2c dc bc 48 ed 09 bc 98 9f ad bc
       -0.013840225 -0.026876505 -0.008418389 -0.021194264
000150 a4 df 40 3c 01 c9 14 bd 70 d2 63 bb 7c dd f3 3c
       0.01177207 -0.036324505 -0.0034762882 0.029768698
000160 ac 74 c9 3c 61 f0 e5 bc e0 5a 73 bb b5 60 80 3c
       0.024591766 -0.028068723 -0.0037133023 0.015671114
000170 4d 6a 0b bd 5e b7 23 3d a8 ea 9b bb 09 0e 49 bc
       -0.034036923 0.039969794 -0.004758198 -0.012271413
000180 03 6b 8a bc ec 93 a8 3b 35 6b 9e bc 7d 69 e2 3b
       -0.01689673 0.005144587 -0.01933823 0.006909548
000190 08 2a 75 3c e8 b0 c5 3c ea b3 0f bc 87 e4 c3 3c
       0.014963634 0.024132207 -0.008770922 0.023912681
0001a0 f7 33 69 3c 7e 3e 17 3d ac f7 25 3b 71 c8 43 bd
       0.014233581 0.03692483 0.0025324626 -0.047798578
0001b0 ed fd 07 3d b4 75 c8 bc 96 00 02 bd 61 15 d3 bb
       0.033201147 -0.024470188 -0.03173884 -0.0064417575
0001c0 c3 53 95 3c 13 a6 f6 bc b5 ec 5f bc 4d 15 34 3c
       0.018228417 -0.030108487 -0.013667275 0.010991407
0001d0 34 4f 10 bc e1 b6 0e 3d fc 80 c8 3c 97 31 c9 3c
       -0.008807946 0.034842376 0.024475567 0.02455978
0001e0 34 f9 4c 3c 4d 3d 60 bc 47 eb 8d bc dc c9 2e bc
       0.0125105865 -0.01368649 -0.017324103 -0.010668244
0001f0 2a 61 5f b9 0b ac e0 3b 39 a8 09 3c ac da ce 3b
       -0.00021303134 0.0068564466 0.008401924 0.006312689
000200 69 43 00 bd 9a 89 07 39 8d ea 40 bd e8 fc 30 3d
       -0.031314287 0.00012925864 -0.047098685 0.04320994
000210 1d 2e ba bc b2 ed ba 3c 46 da b3 3c 12 2f 11 3d
       -0.022727067 0.02281842 0.021954667 0.03544528
000220 30 d5 83 bc d0 60 17 3d 00 9e c6 bb 58 4b e3 bc
       -0.016092867 0.036957562 -0.0060613155 -0.027745888
000230 80 bf 9c 3c ad e2 ef bb 5d 45 07 3d 06 aa 13 3d
       0.019134283 -0.007320723 0.033025134 0.03605082
000240 38 64 c0 3c 4a 25 ec 3c 82 3b 0f 3d c0 75 74 bc
       0.023485288 0.028826375 0.03496886 -0.014920652
000250 b6 57 ff bc 6e 34 22 bd 74 1b dd 3c 2c 90 67 3c
       -0.031169754 -0.039600782 0.02699063 0.014133494
000260 63 ef 0a bd e8 94 c2 3c 70 89 34 3b a7 fe 20 bd
       -0.033919703 0.023752645 0.002754774 -0.039305355
000270 34 98 05 3d c8 c3 ca 3c 80 24 b1 3a cc 3b 75 3c
       0.032615855 0.024751559 0.0013514906 0.01496787
000280 34 99 eb 3c 5c 00 e6 3c d4 26 1c 3d f8 8c 18 bd
       0.028759576 0.028076343 0.038122967 -0.037243813
000290 79 78 8f bc 88 79 e5 3c a0 c5 68 3b 58 83 86 3c
       -0.0175135 0.028012052 0.0035518184 0.016420051
0002a0 40 3a 7a 3a 1a 11 85 3c e6 cf 02 bd 14 74 7a 3c
       0.0009545423 0.016243506 -0.03193655 0.015286464
0002b0 ec 61 d9 3c fc 78 ed 3c 50 4c 4c bb ec 09 d7 3c
       0.02653595 0.028988354 -0.0031173415 0.026249848
0002c0 f2 52 ea bc 0a 1c 1c 3d f0 9f 96 3b 06 e6 da bc
       -0.028604005 0.038112678 0.0045967028 -0.026721012
0002d0 9e 9d 91 3c 7d ce 11 bd eb 9d 9e 3c 86 be 1e 3c
       0.017775353 -0.035597313 0.01936241 0.009688979
0002e0 49 d2 34 3b b8 9f c2 3c c8 4a 35 bc 52 d6 54 bc
       0.002759116 0.0237578 -0.0110651925 -0.012990551
0002f0 94 6d c7 3c 50 e3 96 3c 10 27 aa 3c 19 e3 3e 3c
       0.024344243 0.018418938 0.02077058 0.011650824
000300 45 77 7b 3d b6 9c cf 3b d0 a9 af 3c 89 af 56 3d
       0.06139304 0.00633582 0.021443278 0.052413497
000310 db 3d 2b bd 27 66 25 3d 54 cf a5 3b 5a 8b fc bc
       -0.041807037 0.040380623 0.005060116 -0.030828167
000320 78 90 1f bd ac 73 86 3c 3f 9c a4 bc 5f 88 13 3d
       -0.038956136 0.016412579 -0.020094035 0.036018725
000330 c5 af 5e 3b 27 b6 07 bd f4 43 b5 bc e9 49 15 bc
       0.0033979279 -0.0331327 -0.02212713 -0.00911186
000340 73 c1 5d bd d6 30 f4 3c e5 1c 92 3c 56 12 d9 3c
       -0.054139566 0.029808443 0.017836044 0.026498001
000350 67 2b 99 3b 3e 3e 08 bb 98 52 81 3b 40 77 58 bc
       0.0046743634 -0.0020789052 0.0039466135 -0.013212025
000360 ca be 05 3c f3 69 91 3c fc 37 a2 3c 8b 2c 0d bb
       0.008163163 0.017750716 0.019802086 -0.0021541442
000370 26 ed ed 3c 42 15 ea bc 8b b6 c6 3b 75 f8 99 bc
       0.029043745 -0.02857459 0.0060642413 -0.018795231
000380 df fb 62 3b 21 69 b4 bb bc 46 8e 3b 03 1f 1e 3c
       0.003463499 -0.0055056964 0.0043419283 0.009650948
000390 8e 1a da 3c 2d 33 54 bb ef d8 fa bc a3 13 3a 3d
       0.02662399 -0.0032379136 -0.03062102 0.045428883
0003a0 e4 57 57 bc 18 2b ce 3a e8 86 c4 bc 60 f7 20 3d
       -0.013143513 0.0015729396 -0.02399011 0.039298415
0003b0 fa 4d bc bc 80 04 f2 bb e9 a4 8d bc 46 53 a3 3c
       -0.0229864 -0.0073857903 -0.01729055 0.019937169
0003c0 a6 29 9a 3c 1a 32 ed bc 32 9e 8d 3c e8 13 5c bc
       0.018818688 -0.028954554 0.017287347 -0.01343248
0003d0 74 7c 6a 3c 7c e9 f8 3c b2 48 84 bc 04 26 01 3d
       0.0143118985 0.030384772 -0.016147945 0.031530395
0003e0 e8 cf 21 bd 90 de 37 3b 28 c9 9a bc 7e a5 06 3d
       -0.039504915 0.0028056242 -0.018894747 0.03287267
0003f0 38 b3 f1 3c bf 83 fb bc 1e f9 94 3c a8 bb 68 bc
       0.029504403 -0.03070247 0.018185195 -0.014204897

convs.4.bias f4 [100]
000000 88 a1 9e bc 28 78 bc 3c 4e df 92 bc aa f3 23 bd
       -0.019364133 0.023006514 -0.017928746 -0.040027298
000010 18 de 5c bc 8a 6e 8d 3c 75 d5 92 3c 1a ae 63 3b
       -0.013480686 0.017264623 0.01792405 0.0034741224
000020 cb 39 d5 bc 8b c7 63 bb 4f 83 d9 3c 3e a8 b8 3c
       -0.026028534 -0.0034756388 0.02655187 0.022541162
000030 96 07 9b bc 6a b9 a5 bc c0 d3 3f bc 73 97 0f 3d
       -0.018924516 -0.020230014 -0.0117082 0.035056543
000040 50 83 2f bc 37 f6 be bc 2f bc 46 bc 5d 02 fe bc
       -0.01071246 -0.023310764 -0.012129827 -0.031006986
000050 57 20 f6 bc f4 9c 0e b8 37 3f c2 3c 5e 32 2b bd
       -0.030044718 -3.4001612e-05 0.023711784 -0.04179608
000060 1d 90 90 bc 83 d1 95 3c ea 67 3a 3c 61 ac b2 bc
       -0.017646844 0.01828838 0.011377314 -0.021810712
000070 6f f9 32 3c db 2f be 3c 28 49 1f bb a0 be 08 3c
       0.010923727 0.023216179 -0.002430508 0.00834623
000080 a1 5f c6 3b 1e 7a 1a bd 86 cb 21 bd a6 cc b9 bc
       0.0060538803 -0.037714116 -0.039500736 -0.022680592
000090 99 62 b3 bb 9d 31 16 3c 8b 09 ee bc 99 cd e2 bb
       -0.0054744002 0.009167102 -0.029057285 -0.006921482
0000a0 6c e2 95 3c 08 ef 49 bd ae 25 ac bc 0e 07 b4 bb
       0.018296443 -0.049300224 -0.02101406 -0.005494005
0000b0 d2 19 9f 3c 08 2a b9 3c 20 63 bd 3b 5d dc cf bc
       0.019421492 0.02260305 0.005779639 -0.025373632
0000c0 54 ac 40 3c de c9 c4 bb 2e 7e 0e bc cd 23 1a bd
       0.011759836 -0.0060055098 -0.008697076 -0.0376318
0000d0 59 9d 00 bd f3 3a a9 bc cd 23 b2 3c 49 f1 c0 bc
       -0.03140006 -0.020657992 0.021745587 -0.023552554
0000e0 f6 50 32 3c d4 12 47 bc 52 aa 84 3c 39 fb 3d bb
       0.01088356 -0.012150485 0.016194496 -0.0028988852
0000f0 a6 1b ff 3c 56 3f ee bc 89 70 d7 bc 69 b8 09 3d
       0.031141113 -0.029082935 -0.026298778 0.033623133
000100 df ba 0c bd 1f cc 18 bd a8 28 d1 bc 00 ff 9f 3b
       -0.0343579 -0.03730404 -0.025532082 0.0048826933
000110 23 db 93 3c 75 59 a2 3c db 06 ee bc 89 f3 30 bd
       0.018048828 0.019818047 -0.029056003 -0.043201003
000120 5f 7b 07 3d 8b 27 4c bc a1 d5 20 bc 9e ba 8d 3b
       0.03307664 -0.0124606 -0.009816558 0.004325225
000130 ef e2 99 bc 10 4e 66 3c 64 c9 06 bd 4e 69 20 bc
       -0.018784968 0.0140566975 -0.032906905 -0.009790732
000140 84 48 f1 3a 98 36 0d bd 6a d1 2b bd b6 61 14 bd
       0.0018408452 -0.034475893 -0.04194776 -0.036225997
000150 bd d1 a9 3c c9 98 8e bc 55 55 31 bd c7 c5 ea 3c
       0.020729894 -0.017406838 -0.04329427 0.02865876
000160 a5 d7 d8 bb be df fd 38 8f 72 e7 bc 9a 1d d9 3c
       -0.0066175037 0.00012105655 -0.028252868 0.026503373
000170 dc 94 7e bc 31 4e ec bc 3e 5f ac 3c a5 a9 c6 bc
       -0.0155384205 -0.028845878 0.021041509 -0.024250815
000180 34 21 91 3c ae 1e ac bb bd 49 ca bc cd c6 fa bc
       0.017716028 -0.0052526807 -0.024693364 -0.030612374
