saved_models/CNN_model_single_epoch.pth (torch_old, 919761 bytes, 12 tensors)

convs.0.weight f4 [100, 1, 3, 91]
0	0x3d0a9ccd	0.033840943
1	0xbd5a7948	-0.05333832
2	0x3d7eac41	0.062175993
3	0xbd1165ab	-0.03549735
4	0x3d24f576	0.040273152
5	0xbd4219d7	-0.047387924
6	0xbc54015e	-0.012939779
7	0xbbb714c5	-0.0055871927
8	0xbccc6b84	-0.024953611
9	0x3bdc8372	0.0067295367
10	0xbcdc6ca3	-0.02690727
11	0x3c292412	0.010323541
12	0xbd227184	-0.03965904
13	0x3d49244c	0.04910688
14	0x3a8fae83	0.0010962043
15	0x3d428d66	0.04749813
16	0xbd68e820	-0.056861997
17	0xbd49c377	-0.049258675
18	0xbd22ea7e	-0.03977441
19	0xbcfb36c0	-0.030665755
20	0x3ce54452	0.02798668
21	0xbd724660	-0.059149146
22	0x3d31f5a3	0.043447148
23	0xbd6ba053	-0.057525944
24	0x3d3b2338	0.045687884
25	0x3c1cf15d	0.00957903
26	0x3d7dd7ef	0.06197351
27	0xbd8b8f51	-0.06814445
28	0x3d6fd900	0.058556557
29	0xbc266133	-0.01015501
30	0x3ccb3ff7	0.024810774
31	0xbbdc0e08	-0.00671554
32	0x3bcb02db	0.0061954088
33	0xbd3a9f36	-0.04556199
34	0x3d10861f	0.035284158
35	0x3cdfd760	0.027324378
36	0xbc15bd9c	-0.009139445
37	0xbb03e62d	-0.002012621
38	0xbc1dfdac	-0.009643
39	0x3d822fd7	0.06356781
40	0xbd5a9002	-0.053359993
41	0x3d190ede	0.037367694
42	0x3c70a61d	0.014688042
43	0x3cf5c55c	0.030001335
44	0x3c9e2061	0.019302549
45	0xbd44e618	-0.048070997
46	0xbcdde297	-0.027085586
47	0xbd4286d7	-0.047491875
48	0xbd6703ab	-0.056399982
49	0xbc908bad	-0.017644728
50	0x3ce1e7af	0.027576296
51	0x3c9aa194	0.018875875
52	0xbd45cc3c	-0.048290476
53	0xbc900898	-0.017582223
54	0x3cacef76	0.021110278
55	0xbcd85c9c	-0.026411347
56	0x3c9405a2	0.018069092
57	0x3d4bd175	0.0497603
58	0x3d3a9357	0.04555067
59	0xbc958110	-0.018250018
60	0x3d5d4253	0.05401833
61	0xba67b0c0	-0.00088382885
62	0xbd5fa99e	-0.05460512
63	0xbd028f2a	-0.031874813
64	0xbca9612e	-0.020676222
65	0xbd1e50dc	-0.038651332
66	0xbd6e5cba	-0.0581939
67	0xbd032b0c	-0.032023475
68	0x3d6c9c45	0.057766218
69	0xbd26a25c	-0.04068218
70	0xbd64423c	-0.05572723
71	0xbd3326b4	-0.043738082
72	0xbc435aac	-0.011923473
73	0x3d2fc7bd	0.042915095
74	0x3d3a7823	0.045524728
75	0xbd1419aa	-0.036157288
76	0xbd6904de	-0.056889407
77	0x3d2d0d71	0.042249147
78	0xbcf4acd4	-0.029867567
79	0x3b6766d0	0.0035309084
80	0xbc120964	-0.008913372
81	0x3d3a629d	0.0455042
82	0x3d77dadf	0.060511466
83	0xbd55e31c	-0.05221854
84	0x3d0a0b2d	0.033702064
85	0x3d6e1eed	0.058134962
86	0xbd5ca046	-0.053863786
87	0x3cd1388a	0.025539655
88	0xbb5f8160	-0.0034104213
89	0xba323bc0	-0.00067990646
90	0xb92a4a00	-0.0001624003
91	0xbd4e1c49	-0.050319944
92	0x3cb83e56	0.022490662
93	0x3cda6658	0.02666013
94	0xbd80d614	-0.06290832
95	0x3d5f1a8c	0.054468676
96	0xbd577403	-0.05260087
97	0x3c82fed1	0.015990647
98	0xbd45dd65	-0.04830684
99	0x3bd5dd1b	0.006526602
100	0xbc4638de	-0.012098519
101	0x3b25d116	0.0025301627
102	0xbcf78897	-0.030216498
103	0x3c626426	0.013817823
104	0xbb816558	-0.0039488487
105	0xbd6c1867	-0.05764046
106	0xbc9b6386	-0.018968355
107	0xbca42304	-0.020036228
108	0x3d878a3b	0.06618162
109	0xb8a196dc	-7.705178e-05
110	0x3d68e9f7	0.05686375
111	0xbc23c418	-0.009995483
112	0x3af652e4	0.0018793014
113	0xbc99a71c	-0.018756442
114	0x3ae0f548	0.0017162943
115	0xbd2918de	-0.04128348
116	0xbd296526	-0.04135623
117	0x3cedb9cc	0.029019259
118	0x3c4118f1	0.011785732
119	0x3d31d51d	0.04341613
120	0xbd650da9	-0.05592123
121	0xbd479981	-0.048730377
122	0x3bb72f7d	0.005590378
123	0xbcdb3f38	-0.026763543
124	0xbcd27179	-0.025688874
125	0xbd467e06	-0.04846003
126	0x3d660bd1	0.056163613
127	0x3ce6e915	0.028187314
128	0x3c9e525a	0.019326378
129	0x3c4cc5aa	0.012498299
130	0x3d4f6d03	0.05064107
131	0x3ca8b9b3	0.02059636
132	0xbcf9fc89	-0.030515926
133	0xbbd19189	-0.006395523
134	0x3d88c642	0.0667844
135	0x3c198d86	0.009372121
136	0xbcc6c863	-0.024265474
137	0x3d7276d3	0.05919535
138	0x3c9df085	0.019279728
139	0x3be07b5f	0.0068506445
140	0x3cd1c462	0.025606338
141	0x3d2581bc	0.040406927
142	0xbd312891	-0.043251578
143	0x3c529806	0.012853628
144	0xbd539f2f	-0.05166548
145	0x3af15e1d	0.0018414889
146	0xbd741544	-0.059590593
147	0x3bdbc338	0.0067066215
148	0xbc1fba1c	-0.009748962
149	0xbd2ffad2	-0.04296381
150	0x3a8fd100	0.0010972321
151	0x3c1e8f6c	0.009677749
152	0x3d1016f7	0.03517815
153	0xbcfd5292	-0.030923162
154	0xbd0470f2	-0.032334276
155	0x3cb67ab2	0.022275303
156	0xbd4d47a6	-0.050117157
157	0x3d5230c9	0.051316056
158	0x3c68019c	0.01416054
159	0x3cd38662	0.025820915
160	0x3cf14b5a	0.029454876
161	0xbd26c5b2	-0.04071588
162	0x3c3a804c	0.011383127
163	0x3d05d485	0.032673378
164	0x3cc9de4a	0.024642128
165	0xbd032e16	-0.032026373
166	0xbc057494	-0.00814547
167	0xbd3ec0f0	-0.04657072
168	0x3ccd9266	0.025094222
169	0x3c609e1c	0.013709571
170	0xbd2207de	-0.039558284
171	0xbd41336a	-0.047168173
172	0xbc36e9b4	-0.011164118
173	0x3cca9752	0.024730358
174	0xbc3e7c54	-0.011626322
175	0xbd4e8d1a	-0.050427534
176	0xbc184150	-0.009292915
177	0x3d5471df	0.05186641
178	0xbcd69fea	-0.0261993
179	0x3d05b653	0.03264458
180	0x3cf3044e	0.029665139
181	0x3d5bac45	0.053631086
182	0xbd774ab7	-0.060373988
183	0x3c801674	0.015635706
184	0x3c834e5e	0.01602858
185	0x3cbc0381	0.02295089
186	0xbd815a7f	-0.06316089
187	0xbd6e0256	-0.058107696
188	0xbd0485ac	-0.032354042
189	0x3d20db11	0.039271418
190	0xbd391e0e	-0.045194678
191	0xbd5c0414	-0.053714827
192	0xb9ec4afa	-0.0004506929
193	0x3cb090ee	0.021553483
194	0x3c19c3dd	0.009385076
195	0x3ce592ec	0.02802416
196	0x3d2a9019	0.04164133
197	0x3d5f8115	0.05456646
198	0xbd7b8395	-0.061404783
199	0xbcde6225	-0.027146408
200	0x3d54b5ea	0.0519313
201	0xba04c85b	-0.00050652557
202	0xbc896d15	-0.016775647
203	0xbd01d21b	-0.031694513
204	0x3d4acb03	0.049510013
205	0xbc8226e5	-0.015887687
206	0xbd099200	-0.033586502
207	0x3cb8c793	0.022556102
208	0x3c5481c6	0.0129703935
209	0xbcc07317	-0.02349238
210	0xbccc8002	-0.024963383
211	0xbb824f1c	-0.0039767157
212	0x3caa6aba	0.020802844
213	0xbb3acaa5	-0.0028502133
214	0x3d0860fa	0.03329561
215	0x3d428c59	0.047497127
216	0x3c99e762	0.01878709
217	0xbd408658	-0.04700312
218	0x3d0bd2c1	0.034136537
219	0xbce24d04	-0.027624615
220	0x3c3d643d	0.011559543
221	0xbd2767ef	-0.040870603
222	0xbc5d8a62	-0.013521763
223	0xbd6e5e43	-0.058195364
224	0xbd336a66	-0.04380264
225	0x3d2f7903	0.042840015
226	0x3c2681b7	0.010162762
227	0x3d41c512	0.04730708
228	0x3d14f65a	0.03636775
229	0xbc2a5787	-0.010396845
230	0xbbcde777	-0.0062836963
231	0xbd3d9c9d	-0.046291936
232	0xbd03be03	-0.03216363
233	0xbd01d89c	-0.031700715
234	0x3d0e59c9	0.034753595
235	0x3d12a338	0.03580019
236	0xbc3e7fba	-0.011627132
237	0xbd471efc	-0.048613533
238	0xbd2c074a	-0.04199914
239	0x3d0160c1	0.031586412
240	0x3c062bd4	0.00818916
241	0x3d0e266b	0.034704607
242	0x3d6c8871	0.05774731
243	0x3d0703cf	0.032962617
244	0x3ce94a6e	0.028477874
245	0xbd71556c	-0.058919355
246	0xbd6cb24d	-0.05778723
247	0xbc01267c	-0.007882711
248	0xbc813e38	-0.015776739
249	0x3cd4225a	0.025895286
250	0x3d053717	0.03252324
251	0x3d34cec3	0.044142496
252	0xbb5d4240	-0.0033761412
253	0x3d0d872b	0.034552734
254	0xbc884c00	-0.016637802
255	0xbc3a728c	-0.011379849

convs.0.bias f4 [100]
0	0x3cf01548	0.029307023
1	0x3cbd63d8	0.023118898
2	0x3ccc8bb1	0.024968954
3	0xbc316e0c	-0.01082946
4	0x3cba096c	0.02270957
5	0xbd2f40d6	-0.04278644
6	0xbd580399	-0.052737806
7	0xbb938b13	-0.004502663
8	0xbd6c7607	-0.057729747
9	0xbd8b8ada	-0.06813593
10	0x3d24533c	0.04011844
11	0xbcef2955	-0.029194513
12	0x3cee5794	0.029094495
13	0x3c84bad1	0.016202362
14	0xbc8cf53f	-0.017206786
15	0xbc8501b9	-0.016236173
16	0xbd4cd32c	-0.050006077
17	0xbd0ff6f3	-0.03514762
18	0x3cbef887	0.023311866
19	0xbc5fc591	-0.013657943
20	0x3c5c3c8d	0.013442171
21	0xbbea7cbf	-0.007155984
22	0xbd461ff6	-0.048370324
23	0xbd3a9215	-0.04554947
24	0x3d3a598a	0.045495547
25	0xbd7b57b6	-0.061362945
26	0xbced2ce8	-0.028952077
27	0x3d5fcff9	0.054641698
28	0x3d4c4437	0.049869742
29	0xbd520543	-0.05127455
30	0xbd72f779	-0.05931804
31	0xbd12a63d	-0.03580307
32	0x3d4999fd	0.04921912
33	0xbd25ec5a	-0.040508606
34	0x3d2e5930	0.042565525
35	0x3c318826	0.010835683
36	0xbba783ca	-0.005112146
37	0x3d041a36	0.03225156
38	0xbd597b4a	-0.053096093
39	0x3d3785f6	0.04480549
40	0xbce30880	-0.027714014
41	0x3cc4a78c	0.024005674
42	0x3d11905b	0.03553806
43	0xbd68b96f	-0.05681747
44	0x3d3f897a	0.046761967
45	0xbc64b700	-0.013959646
46	0xbc80627c	-0.015671961
47	0xbbd76211	-0.0065729697
48	0x3d200424	0.03906645
49	0xbd319157	-0.043351498
50	0xbcfb1a3b	-0.030652156
51	0xbd510453	-0.051029515
52	0x3d6b706f	0.057480272
53	0xbc9ab358	-0.018884346
54	0x3c5332a0	0.012890488
55	0x3cb89762	0.022533122
56	0xbd49467c	-0.049139485
57	0xbd161c74	-0.03664823
58	0x3cdcfd17	0.026976151
59	0x3aa84988	0.0012839297
60	0x3cd6cc4c	0.026220463
61	0xbcc1e622	-0.023669306
62	0x3d245ebc	0.04012941
63	0xbd57b2a1	-0.05266059
64	0xbd656a3d	-0.05600952
65	0x3d1f3265	0.03886642
66	0xbd30abc2	-0.04313255
67	0x3b0fd88f	0.0021949147
68	0x3c9a35a0	0.018824399
69	0x3d236a34	0.039896205
70	0xbd53b98b	-0.05169062
71	0x3c93f640	0.018061757
72	0x3cf80940	0.030277848
73	0xbd33f062	-0.04393042
74	0x3c0c878d	0.00857724
75	0xbd553221	-0.05204976
76	0x3d7166ca	0.058935918
77	0xbd20c64f	-0.03925162
78	0x3d5feae2	0.05466736
79	0xbd06ca66	-0.032907866
80	0x3a3edbe5	0.00072806916
81	0x3c976ee8	0.018485501
82	0x3d0ea93a	0.034829356
83	0x3ce26c1b	0.02763944
84	0x3c956dbf	0.018240808
85	0xbd046a92	-0.032328196
86	0xbd3fbc17	-0.046810236
87	0xbc81917c	-0.015816443
88	0x3ca92f77	0.020652516
89	0xbd74ef00	-0.05979824
90	0x3a6e4f95	0.0009090838
91	0xbd21ebc2	-0.039531477
92	0xbd21ae30	-0.03947276
93	0x3ab7bd19	0.0014018147
94	0x3ba8865f	0.0051429714
95	0x3d63b1f6	0.05558964
96	0xbd336fa4	-0.04380764
97	0x3c1d66da	0.009607041
98	0xbd7d41c1	-0.061830286
99	0x3b358286	0.0027696206

convs.1.weight f4 [100, 1, 4, 91]
0	0xbca9ff3c	-0.020751588
1	0xbd31bce6	-0.04339304
2	0x3b341eb2	0.0027484116
3	0xbcaceaba	-0.02110802
4	0xbd83c815	-0.06434647
5	0xbc7781a0	-0.015106589
6	0xbcb73e70	-0.02236864
7	0xbcc48912	-0.023991141
8	0xbc9de34b	-0.01927342
9	0xbd48cb14	-0.049021795
10	0x3d6432d2	0.05571253
11	0x3c9568fe	0.01823854
12	0x3c467180	0.012112021
13	0x3c459f87	0.01206196
14	0x3d17c780	0.037055492
15	0x3d3c9b14	0.04604633
16	0x3bb9a5cd	0.005665517
17	0x3d8045b9	0.062632985
18	0xbc3713cc	-0.011174154
19	0xbd159c83	-0.036526214
20	0x3d6d468a	0.0579286
21	0xbd43dc21	-0.047817353
22	0x3d150afd	0.036387432
23	0x3c9c8592	0.01910666
24	0xbd47104f	-0.048599537
25	0x3b695639	0.0035604371
26	0xbd4301ed	-0.04760926
27	0xbcc4abd9	-0.024007725
28	0xbd4082e0	-0.046999812
29	0x3d52e0ac	0.051483795
30	0xbd4924a1	-0.049107198
31	0xbd30108e	-0.042984538
32	0x3d227e9b	0.03967152
33	0xbcb4635b	-0.022020033
34	0xbcd2c5fc	-0.025729172
35	0xbcd572b3	-0.02605567
36	0xbc91cf5d	-0.017799074
37	0x3c99854c	0.018740319
38	0xbd5aba21	-0.053400163
39	0x3cc62785	0.024188766
40	0x3c7f00e6	0.015564179
41	0xbcb04918	-0.021519229
42	0xbccec888	-0.025242105
43	0xbcdd2939	-0.026997196
44	0xbcf852b4	-0.030312873
45	0xbd46804e	-0.048462205
46	0x3c31d211	0.010853306
47	0x3c440257	0.0119634485
48	0x3cfd0a58	0.030888721
49	0xbcceb5ac	-0.025233112
50	0x3b632813	0.0034661337
51	0xbc152c12	-0.009104745
52	0x3d1d9633	0.03847332
53	0x3d535b75	0.051600892
54	0xbd36c4d8	-0.04462132
55	0xbbcae450	-0.0061917678
56	0x3cc1e2f2	0.023667786
57	0xbc9da136	-0.01924191
58	0xbd06beb1	-0.0328967
59	0x3ce99bfa	0.028516758
60	0xbd4941f6	-0.04913517
61	0xbd3f4133	-0.04669304
62	0xbd54c4dc	-0.051945552
63	0xbbbd4ec8	-0.0057772137
64	0xbbb57fe0	-0.0055389255
65	0xbcaa9ca4	-0.020826645
66	0x3d29db9b	0.041469198
67	0x3d53c23f	0.05169892
68	0x3d42ae31	0.047529403
69	0x3cb2363a	0.021754373
70	0xbc43ab6c	-0.011942726
71	0x3d204615	0.039129335
72	0xbba2a5b8	-0.004963603
73	0xbcf3293d	-0.02968275
74	0x3cd2f3f6	0.025751095
75	0x3d54ff31	0.052001182
76	0xbd1de408	-0.038547546
77	0xbd18ac0c	-0.03727345
78	0xbc9ea49a	-0.019365598
79	0xbcc1c3b3	-0.023652887
80	0xbccf6ed6	-0.025321405
81	0x3d4119af	0.047143634
82	0x3bd3de88	0.006465737
83	0xbc113858	-0.008863531
84	0xbd1ae656	-0.03781732
85	0xbd370243	-0.04467989
86	0xbc2af614	-0.010434646
87	0xbcba2b57	-0.022725744
88	0xbd3f1399	-0.04664955
89	0x3d0f5ab5	0.034998614
90	0xbd37ff15	-0.044921
91	0x3c802c97	0.015646262
92	0xbd0b1085	-0.0339513
93	0x3cbae099	0.022812175
94	0x3c668d73	0.01407181
95	0x3d453127	0.04814258
96	0xbd43f406	-0.04784014
97	0x3c9c0ddb	0.019049576
98	0xbc981bdb	-0.01856797
99	0xbd22e99c	-0.03977357
100	0x3d361584	0.044454113
101	0x3d4d05b0	0.050054252
102	0x3c4b3640	0.012403071
103	0xbd4ccea1	-0.050001744
104	0x3d2fa37f	0.04288053
105	0x3d0ba48d	0.034092475
106	0xbb2a7c77	-0.0026014128
107	0xbc6d1889	-0.014471182
108	0x3bb0f7c3	0.0054006292
109	0xbd6cba02	-0.05779458
110	0x3d249560	0.040181518
111	0x3b80d1c6	0.003931257
112	0xbd008083	-0.03137256
113	0x3c750cea	0.014956692
114	0xbcee95e5	-0.02912421
115	0xbcce05d9	-0.025149273
116	0xbc9678f0	-0.018368214
117	0xbd5d4a2b	-0.05402581
118	0xbc342df5	-0.010997285
119	0x3c0c9ec6	0.008582776
120	0xbc110c2d	-0.008853001
121	0x3ccfe374	0.025377013
122	0x3cdf855b	0.027285269
123	0xbcda4840	-0.02664578
124	0x3cf0661c	0.029345565
125	0x3cd104ee	0.025515046
126	0xbd797662	-0.060903914
127	0xbd43c84b	-0.047798436
128	0x3cd61c2d	0.026136482
129	0xbc8ffef6	-0.01757763
130	0x3c819a37	0.015820606
131	0x3bcb0031	0.006195091
132	0x3c8acc11	0.01694301
133	0x3d1408cb	0.036141198
134	0xbd4b26aa	-0.04959742
135	0xbc962dca	-0.01833238
136	0xbcadcd08	-0.02121593
137	0xbd297199	-0.0413681
138	0xbd7b358c	-0.061330363
139	0xbc9a47b2	-0.018833015
140	0xbd2acdab	-0.041700047
141	0x3d15d55d	0.036580432
142	0x3c99a04a	0.01875319
143	0xbd0f350a	-0.03496269
144	0xbc94c96a	-0.018162448
145	0xba8e3fa2	-0.0010852704
146	0x3b922948	0.0044604875
147	0x3c7009c4	0.014650766
148	0xbd42d311	-0.04756457
149	0x3c88d7e2	0.016704503
150	0x3c5bfcb4	0.013426948
151	0x3d2d1e15	0.042265017
152	0xbca23c34	-0.019804098
153	0xbd169544	-0.036763445
154	0x3bad0268	0.005279828
155	0xbd162be6	-0.03666296
156	0xbd1f6916	-0.038918577
157	0xbc805118	-0.015663669
158	0x3c51767c	0.0127845965
159	0x3c2a810c	0.010406744
160	0xbcbc239e	-0.022966202
161	0x3d3ce92d	0.04612081
162	0xbd0152e8	-0.031573206
163	0xbd31dbf8	-0.04342267
164	0xbc002e68	-0.007823564
165	0x3c93983e	0.01801693
166	0x3ce03fba	0.027374137
167	0x3d3657cb	0.04451732
168	0xbd317681	-0.043325905
169	0xbd14be02	-0.036314018
170	0x3c31e524	0.010857854
171	0xbca5e30a	-0.020249862
172	0xba4fcb80	-0.0007926747
173	0x3a78f9c0	0.0009497665
174	0xbd4a8267	-0.049440768
175	0x3d407ea1	0.046995763
176	0xbd003e06	-0.03130915
177	0x3d2ff6fd	0.042960156
178	0xbc96456e	-0.018343654
179	0x3c82f542	0.015986089
180	0xbcb075a6	-0.021540474
181	0xbd0c009a	-0.03418026
182	0xbd4c1958	-0.049828857
183	0xbbbd2deb	-0.005773296
184	0xbc1f8fcf	-0.0097388765
185	0xbcdfe1ea	-0.027329404
186	0xbd646f61	-0.05577028
187	0xbc9c05ae	-0.019045677
188	0xb89ba35e	-7.4214055e-05
189	0xbcff95e4	-0.031199403
190	0x3d138ed3	0.03602488
191	0x3c87b896	0.01656751
192	0x3cf72839	0.030170547
193	0xbc0abae0	-0.008467406
194	0x3d1b622d	0.037935425
195	0x3cc01a2e	0.023449983
196	0x3cb56449	0.022142546
197	0x3c2b7737	0.010465435
198	0x3ce88906	0.02838565
199	0x3c85fd4d	0.016356135
200	0xbd3c49a4	-0.045968667
201	0xbcfa9384	-0.030587919
202	0x3be89854	0.007098237
203	0x3c558872	0.013033019
204	0x3cd48014	0.025939979
205	0x3d295a12	0.041345663
206	0x3d825db8	0.06365532
207	0x3cb5b312	0.022180114
208	0x3bbd654e	0.0057798987
209	0xbd26aee0	-0.040694118
210	0xbd0a2dfe	-0.033735268
211	0x3d6abc8f	0.05730873
212	0x3c1303d1	0.008973078
213	0x3cb97a61	0.022641363
214	0xbd1aa1a6	-0.037751816
215	0x3d1fc613	0.039007258
216	0xbd1eada2	-0.038739808
217	0xbc39bc8c	-0.011336457
218	0x3d56b627	0.052419808
219	0x3c5f8ef1	0.01364492
220	0xbcd16084	-0.025558718
221	0xbba5fb3c	-0.00506535
222	0x3d19cab4	0.03754683
223	0x3be2ff8b	0.0069274358
224	0x3b92743c	0.0044694226
225	0xbbf789cf	-0.00755427
226	0x3c468ee6	0.012119031
227	0xbd1030b1	-0.035202686
228	0xbcf13807	-0.029445661
229	0xbd214776	-0.03937479
230	0x3bea8319	0.0071567413
231	0x3d3b87fd	0.045783985
232	0xbcc45f71	-0.023971291
233	0x3d156e2d	0.036482025
234	0x3d470dd9	0.04859719
235	0xbd07ff7c	-0.033202633
236	0xbd495423	-0.049152505
237	0xbcb9e2e7	-0.022691203
238	0xbcbd1d04	-0.023085125
239	0x3d10c953	0.035348248
240	0xbd1fa1d3	-0.038972687
241	0x3c4c5dc4	0.012473527
242	0xbd07a0a8	-0.033112198
243	0x3d0262eb	0.031832617
244	0xbd4bc979	-0.049752686
245	0x3d02ea1b	0.03196154
246	0xbd264799	-0.040595625
247	0x3cc56112	0.024094138
248	0xbd19503b	-0.03743003
249	0xbd078412	-0.033084936
250	0xbd09d80e	-0.03365331
251	0x3b845790	0.0040387586
252	0xbd004d7a	-0.031323887
253	0xbc915022	-0.017738406
254	0x3bcab898	0.006186556
255	0xbd261f64	-0.04055728

convs.1.bias f4 [100]
0	0x3cd803b4	0.026368953
1	0x3d42d99a	0.047570802
2	0xbd4d184c	-0.050072
3	0xbd4072ca	-0.04698447
4	0x3d19306f	0.037399705
5	0xbd1d6be8	-0.038432986
6	0xbc77e31c	-0.015129831
7	0x3d3af4b7	0.045643535
8	0x3d253e59	0.040342662
9	0xbd1e8cf0	-0.038708627
10	0x3c82dfe8	0.015975907
11	0x3d1612bf	0.03663897
12	0xbd1216d7	-0.035666313
13	0xb8e39d8a	-0.000108535474
14	0xbb3ed862	-0.0029120673
15	0x3cb289ca	0.021794219
16	0xbcf27fa4	-0.02960188
17	0xbd080182	-0.033204563
18	0x3ceb1e1d	0.028700883
19	0xbca85458	-0.02054803
20	0xbcafc1fc	-0.021454804
21	0x3ccc5a00	0.02494526
22	0xbd18ab24	-0.037272587
23	0x3d1e1eb6	0.038603507
24	0x3ce468f8	0.027882084
25	0xbb3fa3a1	-0.0029241818
26	0xbce86d3a	-0.028372396
27	0xbb0f4dca	-0.0021866434
28	0x3d288161	0.04113901
29	0x3bd86ab4	0.006604517
30	0x3cbb26c9	0.022845643
31	0x3cdb03b3	0.026735162
32	0x3cedd636	0.029032808
33	0xbce29926	-0.027660917
34	0xbba652a2	-0.0050757686
35	0xbc232e2b	-0.009959738
36	0x3d2419d0	0.04006368
37	0xbd3289be	-0.043588392
38	0x3cd34f68	0.0257947
39	0x3c44e2a0	0.012016922
40	0xbd32f09b	-0.04368649
41	0xbd3fec9e	-0.046856515
42	0x3ca638b2	0.020290706
43	0xbc8d5619	-0.017252969
44	0x3c0d49f0	0.008623585
45	0x3d2c2af0	0.042033136
46	0x3c2ea009	0.010658273
47	0x3c65287e	0.013986705
48	0xbd639c6e	-0.055569105
49	0xb994e0b4	-0.00028396177
50	0xbcbd531e	-0.023110922
51	0xbc9c3e24	-0.0190726
52	0xbd350def	-0.04420274
53	0x3d4bad8c	0.049726054
54	0xbcbeea3d	-0.023305053
55	0x3c18ec84	0.0093337335
56	0xbd8180f0	-0.06323421
57	0x3cf5b3f2	0.029993031
58	0x3ca36234	0.019944288
59	0xbd650c32	-0.055919833
60	0xbd3e934a	-0.046527185
61	0x3cd162dc	0.025559835
62	0x3d23ca35	0.03998776
63	0xbc21284b	-0.009836267
64	0xbd07e7c4	-0.033180013
65	0xbc5bc99d	-0.013414768
66	0xbd44531f	-0.047930833
67	0x3b9a5260	0.004709527
68	0x3c4b2155	0.012398084
69	0x3d3d895c	0.046273574
70	0xbd1332b2	-0.03593702
71	0xbc39d6ea	-0.011342743
72	0x3ca56480	0.020189524
73	0x3b33ee1b	0.0027455154
74	0xbc91a826	-0.017780375
75	0x3d122577	0.03568026
76	0xbc73cd85	-0.014880543
77	0x3d3573db	0.04429994
78	0x3cd6dacc	0.026227377
79	0xbcb9d7fc	-0.022685997
80	0x3d30f11e	0.043198697
81	0x3d004698	0.031317323
82	0xbc7513d6	-0.014958343
83	0x3cd3c502	0.025850777
84	0x3d405053	0.046951603
85	0xbd630b0c	-0.055430457
86	0x3c951cb1	0.018202158
87	0x3ce6dc20	0.028181136
88	0xbd495450	-0.049152672
89	0x3b21b48f	0.0024674272
90	0x3d1fbcb8	0.038998336
91	0x3d385b21	0.045008782
92	0x3c841542	0.016123418
93	0xbc9617c9	-0.018321889
94	0x3d3f5f77	0.0467219
95	0xbd1dd037	-0.038528647
96	0xbc4d109e	-0.012516169
97	0x3bcfa724	0.0063370634
98	0x3d21257e	0.039342396
99	0x3c93c164	0.018036552

convs.2.weight f4 [100, 1, 5, 91]
0	0x3c8b77c8	0.01702489
1	0xbd0623eb	-0.032749098
2	0x3d101914	0.035180166
3	0xbc1fc19e	-0.009750752
4	0xbcf20c7d	-0.02954697
5	0xbcb463ed	-0.022020305
6	0x3cfcd56b	0.030863484
7	0xba6c05c4	-0.00090035447
8	0xbcf885ec	-0.030337296
9	0xbc9413ae	-0.01807579
10	0x3d13a5c1	0.036046747
11	0x3cefb6c3	0.029261952
12	0xbc1e2171	-0.009651528
13	0xbca436d6	-0.020045679
14	0x3ba1b11b	0.0049344427
15	0x3c815454	0.015787281
16	0x3c776624	0.015100036
17	0x3d406f5a	0.046981193
18	0x3d4e45da	0.050359584
19	0x3a8fd791	0.0010974278
20	0xbd0b7524	-0.03404726
21	0xbc9119f3	-0.017712569
22	0xbc33106a	-0.010929206
23	0xbbf3772c	-0.007429978
24	0xbd2b0eab	-0.041762035
25	0x3d0d8a12	0.034555502
26	0xbd10a443	-0.035312902
27	0x3c5c433b	0.013443763
28	0x3bf0a806	0.0073442487
29	0x3d3b9d44	0.045804277
30	0xbc809871	-0.01569769
31	0xbbd05439	-0.0063576964
32	0x3c80dddd	0.015730793
33	0xbbcf2300	-0.006321311
34	0xbd252d69	-0.04032651
35	0xbcd3f54e	-0.025873806
36	0x3d3364a2	0.043797143
37	0xbc4df9db	-0.012571777
38	0x3b5e4665	0.003391647
39	0x3d0594a2	0.03261245
40	0xbaff4c29	-0.0019477654
41	0x3b0d9408	0.0021603126
42	0x3c2334d7	0.0099613285
43	0x3933aab8	0.00017134368
44	0xbce17cd6	-0.027525347
45	0xbd2c122d	-0.04200952
46	0x3b8c14da	0.0042749466
47	0xbd281bac	-0.041042015
48	0xbd246957	-0.040139522
49	0x3cc08486	0.023500692
50	0xbcd03259	-0.025414633
51	0xbca2aadf	-0.019856868
52	0x3c1fcbf5	0.009753217
53	0x3bf37393	0.007429549
54	0xbc697ab1	-0.014250443
55	0x3cbb55e4	0.022868104
56	0xbbb037e0	-0.0053777546
57	0xbd283f8a	-0.04107622
58	0xbd10e66c	-0.035375997
59	0x3c4200c8	0.011841007
60	0xbd136a08	-0.03598979
61	0x3b09c9e0	0.0021024868
62	0x3cbe6a30	0.023243994
63	0xbcc77579	-0.024348008
64	0x3d0e582c	0.034752056
65	0xbcb016e6	-0.021495294
66	0x3c18226c	0.009285551
67	0xbd250374	-0.040286496
68	0xbd0d83fc	-0.0345497
69	0x3cc958d4	0.02457849
70	0x3abe7640	0.0014531091
71	0x3c85d894	0.016338624
72	0xbc82f2b1	-0.015984865
73	0x3c167fa0	0.009185702
74	0x3ce288e4	0.027653165
75	0xbcd88842	-0.02643216
76	0x3d222ef2	0.03959555
77	0x3c82fa5c	0.015988521
78	0xbca22062	-0.019790832
79	0x3bbd74c8	0.0057817437
80	0xbb5dfd70	-0.0033872984
81	0x3c9d946c	0.019235812
82	0xbce1410c	-0.027496837
83	0xbcabc846	-0.020969521
84	0x3d0362f2	0.032076783
85	0xbb894490	-0.0041890815
86	0xbadecd60	-0.0016998462
87	0x3cb864e0	0.022509038
88	0xbcfefdc3	-0.031126862
89	0x3be34890	0.0069361404
90	0x3d157404	0.036487594
91	0x3caebcaa	0.021330196
92	0x3bd83d99	0.00659914
93	0x3c961e31	0.018324943
94	0x3cfd78eb	0.030941447
95	0xbcd9feee	-0.026610818
96	0x3c66a909	0.014078387
97	0xbc5ca741	-0.013467611
98	0x3d381e32	0.04495067
99	0xbcbd7d82	-0.023131136
100	0x3cadeb0a	0.02123024
101	0xbd0c8072	-0.034302182
102	0x3b3d8b67	0.0028922202
103	0xbb9e61f6	-0.004833455
104	0xbd1eb696	-0.038748346
105	0x3d2283ba	0.039676405
106	0x3cf02550	0.029314667
107	0x3cefd78d	0.029277587
108	0xbd02493e	-0.03180813
109	0x3c4b438a	0.012406239
110	0xbcf711ab	-0.030159792
111	0xbcb35e21	-0.02189547
112	0x3b9ca20f	0.004780061
113	0x3c97825f	0.018494783
114	0xbd0fd9f0	-0.03511995
115	0x3c4de6a0	0.012567192
116	0x3cf41259	0.029793905
117	0xbd2b42e0	-0.041811824
118	0xbcd70b0a	-0.026250381
119	0xbb9f3ce5	-0.004859554
120	0x3d435834	0.04769154
121	0x3bbffa25	0.005858677
122	0xbd84122c	-0.064487785
123	0xbd092ab1	-0.03348798
124	0x3c845f5d	0.016158754
125	0xbc861891	-0.016369136
126	0xb91164a0	-0.00013865763
127	0xbd1c6c5b	-0.038189273
128	0x3d2b447a	0.04181335
129	0x3d3b5d6d	0.045743395
130	0x3b0c33a4	0.0021393085
131	0x3cb26867	0.021778299
132	0x3ce434e8	0.027857259
133	0x3c51af90	0.012798205
134	0xbb6d92fc	-0.003625094
135	0xbd0bc061	-0.034119014
136	0x3cb9d3ce	0.022684004
137	0xbd1e46a5	-0.03864159
138	0x3d3910ef	0.045182165
139	0xbc818e96	-0.01581506
140	0xbd08bd78	-0.033383816
141	0x3d0d0c5f	0.034435626
142	0xbc818eb6	-0.01581512
143	0xbd0a88f1	-0.033822004
144	0xbc920dc6	-0.017828833
145	0xbb2ed3d1	-0.0026676545
146	0xbcd1b1af	-0.025597421
147	0xbd1572f1	-0.03648657
148	0x3cd1dbe0	0.02561754
149	0xbbe023c0	-0.006840199
150	0xbca0bdfa	-0.019621838
151	0x3cb45bfc	0.022016518
152	0xbc7b0a88	-0.015322335
153	0x3cd69440	0.026193738
154	0x3d280ac0	0.041025877
155	0x3d0ad920	0.033898473
156	0x3ca09250	0.019601017
157	0xbd38aef9	-0.045088742
158	0xbd0f549a	-0.03499279
159	0xbb32da50	-0.002729077
160	0xbca7980e	-0.020458248
161	0xbc84e9bf	-0.01622474
162	0x3b52a850	0.003214378
163	0x3b0df390	0.0021660067
164	0xbc4c95a0	-0.012486845
165	0x3d219bfa	0.03945539
166	0xbd117dae	-0.035520248
167	0x3cc3e3b8	0.023912296
168	0x3ce54d18	0.027990863
169	0x3cfa6ff0	0.030570954
170	0x3cce51ac	0.025185429
171	0x3ac2b700	0.0014855564
172	0x3d3200c6	0.04345777
173	0xbd217030	-0.03941363
174	0x3cca3f64	0.02468843
175	0x3d1c5d3e	0.03817486
176	0x3ca58b74	0.020208098
177	0x3c2311f4	0.009953011
178	0xbcd60a24	-0.026127882
179	0xbcc86404	-0.024461754
180	0xbc6df0a4	-0.014522705
181	0x3cf9e8d8	0.030506536
182	0xba8d1d78	-0.0010766229
183	0x3d00a201	0.0314045
184	0x3d02e99b	0.031961065
185	0x3d3a3d06	0.045468353
186	0x3d26a67c	0.040686116
187	0xbcdc136d	-0.026864732
188	0xbd25a685	-0.04044201
189	0x3c969cf2	0.018385384
190	0x3d4ce0a3	0.050018918
191	0xbaab2f5e	-0.0013060381
192	0x3b37f3ba	0.0028068856
193	0xbcd6e5e7	-0.026232673
194	0x3d1fea35	0.039041717
195	0x3c50a18c	0.012733828
196	0x3c87506b	0.016517838
197	0x3c9f4283	0.019440895
198	0x3cc0df8a	0.023544092
199	0xba7672bb	-0.00094012514
200	0xbd184c06	-0.037181877
201	0xbb04f427	-0.0020287128
202	0x3b569311	0.0032741467
203	0xbc12ec1f	-0.0089674285
204	0xbc0e75b9	-0.008695059
205	0x3c7677ed	0.015043241
206	0x3ca84e1b	0.020545056
207	0xbc931ef1	-0.01795909
208	0xbcb4f133	-0.022087669
209	0x3d4509ae	0.048104934
210	0xbc1eb4dd	-0.009686676
211	0xbc945f03	-0.018111711
212	0x3cabcbc1	0.02097118
213	0xbbe3faf3	-0.0069574057
214	0x3d3cce18	0.046094984
215	0xba089cce	-0.0005211354
216	0xbd238a05	-0.039926548
217	0xbc9861a7	-0.018601252
218	0x3bbc1531	0.005739831
219	0xbbca1864	-0.0061674584
220	0x3d18516c	0.037187025
221	0x3bc5b986	0.006034079
222	0xbc5df259	-0.01354655
223	0xbd178276	-0.03698965
224	0xbcdf4365	-0.027253816
225	0xbc920ba0	-0.017827809
226	0x3c457690	0.012052193
227	0xbd102c1d	-0.03519832
228	0xbd26e192	-0.040742464
229	0x3d012b4f	0.031535443
230	0x3cdafd5a	0.026732136
231	0x3b38a96b	0.0028177153
232	0xbb808b24	-0.003922837
233	0xbcb59dba	-0.022169936
234	0x3cf34aa1	0.029698672
235	0xbd038762	-0.032111533
236	0xbc9b36e2	-0.018947069
237	0x3cfae594	0.03062705
238	0xbb96fc50	-0.0046077147
239	0xbc5fc880	-0.013658643
240	0x3bb0aa28	0.005391378
241	0x3d398860	0.045296073
242	0x3abf6780	0.0014602989
243	0xbcd8be1a	-0.026457835
244	0x3cb274dc	0.021784239
245	0xbbeb3a18	-0.007178556
246	0x3b986e28	0.0046518035
247	0xbd005a93	-0.03133638
248	0xbcbb1b59	-0.022840189
249	0xbd0e1444	-0.034687296
250	0x3d2e027e	0.042482845
251	0xbcfd0e4a	-0.030890603
252	0xbcffb13e	-0.031212445
253	0xbd09b1b6	-0.033616744
254	0x3d2f99bc	0.042871222
255	0x3c407f28	0.011749066

convs.2.bias f4 [100]
0	0xbb970347	-0.004608545
1	0xbcd0c624	-0.025485106
2	0xbc915435	-0.017740348
3	0xbcfd7900	-0.030941486
4	0x3d19b66b	0.037527483
5	0x3d051f48	0.032500535
6	0xbcbc0333	-0.022950744
7	0xbd526612	-0.051366873
8	0x3d2bd4be	0.041950934
9	0xbc148ffd	-0.009067533
10	0xbcbbd6ec	-0.022929631
11	0xbc8cf751	-0.017207773
12	0x3c62d3e6	0.013844466
13	0xbd6e19e9	-0.05813018
14	0xbc69de66	-0.014274215
15	0x3d256985	0.040383834
16	0x3d1bef7a	0.03807018
17	0xbccf2a3a	-0.02528869
18	0x3d1101e6	0.0354022
19	0x3c924a34	0.017857648
20	0xbc8c56ca	-0.017131228
21	0x3c46381d	0.012098339
22	0xbcb3f071	-0.021965237
23	0x3b948882	0.0045328746
24	0xbc5cb6e0	-0.013471335
25	0x3ce9880e	0.028507259
26	0x3b714ae6	0.0036818325
27	0x3cb053e1	0.021524372
28	0xbd0a9b82	-0.03383971
29	0x3cff3e5f	0.03115767
30	0x3cd714f4	0.026255108
31	0xbd490d82	-0.049085148
32	0x3c20b844	0.009809557
33	0x3d072b1a	0.03300009
34	0xbb966c18	-0.0045905225
35	0xbd12c7d3	-0.0358351
36	0x3cfe1b3e	0.03101885
37	0x3ccfd1a4	0.02536852
38	0x3c956821	0.01823813
39	0xbcd17b32	-0.02557144
40	0x3cfa060f	0.030520467
41	0x3cc63db0	0.024199337
42	0x3be12fc8	0.006872151
43	0x3c1042d2	0.008804994
44	0x3cb0bced	0.021574462
45	0xbb475ceb	-0.0030420374
46	0xbd39fb5c	-0.04540573
47	0xbd2f3e4f	-0.04278403
48	0x3c0edfb3	0.008720326
49	0x3b1a80a0	0.0023575202
50	0xbcb97f09	-0.022643583
51	0x3d27506b	0.040848177
52	0x3b3425e0	0.0027488396
53	0xbc0790e8	-0.008274294
54	0xbd1019a6	-0.03518071
55	0x3d18981f	0.03725445
56	0x3d3b1c4e	0.04568129
57	0x3ce9233e	0.028459188
58	0x3cb79ffe	0.022415157
59	0xbc8e42e4	-0.01736588
60	0x3cda6ead	0.026664102
61	0x3ca2a6ee	0.019854989
62	0x3cdc0590	0.026858121
63	0xbd3606c8	-0.04444006
64	0x3c82f1a8	0.015984371
65	0xbd35076d	-0.044196535
66	0x3d0a12ef	0.033709463
67	0xbcbb06d2	-0.0228304
68	0xbd107f53	-0.035277676
69	0xbc63e114	-0.013908643
70	0xbd1a5f2e	-0.037688427
71	0xbd2ab90c	-0.04168038
72	0xbd550b38	-0.052012652
73	0xbc912ac2	-0.017720584
74	0x3b8da07a	0.004322109
75	0x3ceef0cc	0.029167555
76	0x3ba6376d	0.0050725252
77	0xbd1b9afc	-0.0379896
78	0x3c1106c4	0.008851711
79	0xbd1cf514	-0.038319662
80	0x3d109630	0.03529948
81	0xbc79f486	-0.015256053
82	0x39a9eb63	0.0003240957
83	0xbbea8429	-0.007156868
84	0x3d1b97ed	0.037986685
85	0x3ac1072d	0.001472687
86	0x3c262911	0.010141627
87	0x3c1471e1	0.009060354
88	0x3d3b7946	0.045769952
89	0xbd24f0d7	-0.040268745
90	0x3d1b9c37	0.037990775
91	0xbc9be02b	-0.01902779
92	0x3c64e168	0.013969757
93	0xbd2dcb45	-0.04243018
94	0xbce6e01c	-0.028183036
95	0xbd26d2f1	-0.040728513
96	0xbc8496b4	-0.016185142
97	0x3c8e1732	0.017345045
98	0x3d212c83	0.03934909
99	0x3d188f1b	0.03724585

convs.3.weight f4 [100, 1, 6, 91]
0	0xbc196d0f	-0.0093643805
1	0xbab7e270	-0.0014029276
2	0xbcfdac1b	-0.030965855
3	0x3cd377e3	0.025814002
4	0xbc297374	-0.010342468
5	0xbd518d41	-0.0511601
6	0x3ca6f4d5	0.020380417
7	0xbc812996	-0.0157669
8	0xbcda9816	-0.026683848
9	0xbc5e5c41	-0.0135718
10	0xbc44c91a	-0.012010837
11	0x3cd1fa44	0.025632031
12	0x3af14b9b	0.0018409373
13	0x3ce1c96a	0.027561862
14	0x3bacd0d0	0.005273916
15	0x3c10bd2c	0.008834165
16	0xbc9bfd31	-0.01904163
17	0xbce14066	-0.027496528
18	0x3c7aa28c	0.015297543
19	0x3d31126c	0.04323046
20	0xbd1c03c9	-0.038089547
21	0x3c92a51e	0.017901
22	0xbc56fad7	-0.013121328
23	0xbcbc5d74	-0.02299378
24	0x3c504c45	0.012713497
25	0xbb03ca6e	-0.0020109671
26	0xbcb74a12	-0.022374187
27	0xbd112c32	-0.03544254
28	0xbd279081	-0.040909294
29	0xbd0e0699	-0.03467426
30	0xbd16ec3d	-0.036846388
31	0xbc8cc83a	-0.01718532
32	0x3cb5bca1	0.022184672
33	0x3aed7a5f	0.0018118134
34	0x3d2e19d1	0.04250509
35	0xbcbc4a2b	-0.022984585
36	0xbc9b7581	-0.018976929
37	0x3c02b0a1	0.007976682
38	0x3c510f1c	0.01275995
39	0xbceabcca	-0.028654475
40	0x3c5bc4ea	0.013413647
41	0xbcce9747	-0.025218619
42	0x3d47d672	0.048788495
43	0x3a9f3e6a	0.0012149338
44	0x39a4e6bd	0.0003145243
45	0xbd186a43	-0.037210714
46	0x3a458223	0.00075343455
47	0xbd03113e	-0.031998865
48	0x3cf6c6e3	0.030124133
49	0x3c2a2c2a	0.010386506
50	0xbb030bfa	-0.0019996152
51	0x3c842046	0.01612867
52	0xbd1c6f5b	-0.038192134
53	0x3ca44bf4	0.020055749
54	0x3acf9aea	0.0015839015
55	0x3c9c026e	0.019044127
56	0x3c7853ec	0.015156727
57	0x3cf5235a	0.029924084
58	0xbaa975e0	-0.0012928806
59	0xbcdca666	-0.026934814
60	0xbca38e96	-0.019965451
61	0xbcb49e02	-0.022048
62	0x3d10f193	0.035386633
63	0xbaca9180	-0.0015454739
64	0xbd08d1eb	-0.03340332
65	0x3bba07c0	0.0056771934
66	0xbd032b91	-0.03202397
67	0x3c831dd4	0.016005434
68	0xbcae173a	-0.02125131
69	0xbbd0bad0	-0.006369926
70	0xbd2f14f6	-0.0427446
71	0xbc926b8d	-0.01787355
72	0x3d21c47d	0.039494026
73	0xbcf5431a	-0.029939223
74	0x3d1ab789	0.03777269
75	0xbc12b904	-0.008955244
76	0xbba5a190	-0.00505466
77	0xbcd26477	-0.025682671
78	0xbcaa096f	-0.020756451
79	0xbd2c044d	-0.04199629
80	0x3c28c7d0	0.010301545
81	0x3b94a140	0.004535824
82	0xba01ecc0	-0.0004956238
83	0x3cf61cae	0.030042972
84	0x3d17dd53	0.037076306
85	0xbc36aff4	-0.011150349
86	0x3bf09010	0.0073413923
87	0x3baa7f38	0.005203154
88	0xbd10b93f	-0.035332914
89	0x3d231efb	0.039824467
90	0xbb621350	-0.0034496374
91	0xbc216ba7	-0.0098523265
92	0xbb866fd4	-0.0041026864
93	0xbcc6a196	-0.024246972
94	0x3b88ed7c	0.004178701
95	0xbceca5eb	-0.02888771
96	0x3c8d09d4	0.0172166
97	0x3cc08ff5	0.023506144
98	0x3d5054c5	0.050862093
99	0xbd2d67ca	-0.04233531
100	0xbd3ce35c	-0.046115264
101	0xbd0cfe63	-0.03442229
102	0xbbe929fa	-0.0071155997
103	0x3c5d6eb3	0.013515162
104	0x3c5a0bd8	0.013308488
105	0x3c8f7180	0.017510176
106	0xbc13bd1a	-0.009017253
107	0x3c45b77d	0.012067673
108	0x3cb51810	0.0221062
109	0x3d1c8c0f	0.038219508
110	0x3d0aaa1b	0.03385363
111	0x3cfe5578	0.031046614
112	0x3cb2ab9a	0.021810342
113	0xbc9c8ec5	-0.019111047
114	0xbce40bb2	-0.027837608
115	0x3cea54d0	0.028604895
116	0x3a8af391	0.0010601153
117	0x3c6e78a7	0.014555133
118	0x3cd243c7	0.025667084
119	0x3d16350c	0.036671683
120	0x3cbdbbaa	0.023160774
121	0xbcec14df	-0.028818546
122	0xbd0f158b	-0.034932654
123	0xbd14e36e	-0.036349706
124	0x3d523a78	0.05132529
125	0xbcde2d32	-0.02712116
126	0xbd0a3920	-0.033745885
127	0x3d1e9545	0.038716573
128	0xbc220743	-0.009889427
129	0xbcc148e4	-0.023594327
130	0x3d184cb6	0.037182532
131	0x3cced7fb	0.025249472
132	0xba1a2c12	-0.0005881201
133	0x3d44dd3d	0.04806255
134	0xbd3a640a	-0.04550556
135	0x3d0afed9	0.033934448
136	0xbd176d69	-0.036969576
137	0x3d018779	0.031623337
138	0x3cd9f899	0.026607798
139	0xbd35cdc7	-0.044385698
140	0x3d2c66d5	0.042090256
141	0x3cd502be	0.026002284
142	0x3cdbd6b2	0.026835773
143	0x3bc4a11a	0.00600065
144	0xbcb40d3c	-0.021978967
145	0x3cfec10e	0.031097915
146	0x3d12fdd9	0.03588662
147	0x3be6b1e8	0.007040251
148	0x3cf0f55a	0.029413868
149	0x3d1d8233	0.038454246
150	0x3d1c0139	0.038087104
151	0xbce2466e	-0.027621474
152	0xba82fe40	-0.0009993985
153	0xbd1779f3	-0.036981534
154	0x3ccd2cd2	0.025045786
155	0x3ca28792	0.019840036
156	0xbc96fe0e	-0.01843169
157	0xbc5ffb8a	-0.013670811
158	0x3cf862da	0.030320574
159	0x3ce9971e	0.028514441
160	0x3c0e0590	0.008668318
161	0xbd15ac3c	-0.03654121
162	0x3b0f76b0	0.0021890812
163	0xbd12f8a6	-0.03588166
164	0x3cfdd186	0.030983698
165	0xbccde50f	-0.025133638
166	0x3d1635a3	0.036672246
167	0x3b359750	0.0027708597
168	0x3d2bdb09	0.041956935
169	0x3cf7abc6	0.030233275
170	0xbd2378d5	-0.039910156
171	0x3b572070	0.003282573
172	0xbcd723ea	-0.026262242
173	0xbd01d806	-0.031700157
174	0x3b0ad1c0	0.002118215
175	0xba784500	-0.0009470731
176	0xbc490996	-0.012270352
177	0xbd18180b	-0.037132304
178	0xbcc47c82	-0.023985151
179	0x3b5c8300	0.0033647418
180	0xbb7dc490	-0.0038721897
181	0xbd2356e7	-0.0398778
182	0xbce89380	-0.028390646
183	0xbcc3df73	-0.02391026
184	0x3d13d851	0.036094967
185	0xbcd477e5	-0.025936076
186	0x3bbac659	0.0056999144
187	0x3ccf41f9	0.025300013
188	0x3c660bfa	0.014040941
189	0xbd016bf2	-0.031597085
190	0xbbdda7a7	-0.0067643705
191	0x3cbefe28	0.02331455
192	0x3ca2fd08	0.019896045
193	0xbbfaa6f5	-0.0076492974
194	0xbc918eb8	-0.017768249
195	0xbc684cea	-0.014178494
196	0xbbf5ff54	-0.007507244
197	0x3c9232eb	0.017846545
198	0x3ce74a9d	0.02823382
199	0xbb0d1b14	-0.0021531032
200	0x3d2c4dbd	0.042066325
201	0xbc5f1f9b	-0.013618375
202	0x3d1d8cce	0.03846436
203	0xbbb133ae	-0.005407772
204	0x3ce0eb4b	0.027455946
205	0xbccfd61d	-0.025370652
206	0xbd84d382	-0.064856544
207	0xbc61e058	-0.013786398
208	0xbcc7f0bb	-0.024406781
209	0x3ced934f	0.029000906
210	0x3d01e182	0.0317092
211	0x3c00cf70	0.007861957
212	0x3c778451	0.01510723
213	0xbcbbe264	-0.0229351
214	0x3bd46b4e	0.0064825183
215	0xbd274a38	-0.040842265
216	0x3c2d5448	0.010579176
217	0xbc3f1718	-0.011663221
218	0xbcce9e0c	-0.025221847
219	0xbcc678be	-0.024227496
220	0xbd2dba48	-0.04241398
221	0x3a814316	0.0009861912
222	0xbca343d0	-0.019929796
223	0xbd49bee9	-0.04925433
224	0x3ce49bf9	0.027906405
225	0x3b9bb2e1	0.0047515486
226	0x3d34ceea	0.04414264
227	0x3c66b2b3	0.014080691
228	0xbb00f063	-0.0019674532
229	0x3ce7c2d0	0.028291136
230	0x3c0d0784	0.008607749
231	0xbac87261	-0.0015292877
232	0x3cbfce9d	0.02341395
233	0xbd05fa2e	-0.032709293
234	0xbd0992a4	-0.033587113
235	0x3d245818	0.040123075
236	0xbce3c9a4	-0.02780611
237	0xbd0e48ff	-0.034737583
238	0x3c6d8bc8	0.0144986585
239	0x3d2dba31	0.042413894
240	0xbbaad638	-0.005213525
241	0x3c47f4bc	0.012204345
242	0xbc24ed0c	-0.010066282
243	0x3cea2122	0.028580252
244	0xbc375570	-0.0111898035
245	0x3c3760e0	0.01119253
246	0xbc7fa41a	-0.01560309
247	0x3c0f83a8	0.008759417
248	0xbc28401c	-0.010269191
249	0xbd0160d2	-0.031586476
250	0xbad4fe80	-0.0016250163
251	0xbc80a1f7	-0.01570223
252	0xbd15d6af	-0.03658169
253	0xbb0ac6e0	-0.0021175668
254	0x3c20a708	0.009805448
255	0xbd2ce967	-0.042214777

convs.3.bias f4 [100]
0	0xbc8b5354	-0.017007507
1	0xbc9972cc	-0.018731497
2	0xbc865245	-0.016396651
3	0xbc43b7a7	-0.011945642
4	0x3b9a877e	0.004715859
5	0xbcda45c3	-0.026644593
6	0xbd1e9c8b	-0.03872351
7	0xbc832814	-0.016010322
8	0xbd3101f6	-0.04321476
9	0x3c5b4abd	0.013384518
10	0xbc930152	-0.017944966
11	0x3cc4ed39	0.024038898
12	0x3c3abcc4	0.011397544
13	0x3c4b9f04	0.012428049
14	0xbcdf7c2c	-0.02728089
15	0xbc48c0e4	-0.01225302
16	0x3c85a15a	0.01631229
17	0xbd042007	-0.032257106
18	0x3c5b8bfd	0.013400075
19	0xbd2c9dc0	-0.04214263
20	0xbc78b1a4	-0.015179072
21	0xbcd184be	-0.025575992
22	0xbcaf70e8	-0.021416143
23	0xbcf35e7e	-0.029708143
24	0xbcd8bd29	-0.026457386
25	0xbd158e95	-0.03651293
26	0x3c890e81	0.016730549
27	0xbd018e16	-0.031629644
28	0xbc6a41b5	-0.014297892
29	0xbce52be3	-0.027975028
30	0xbd258cd3	-0.040417504
31	0xbcab2a9a	-0.020894337
32	0x3d0b774e	0.034049325
33	0xbb5e2743	-0.0033897914
34	0xbc707b7d	-0.014677879
35	0x3ccf3ee9	0.025298553
36	0x3d0b5af8	0.0340223
37	0x3c15e820	0.009149581
38	0xbc877fd9	-0.016540455
39	0xbcf14d76	-0.029455882
40	0xbcd78047	-0.026306285
41	0xbd1767a5	-0.036964078
42	0x3d07f952	0.033196755
43	0x3c868246	0.016419541
44	0xbcf1958a	-0.029490251
45	0xbb4e5b67	-0.0031487586
46	0xbc805320	-0.015664637
47	0xbcb5b2f8	-0.022180066
48	0xbd46cb80	-0.048533916
49	0xbcdbf2b7	-0.026849134
50	0xbc57e258	-0.013176523
51	0xbd001227	-0.03126731
52	0x3cb3e8f9	0.021961676
53	0x3cfa9570	0.030588835
54	0xbade6ecb	-0.0016970275
55	0xbd46dd1e	-0.048550718
56	0x3c256e0d	0.010097039
57	0x3cc87ae7	0.024472667
58	0x3cc66355	0.024217287
59	0x3ce191c6	0.02753533
60	0x3c3460dd	0.011009422
61	0x3cbc813a	0.023010839
62	0x3c2077a5	0.0097941505
63	0xbcf5af01	-0.029990675
64	0xbc1ffca7	-0.009764827
65	0xbc1a4058	-0.009414755
66	0xbcc92720	-0.024554789
67	0x3cbdc057	0.023163004
68	0x3cae935c	0.0213105
69	0xbd3b87ee	-0.04578393
70	0x3c25b5b5	0.010114123
71	0xbcd54a87	-0.026036514
72	0x3c3cfc24	0.011534724
73	0x3c58821b	0.013214613
74	0xbcb258f9	-0.021770941
75	0xbd216b96	-0.039409243
76	0xbd2fa309	-0.04288009
77	0x3c98d034	0.018653966
78	0x3d02ebb0	0.03196305
79	0x3d0e040a	0.03467182
80	0xbc5bc3bf	-0.013413369
81	0xbbf24b9a	-0.0073942663
82	0x3c8933b0	0.01674828
83	0xbc4662c9	-0.012108513
84	0x3c7d93b5	0.015477111
85	0x3c8b73a3	0.017022913
86	0xbd0f6fb8	-0.035018653
87	0x3c6543b6	0.013993194
88	0x3845a7d0	4.7124748e-05
89	0xbc7ec7a0	-0.015550524
90	0xbd0c8d5d	-0.034314502
91	0xbcdfbb22	-0.027310912
92	0xbd1a9b43	-0.037745725
93	0x3c9d710f	0.01921895
94	0xbd069f6e	-0.032866888
95	0x3ca4315b	0.020043066
96	0x3cbcb86a	0.023037154
97	0xbc88a0ff	-0.016678331
98	0xbd1ddd51	-0.038541142
99	0xbcb56c49	-0.022146361

convs.4.weight f4 [100, 1, 7, 91]
0	0x3b87d2d0	0.004145004
1	0x3c0aa3af	0.008461877
2	0xbd0fa1d9	-0.03506646
3	0x3ca4e142	0.020126943
4	0xbccd711d	-0.02507835
5	0xbc02fc95	-0.007994791
6	0xbbbf81e3	-0.005844341
7	0xbc9bf76f	-0.019038884
8	0x3d389f9e	0.045074098
9	0xbcae4fb4	-0.02127824
10	0xbca0d974	-0.01963494
11	0xbcbbf59c	-0.022944264
12	0x3d11cc5e	0.03559529
13	0x3cd3d199	0.02585678
14	0xbc1322fb	-0.008980508
15	0xbbd3a3c2	-0.0064587304
16	0x3c743a4a	0.014906475
17	0x3adc144c	0.0016790717
18	0x3bfb9be3	0.0076784953
19	0x3ccba2bd	0.024857873
20	0xbcb24fa6	-0.021766495
21	0x3c5ff83b	0.013670023
22	0x3ccd3992	0.025051866
23	0xbc482c65	-0.012217616
24	0x3c9c34f4	0.019068219
25	0x3cab8f22	0.020942274
26	0x3cda06f5	0.026614645
27	0xbb9f68e4	-0.004864799
28	0x3beb3d10	0.00717891
29	0xbcddb5b7	-0.027064187
30	0x3cc57875	0.02410529
31	0xbb01a7b6	-0.0019783801
32	0xbcc0b0ab	-0.023521742
33	0xbcaaee20	-0.0208655
34	0xbc6c1c30	-0.014411017
35	0xbd219722	-0.039450772
36	0x3cbadf8d	0.022811675
37	0xbcec2364	-0.02882547
38	0xbcffbccf	-0.03121796
39	0xbc8a3034	-0.016868688
40	0xbcf46013	-0.029830968
41	0xbbce6d10	-0.0062996224
42	0x3c8274c5	0.01592482
43	0xbc27a858	-0.010233007
44	0xbd16722d	-0.03672998
45	0xbce5815c	-0.028015785
46	0x3d23e15a	0.040009834
47	0xbc9cb90e	-0.01913121
48	0xbd329acf	-0.04360467
49	0x3c0501fc	0.008118149
50	0xbd2927a1	-0.04129756
51	0x3b890ec8	0.0041826703
52	0xbd2f3d7a	-0.042783238
53	0x3c566efe	0.013087986
54	0x3b8028ec	0.0039111283
55	0x3aa051c0	0.0012231395
56	0xbc8ae418	-0.016954467
57	0xbcea2e80	-0.028586626
58	0x3cb776f4	0.022395588
59	0x3c469500	0.012120485
60	0x3bf56738	0.0074891113
61	0x3c8e9b42	0.017408017
62	0xbb931268	-0.004488278
63	0xbcc55b74	-0.02409146
64	0xbb216120	-0.0024624541
65	0xbcec9d5a	-0.028883625
66	0xbcd4014e	-0.025879528
67	0xbbccc340	-0.0062488616
68	0xbb8f65a8	-0.004376132
69	0x3c5a9b08	0.013342626
70	0xbd083a7b	-0.033258896
71	0xbc39fe7e	-0.01135218
72	0x3ca28934	0.019840814
73	0x3d170d2a	0.03687779
74	0xbc4d630a	-0.01253582
75	0xbbca5678	-0.0061748587
76	0x3d157f70	0.036498487
77	0xbcddeb28	-0.02708967
78	0xbd1e868f	-0.038702544
79	0x3c61e2e8	0.013787009
80	0x3d023536	0.031789027
81	0x3bb0c198	0.005394172
82	0x3d18bc70	0.037289083
83	0xbce70525	-0.028200695
84	0xba98dc00	-0.0011662245
85	0xbd0e01ba	-0.034669615
86	0xbcd9b749	-0.026576655
87	0xbd0c092e	-0.034188442
88	0xbd016525	-0.0315906
89	0x3ca3ea0a	0.02000906
90	0x3ce2443c	0.027620427
91	0xbbc9d08a	-0.006158893
92	0x3cf50e0a	0.02991392
93	0xbc441628	-0.011968173
94	0x36329240	2.6609196e-06
95	0x3c3d5480	0.011555791
96	0xbcbdce3d	-0.023169631
97	0x3caa69ac	0.020802341
98	0x3d03fee5	0.03222551
99	0xbc0e8034	-0.008697558
100	0x3d191be0	0.0373801
101	0xbc224103	-0.009903195
102	0x3cc930f8	0.024559483
103	0x3cdfda0e	0.027325656
104	0xbc6c84ec	-0.014435988
105	0x3d0372b2	0.032091804
106	0x3b81bddf	0.003959402
107	0xbbc24254	-0.005928317
108	0x3ca1e223	0.01976115
109	0x3cae7f0b	0.021300813
110	0xbc827e7d	-0.015929455
111	0x3d13a9a0	0.03605044
112	0x3a00a0f4	0.00049067964
113	0xbcd2c8dd	-0.025730545
114	0xbb228188	-0.0024796445
115	0x3cce718d	0.02520063
116	0x3c890f87	0.016731037
117	0x3d16344c	0.036670968
118	0x3c90e452	0.017686997
119	0xbaedc66c	-0.0018140799
120	0xbce2ae68	-0.027671054
121	0x3c30b446	0.010785168
122	0x3cbcfc89	0.023069637
123	0x3a6eeceb	0.0009114283
124	0x3c92d882	0.017925505
125	0x3d0b5cd1	0.034024063
126	0x3b909131	0.0044118394
127	0x3ce2165f	0.027598558
128	0x3bfe2f93	0.007757136
129	0xbcada263	-0.021195596
130	0x3cd54944	0.026035912
131	0x3c2b16b5	0.0104424255
132	0x3cfb8278	0.03070186
133	0xbcf1a830	-0.029499143
134	0xbcab23c1	-0.020891072
135	0xbd0b24e5	-0.033970732
136	0xbcd3f31f	-0.025872765
137	0x3b3a5fcc	0.0028438447
138	0xbd000444	-0.031254068
139	0x3c0e6bee	0.008692725
140	0x3cce920c	0.025216125
141	0x3ccb5624	0.024821348
142	0xbd4810a0	-0.04884398
143	0x3ced8dd5	0.028998295
144	0xbd011429	-0.031513367
145	0x3bdd3a86	0.0067513613
146	0x3ca5cc8a	0.020239133
147	0xbc55b288	-0.013043053
148	0x3b10d3e0	0.0022098944
149	0xbbe514d0	-0.0069910064
150	0xbcee74e5	-0.029108474
151	0x3ba2ad80	0.0049645305
152	0x3c606c50	0.013697699
153	0x3c4d641c	0.012536075
154	0x3d1d878e	0.038459353
155	0xbca5cf90	-0.020240575
156	0xbbd3b2a8	-0.0064605065
157	0xbc37a784	-0.011209372
158	0xbcb484fa	-0.022036064
159	0xbcc3152f	-0.023813812
160	0xbcd72404	-0.02626229
161	0x3cd0f964	0.025509544
162	0xbcb66c12	-0.022268329
163	0xbc391828	-0.011297263
164	0xbc8b88f0	-0.01703307
165	0xbca0335f	-0.019555746
166	0x3c11ef04	0.008907083
167	0x3b59cf80	0.0033235252
168	0x3c8628de	0.016376909
169	0x3c6d01fc	0.014465805
170	0x3c754de4	0.014972184
171	0x3cd148ec	0.025547467
172	0xbcfa4ed4	-0.030555166
173	0x3d0ecaf6	0.034861527
174	0x3bb515b0	0.005526267
175	0x3c580704	0.013185266
176	0xbcf1ccc0	-0.029516578
177	0xbc60c6d6	-0.013719281
178	0x3cf8c144	0.030365594
179	0x3c87376e	0.016505923
180	0x3bd03130	0.00635352
181	0x3c3df814	0.011594791
182	0x3d27557b	0.040853005
183	0xbcbeecd7	-0.023306293
184	0xbc3fa963	-0.0116981
185	0xbbe75961	-0.0070602153
186	0xbb5e4dc0	-0.0033920854
187	0xbcec05b9	-0.028811323
188	0xbb347b1d	-0.0027539202
189	0xbd0775ec	-0.033071443
190	0xbc726f54	-0.0147970505
191	0xbbc419bc	-0.005984513
192	0xbcc276f1	-0.023738356
193	0x3ce63747	0.02810253
194	0x3ca64449	0.020296233
195	0x3d146a5e	0.036234252
196	0xbceef229	-0.029168205
197	0xbc5969af	-0.013269826
198	0xbcdb0f95	-0.026740829
199	0x3a82e905	0.0009987658
200	0x39106565	0.00013770683
201	0x3c9dc9c2	0.019261245
202	0x3be0d276	0.0068610264
203	0x3baac925	0.0052119666
204	0xbafeaf8a	-0.0019430977
205	0xbc8d2431	-0.017229171
206	0x3cc92fa6	0.024558853
207	0xbcc2dd06	-0.023787033
208	0x3c1fafc1	0.009746493
209	0xbcb27c07	-0.021787656
210	0xbd0a184f	-0.03371459
211	0x3cdbb254	0.026818432
212	0xbce159a7	-0.02750857
213	0xbd2646a0	-0.040594697
214	0x3cd8003d	0.026367301
215	0x3c30cccb	0.010791014
216	0xbb56c8f9	-0.0032773598
217	0xbca3c01c	-0.019989066
218	0xbb858b17	-0.0040754187
219	0xbb022051	-0.0019855688
220	0x3cc746ea	0.024325807
221	0xbc4ac529	-0.012376108
222	0xbcb2e31b	-0.021836808
223	0xbc7cdefc	-0.015434023
224	0x3c2db2a1	0.0106016705
225	0xbc03feec	-0.008056384
226	0x3cdee005	0.02720643
227	0x3b9d8523	0.004807131
228	0xbcc919d5	-0.02454845
229	0xbccf1686	-0.025279295
230	0xbd3e8ecc	-0.0465229
231	0xbc70f9fa	-0.014708037
232	0x39adca38	0.00033147796
233	0x3ca2c4a5	0.019869158
234	0xbd09cdd0	-0.033643544
235	0x3c58c3fe	0.013230322
236	0x3d1f9426	0.038959645
237	0xbbb6f150	-0.005582966
238	0xbc5aa084	-0.013343934
239	0x3c8f904a	0.017524857
240	0xbca12229	-0.01966961
241	0x3d03c46e	0.03216975
242	0x3c2a8350	0.010407284
243	0xbd1e0429	-0.038578186
244	0xbcc80d80	-0.0244205
245	0x3ca2dabe	0.019879695
246	0xbb9db318	-0.0048126094
247	0x3cec4d78	0.028845534
248	0xbcc1fc75	-0.023679951
249	0xbc7d9d9e	-0.015479473
250	0x3c254204	0.01008654
251	0x3b4e5e60	0.0031489357
252	0xbca1f33c	-0.019769304
253	0xb8448400	-4.6852976e-05
254	0x3cf6ca00	0.030125618
255	0xbcf56ba4	-0.029958554

convs.4.bias f4 [100]
0	0xbd0c229b	-0.03421269
1	0xbcc4cb63	-0.024022764
2	0xbb439454	-0.002984305
3	0x3c957657	0.018244905
4	0xbb413d9b	-0.0029486183
5	0xbcdfb860	-0.027309597
6	0x3d1a902d	0.037735153
7	0x3d03c695	0.032171804
8	0x3cf5bb3e	0.02999651
9	0xbbb2256b	-0.0054365895
10	0xbce26196	-0.027634423
11	0xbd243d8a	-0.04009775
12	0xbd2b6460	-0.041843772
13	0xbbc78e78	-0.0060899816
14	0xbcb7d0f8	-0.022438511
15	0x3b4a8ad3	0.00309055
16	0x3cb6258b	0.022234699
17	0xbd1ed638	-0.038778514
18	0x3ade9ed8	0.0016984595
19	0x3bd7c3d8	0.0065846257
20	0xbd1317c0	-0.03591132
21	0x3d1bd840	0.03804803
22	0xbd0c2b96	-0.034221254
23	0xbc629abe	-0.013830839
24	0x3cf6e412	0.03013805
25	0x3d033c8c	0.032040164
26	0x3cc74c81	0.024328472
27	0xbba378e1	-0.004988775
28	0x3b87b3a5	0.0041412883
29	0x3d1d8dac	0.038465187
30	0xbd0997fe	-0.033592217
31	0xbc9f1a63	-0.019421762
32	0x3c888733	0.01666603
33	0xbcc94860	-0.024570644
34	0xbd029664	-0.031881705
35	0xbcc0e125	-0.023544857
36	0xbc811984	-0.015759237
37	0xbd03a7eb	-0.03214256
38	0x3d0ad00f	0.033889826
39	0xbcb1e166	-0.021713924
40	0xbc7ac917	-0.015306733
41	0xbcd396f2	-0.025828812
42	0x3c4130ed	0.01179145
43	0xbc09d73b	-0.008413131
44	0xbc5225be	-0.012826381
45	0xbb83dd57	-0.0040241885
46	0xbccbac13	-0.024862325
47	0xb9195716	-0.00014623659
48	0x3d18507d	0.037186135
49	0x3d245575	0.04012056
50	0xbd0eb206	-0.034837745
51	0xbc9959ed	-0.018719638
52	0xbd074613	-0.033025812
53	0xbc2954fa	-0.010335201
54	0xbc0fa468	-0.008767225
55	0xbca4d43c	-0.020120732
56	0x3badaf62	0.0053004483
57	0xbcbd76df	-0.023127971
58	0x3bcb5955	0.0062057176
59	0xbd260f98	-0.040542215
60	0xbc86ac96	-0.016439717
61	0xbd310aa4	-0.04322304
62	0xbd02f53e	-0.031972162
63	0x3b4a4ce5	0.0030868587
64	0xbbaff7b8	-0.0053701065
65	0xbd1fe942	-0.03904081
66	0x3c046ad3	0.0080821095
67	0xbcea8116	-0.028626006
68	0x3d0e4fd5	0.034744103
69	0xbd15b127	-0.0365459
70	0xbd08e8dd	-0.0334252
71	0xbce84486	-0.028352987
72	0xbcded4c1	-0.027201058
73	0x3cfb42c0	0.030671477
74	0x3cccc788	0.024997488
75	0xbb639d78	-0.003473131
76	0x3cbb24f5	0.02284477
77	0x3cf8816b	0.030335149
78	0x3c68c221	0.01420644
79	0x3cd32894	0.025776185
80	0xb980b582	-0.00024549296
81	0x3cb28e20	0.021796286
82	0xbc022f1b	-0.007945801
83	0xbc9837dd	-0.018581325
84	0x3c0b5003	0.008502963
85	0xbd06fef4	-0.032957986
86	0xbcb96463	-0.022630876
87	0x3c9f7fe9	0.019470172
88	0xbc17c0c6	-0.009262269
89	0xbd2e03e2	-0.04248417
90	0xbca1831a	-0.019715834
91	0xbc9a3365	-0.018823335
92	0xba644c33	-0.00087088643
93	0x3c105306	0.008808857
94	0x3c939c53	0.018018877
95	0x3c06caf8	0.008227102
96	0x3be9ac06	0.0071311025
97	0xbd33ef0d	-0.04392915
98	0x3d021dbb	0.031766634
99	0x3bdcdcea	0.006740202
