CNN_model.pth (torch_old, 919761 bytes, 12 tensors)

convs.0.weight f4 [100, 1, 3, 91]
000000 8d 72 b6 3c 21 e6 4c 3c b9 6c 2d 3c 5a 36 d7 3c
       0.022271419 0.012506039 0.0105850035 0.026271034
000010 40 e0 55 bd d4 a8 38 3d 63 09 80 3d ca b7 9f bc
       -0.052215815 0.045082882 0.062517904 -0.019496817
000020 db da 8f bd 05 c0 13 3d 7c b5 c6 bc 12 fe af 3b
       -0.07024165 0.036071796 -0.02425646 0.0053708637
000030 b2 85 55 3d 8b cc 0d bc fc c5 46 3d 00 62 d6 bc
       0.052129455 -0.008654724 0.048528656 -0.026169777
000040 1e 55 f1 3b 99 29 9d 3d 64 dc 56 bd 65 56 9b bd
       0.007364883 0.0767395 -0.052456275 -0.07584838
000050 db 31 47 3d c1 3a 2f 3c db 30 3c 3d c6 8b 88 3d
       0.04863153 0.01069516 0.04594503 0.06667285
000060 be 5b 4c ba b5 e2 50 3d 5a a0 2a bd d7 fe d3 3d
       -0.0007795653 0.050997455 -0.04165683 0.10351341
000070 b8 9c 99 3d 5b 93 41 bd 27 01 45 bd a1 90 5b bd
       0.07500595 -0.04725967 -0.048096802 -0.053604726
000080 be 2e aa 3c c7 c8 7c 3d 74 7f 8b bc 57 31 59 3c
       0.020774242 0.061714914 -0.017028548 0.013256392
000090 23 58 b2 3d 80 96 03 bd b6 5b ef 3c 36 ea 91 bd
       0.08708217 -0.03212595 0.029218536 -0.0712475
0000a0 7c fd 9b 3d b3 50 83 3d 7f 82 a2 3c c3 aa c8 3c
       0.07616708 0.064118765 0.019837616 0.024495488
0000b0 38 fd bb 3c 2f d0 46 bd f3 9e ab bd 9c d7 0d 3d
       0.022947893 -0.048538383 -0.083799265 0.03462945
0000c0 3b df e4 3d d2 50 4a bc 6d 85 79 3c 41 5b d8 3b
       0.1117539 -0.012348371 0.015229565 0.006602675
0000d0 98 26 62 3c 25 cb fb 3b 6a f6 95 3d 3c 24 28 bc
       0.013803147 0.007684129 0.073223904 -0.010262545
0000e0 8c e2 0b bd 73 28 44 3d 2c 27 20 bd da ac a1 bc
       -0.0341516 0.047890138 -0.039099857 -0.019735742
0000f0 f1 9b 73 3d 34 b9 65 bd ff a1 4e 3d d2 b0 59 bd
       0.05947489 -0.056084827 0.05044746 -0.053147145
000100 5c f1 06 bd b0 65 33 bc f8 c2 77 bc f4 0c 6d bd
       -0.032945022 -0.010949537 -0.015122168 -0.05787368
000110 1f 86 6b 3d 00 70 a6 38 27 4e 19 3d 17 bb 3d 3d
       0.057500955 7.9363585e-05 0.037428048 0.046321
000120 9f b8 39 3d c5 07 20 3d 2a 31 c6 3c 70 0d 1f bc
       0.045342084 0.03906991 0.024193365 -0.009707794
000130 3c 08 d6 bc 80 d8 bc 39 0a 81 19 bd 2d 19 43 3d
       -0.026126973 0.0003601946 -0.037476577 0.04763143
000140 43 7e 05 3d b9 6e 2a 3d b4 29 25 bd 72 ac a4 bc
       0.032591116 0.0416095 -0.040322974 -0.02010176
000150 97 aa 4f 3d 79 e7 6f bd 37 83 2d 3d bf ed 03 3d
       0.050699797 -0.05857036 0.042361464 0.032209154
000160 ef 0d 34 3d 08 0c 39 bd ec 1e 47 bc d7 9b 5c bd
       0.0439586 -0.04517749 -0.012153368 -0.053859558
000170 fb 84 43 3d f6 c7 02 bd c0 3a b9 bd ca a1 7d bc
       0.047734242 -0.03192898 -0.09044409 -0.015480468
000180 26 97 22 bc 19 1f 30 bd df 42 61 3c 97 7c cb bc
       -0.009923732 -0.042998407 0.0137488535 -0.024839683
000190 2a 82 45 3d dc d5 99 bd e5 c2 82 3c de 0f a5 3d
       0.048219837 -0.075114936 0.015962074 0.08059667
0001a0 2c c7 6f bb 4e d2 33 3d c2 5d d3 3c 6b ab 9d bb
       -0.0036587222 0.043901734 0.025801543 -0.0048116944
0001b0 17 55 29 bc 81 4a 7b bd 81 40 2a bb c7 67 86 3d
       -0.010335228 -0.06135035 -0.0025978389 0.06562763
0001c0 53 f7 93 bc 9b 96 bb 3c 2c ed 32 bd 80 f5 8f 3d
       -0.01806227 0.022898963 -0.043683216 0.07029247
0001d0 1e 35 64 3d a5 93 14 bc e1 dc d9 3d 3d 68 6b bd
       0.05571472 -0.009068404 0.106378324 -0.057472456
0001e0 31 3c 18 bc ff 61 49 bd 49 94 09 bc 0d 11 e8 3c
       -0.0092916945 -0.049165722 -0.00839717 0.028328443
0001f0 d4 53 f9 bb 8b 0e aa bd 08 5c 36 bd 72 94 11 3b
       -0.00760887 -0.08303555 -0.04452136 0.0022213724
000200 9d 99 c1 bc 13 cb 36 bd e6 25 be 3d a8 07 40 3d
       -0.023632819 -0.04462726 0.09284572 0.0468823
000210 38 59 f9 3c c5 8d 12 bd e2 20 e0 3d ba 5c af 3c
       0.03043805 -0.035779733 0.10943772 0.02140652
000220 92 83 a5 bc 04 a5 3e 3d 64 8a 0f 3d 6a c8 4f 3d
       -0.02020434 0.04654409 0.03504409 0.05072824
000230 38 28 f1 bc d8 a9 8a 3d 54 1f ce bd 8f 0d a1 bd
       -0.029438123 0.067706764 -0.10064569 -0.07863914
000240 24 4e 73 3b dd 7d 95 bc f0 22 39 bd de 16 91 3c
       0.0037125433 -0.018248493 -0.045199335 0.0177111
000250 24 a0 0b bc f8 d7 7c bc c6 38 b8 3c 47 fd 61 bd
       -0.008522067 -0.01543235 0.02248801 -0.055173185
000260 1d cc 2f 3d 34 2d 6c bc c2 f5 c8 3c c7 32 3c 3d
       0.042919267 -0.014415074 0.024531249 0.045946863
000270 51 4c 49 3d 96 70 72 bd fc 31 33 bc e9 db 4c 3d
       0.049145047 -0.0591894 -0.01093721 0.05001441
000280 a6 f6 65 bd 86 30 b0 bc 71 21 41 3d 38 10 55 bc
       -0.056143425 -0.021507513 0.047151033 -0.013004355
000290 bb c9 09 3d 35 f2 41 3d 13 83 2e 3d ef ec 65 bd
       0.03363965 0.047350127 0.04260547 -0.05613416
0002a0 a7 b7 5b 3d d4 b2 61 bc f7 a5 f3 bc de da da 3c
       0.05364194 -0.013775546 -0.029742224 0.026715692
0002b0 aa 96 3d bd a2 71 dc 3c c3 f4 48 3d cc 3f a6 bc
       -0.046286263 0.026909653 0.049061548 -0.020294093
0002c0 da ba 0e bd 0c 5e 26 3c 3a b7 35 bd 9c 5e 3a 3c
       -0.034846164 0.010154258 -0.04436419 0.011375096
0002d0 8f a1 08 3d 4c 57 47 bd 62 2d 1c bc 68 31 9b 3d
       0.0333572 -0.048667237 -0.0095323045 0.07577783
0002e0 93 3e ef 3b 34 9f a3 bc 50 9d 5e bd 44 a4 bb 3c
       0.0073011606 -0.019973375 -0.054349244 0.022905476
0002f0 cd 74 4c 3c c8 1b 28 3d d2 da bf 3d ad fc 7c bd
       0.012479019 0.04104212 0.093679085 -0.061764408
000300 89 67 58 bb db 00 19 3d 0a fa 01 bd 70 3f 01 3c
       -0.0033020696 0.03735433 -0.031732596 0.00788866
000310 b8 fb 17 bd 7e c3 18 bb 2d c0 a9 3c 9c f5 3b 3d
       -0.037105292 -0.0023309882 0.02072152 0.04588853
000320 f0 ad b8 bc ef df 65 bc 6b 5c c4 3c 63 b3 31 3c
       -0.022543877 -0.014030441 0.02396985 0.010845992
000330 53 6e ad bd a5 25 79 38 7e e0 b5 bc f3 08 b0 3d
       -0.08468308 5.9401285e-05 -0.022201773 0.08595457
000340 09 be 58 3c 12 f5 11 3c fb 30 99 bd 2f 58 88 3c
       0.013228902 0.008908527 -0.074800454 0.016643612
000350 1a ff e1 bc 41 da 82 bc 70 a1 75 bc 8b 78 fd 3b
       -0.027587462 -0.015973212 -0.014992103 0.007735317
000360 91 0b 14 be 71 a7 24 bb 51 91 0c 3d 6a ed 2b 3c
       -0.14457537 -0.0025124217 0.034318272 0.010493616
000370 33 74 09 bd 81 cc 01 3c dd 1f 8e bc 89 a8 45 bd
       -0.03355808 0.007922293 -0.017349178 -0.04825643
000380 d0 48 5f bd 1e 0e 1d bd c2 c6 fa bc a5 ee 11 bd
       -0.0545128 -0.03834354 -0.030612353 -0.03562798
000390 8b 6e 64 bd 2f 61 b4 3d 58 b2 2e 3a 17 26 7c 3d
       -0.055769484 0.08807599 0.00066641485 0.061559763
0003a0 94 a6 11 bc f9 8c da bc a5 39 b3 bd 97 84 43 bd
       -0.008889813 -0.02667855 -0.08751229 -0.04773387
0003b0 7d 00 c9 bc c4 e6 0a bd a4 5c 58 bd dd 16 76 3d
       -0.024536366 -0.03391148 -0.052822724 0.060080398
0003c0 af f5 4d 3d 9b 59 02 bd a2 a6 2a bd 80 98 b0 bc
       0.05028313 -0.031823736 -0.04166282 -0.021557093
0003d0 05 0c 39 3d e2 14 f4 3c 82 ba 60 bd 43 8a 31 3d
       0.04517748 0.029795114 -0.054865368 0.043344747
0003e0 16 78 ec 3c 2f b0 3b 3d 78 3d 05 bd 64 ad 6a bd
       0.028865855 0.04582232 -0.032529324 -0.057294264
0003f0 38 2e c9 bc 0e c0 ce 3c 1d 54 2b bd a8 97 03 bc
       -0.024558172 0.025238063 -0.041828264 -0.008031763

convs.0.bias f4 [100]
000000 e9 a5 a6 bc e0 85 5f bd 63 62 c7 3c 89 1f f7 3c
       -0.020342784 -0.054571033 0.024338907 0.030166404
000010 84 41 85 bc 21 90 64 bd d1 e3 4b bd 57 7f ff bc
       -0.016266592 -0.055801515 -0.04977781 -0.03118865
000020 a6 7a 8d bd a4 bb a0 bd e6 c4 e7 bc e9 aa 90 bd
       -0.06908159 -0.078482896 -0.02829213 -0.070638485
000030 7b 4f fb bc 7e de 42 bd d0 db 3c bd 64 a4 e6 bc
       -0.030677548 -0.047575466 -0.046108067 -0.02815456
000040 2b 52 24 bc 48 25 8a bd 42 7a 6f bc b7 c4 af bd
       -0.010029356 -0.06745392 -0.014616551 -0.08582442
000050 d4 ef bc bc 9b 9d c1 3c 8c 5f f1 3a 72 7e a1 bc
       -0.023063578 0.023634722 0.0018415316 -0.019713614
000060 6e c0 a2 3c 86 3c 61 bc d3 78 c1 3c f5 5f 1b 3d
       0.019867148 -0.01374734 0.023617184 0.03793331
000070 08 ef 99 ba d4 37 dd 3c 7e 1d ad bc 34 17 8b bd
       -0.001174421 0.02700416 -0.021132227 -0.06791535
000080 da 73 1e bd a9 11 93 3b 18 34 86 bd 74 07 db bc
       -0.038684703 0.0044881892 -0.06552905 -0.026736952
000090 cb 2d 69 bc f1 8b a9 bd 01 c5 24 bc e7 36 0c bd
       -0.014232109 -0.08278645 -0.010056735 -0.034232046
0000a0 8f a6 2d bd 80 c3 57 bd 0f e2 bf 3c e0 ea f7 3c
       -0.04239517 -0.052676678 0.023423223 0.030263364
0000b0 58 be 23 bd d1 b9 90 bc f9 f3 46 3c ef f4 a7 bd
       -0.039976448 -0.01766673 0.012143129 -0.08201014
0000c0 15 e5 b3 bc 39 9e ad bd e0 e1 9e bd 61 6b 72 bc
       -0.02195982 -0.08477444 -0.07757926 -0.014796109
0000d0 37 45 37 bd 77 5f 53 3c 42 96 4a 3c 73 e9 6d bd
       -0.044743743 0.012901179 0.012364926 -0.058083963
0000e0 e5 b7 2a 3d b2 a6 3b bd 10 41 81 bc 91 7f b7 3c
       0.04167928 -0.04581327 -0.015778095 0.022399696
0000f0 41 28 cf bc b9 49 3f bd f7 c2 8e bd 30 92 85 bd
       -0.02528775 -0.046701167 -0.0697078 -0.06522024
000100 18 8b 28 bd 2a bd 31 bd 9e fd a5 bd d4 fb 9c bd
       -0.041148275 -0.04339329 -0.08105014 -0.0766522
000110 da d8 b4 bd 32 e0 88 3a 7a 11 87 bd a3 f7 96 bd
       -0.08830424 0.0010442792 -0.0659513 -0.07371452
000120 ac da e9 bb f3 59 ac bd 76 7e fe 3c 15 02 88 bd
       -0.0071366634 -0.08415594 0.03106616 -0.06641022
000130 82 4c 1e 39 ab 2b 2c 3d cd 11 b3 3c b8 6b 8f 3c
       0.00015096556 0.042033833 0.021859074 0.017507419
000140 af 6b 52 bc 67 dd b1 bd c0 a1 ca bc 18 45 cf bc
       -0.012843057 -0.08684807 -0.024735332 -0.025301501
000150 3b 37 84 bd 5e 45 69 bc b9 08 88 bd 4a 0e 9c bd
       -0.06455847 -0.01423773 -0.06642289 -0.07619913
000160 53 73 a8 bc 85 7b 40 bc a5 a5 dc bc 81 8d 0a 3c
       -0.020562803 -0.011748199 -0.026934454 0.008456589
000170 33 ab 25 bc 1f 65 f5 3b 2d 1d 3e bd e0 f1 87 bd
       -0.010111618 0.007488861 -0.046414543 -0.06637931
000180 b5 6f dd ba c2 e7 05 3c 8f 90 6e bc 1f 14 96 3c
       -0.0016894253 0.008172931 -0.014560833 0.018320141

convs.1.weight f4 [100, 1, 4, 91]
000000 b7 9f b4 3c e2 d6 19 bd 1b d1 04 3d b4 a2 90 3d
       0.022048814 -0.037558444 0.03242598 0.07062283
000010 14 c3 4b bc 28 fe 49 bd 34 32 c9 3b 07 c3 00 bc
       -0.012436647 -0.049314648 0.006140018 -0.007858998
000020 97 45 34 bd 9f 7b e1 3c a9 58 55 3d 2a a6 99 bc
       -0.04401168 0.027524767 0.052086506 -0.018755991
000030 ab 82 a7 bc ea c4 88 3d 4b a0 ad bc 13 df 1b 3d
       -0.02044805 0.066781834 -0.021194598 0.038054537
000040 05 96 ab 3c da 7c 31 3d e5 0e b2 3c 11 f7 35 3d
       0.020945558 0.04333196 0.021735618 0.044425074
000050 b7 a1 bd 3d e4 db 1c 3d bb 3c f3 3c 8e 7d 4b bd
       0.0925936 0.03829564 0.029692044 -0.049680285
000060 8c d4 66 3b 89 38 db bc 24 58 a2 3b af f4 8f 3d
       0.0035221903 -0.026760357 0.004954355 0.070290916
000070 25 7d a0 bc a3 38 ca ba ad 57 8e bc f0 86 95 bb
       -0.019590924 -0.0015428256 -0.017375791 -0.004563205
000080 cb 89 35 3d e6 e5 0d 3d f0 c5 b0 bd 05 c9 46 bd
       0.044320863 0.034643076 -0.086315036 -0.04853155
000090 84 3b a8 3d c9 7b d7 bc 36 83 86 bb 6b e6 63 3d
       0.08214477 -0.026304143 -0.004104997 0.055639666
0000a0 27 a7 db 3d 15 db 01 3d 19 13 6d 3d f9 9d 7e 3d
       0.10725241 0.031703074 0.05787954 0.062162373
0000b0 17 19 71 bd f2 18 81 3d 16 f3 fb bd 47 86 7d 3d
       -0.05886182 0.06303586 -0.12302224 0.061895635
0000c0 58 f4 aa 3d e0 95 fa 3c 19 28 8e bc 37 95 0b 3d
       0.08347386 0.030589044 -0.017353104 0.03407785
0000d0 78 3f cd 37 c6 3e d0 bb 1c 92 8c 3d 6c c6 31 bd
       2.446746e-05 -0.0063551394 0.06863806 -0.04340212
0000e0 c7 7c 11 3d 72 49 b5 bc b4 57 00 bd ba 1b 37 bd
       0.035519388 -0.022129748 -0.03133364 -0.044704176
0000f0 40 b7 2e 3b dc 64 60 3c b5 8b e0 bc cc 88 9e bc
       0.0026659518 0.013695922 -0.027410368 -0.01935234
000100 e8 d6 45 bc df 4f 44 3d 4a a8 89 3c 5b 71 0c 3d
       -0.012075163 0.047927734 0.01680388 0.03428779
000110 aa 74 ec 3c 9c 79 69 3c 6c 74 3c bc e2 6c 0b bd
       0.028864224 0.014250185 -0.0115023665 -0.034039386
000120 88 43 ef 3b 0c 7b 35 bc 3e e0 b1 3c 38 41 51 bc
       0.0073017515 -0.0110767 0.021713372 -0.012771897
000130 24 a8 2a bc bf cf 17 3d c2 e3 ba bc dc d9 46 bd
       -0.010416064 0.037063356 -0.022813682 -0.04854761
000140 64 ac 1d bc cc 39 13 bc 85 bc 2e 3d e2 1b 4e bd
       -0.009623621 -0.008985948 0.042660255 -0.05031956
000150 4b 25 05 3d 8f 79 2c 3d f0 e7 da 3b d1 50 4e bd
       0.03250627 0.042108115 0.006680481 -0.05037004
000160 a7 6e 02 3d 6d 70 0c 3d 70 95 06 3b 32 b0 51 bd
       0.031843808 0.034286905 0.002053585 -0.051193424
000170 06 38 ae 3c c9 1e 50 3c bc 61 05 bc 97 29 df 3d
       0.021266948 0.012702652 -0.0081409775 0.108966045
000180 f9 db 19 bd ad 0e a7 bc 7f 7d 18 bc 3a 4a 80 bd
       -0.037563298 -0.02039274 -0.009307264 -0.062641576
000190 7a 78 59 3c ca c9 f2 bc 72 6d 3e 3c 95 3c c9 3d
       0.013273353 -0.029637236 0.0116227735 0.09826008
0001a0 e6 67 67 ba 81 67 03 3d 56 7b 21 bd 7d d0 00 bb
       -0.0008827433 0.03208113 -0.039424263 -0.0019655519
0001b0 ab 53 b8 bd 54 d7 ec 3b 9e c7 b3 3c 7b d7 f4 3a
       -0.090003334 0.0072278176 0.02194577 0.0018679941
0001c0 8d 08 8e bd 1b 02 e2 3c 96 83 29 bd fd 20 70 3c
       -0.06935225 0.027588895 -0.041385256 0.0146563025
0001d0 d5 2d a0 3d 9d 4c 86 bc f0 e3 96 3d 7e 55 f1 3c
       0.07821242 -0.016393954 0.073676944 0.029459711
0001e0 78 3f e7 3b 54 7d 22 bd e1 90 91 bd ed b5 af 3d
       0.0070571266 -0.039670303 -0.071077116 0.085796215
0001f0 4f 2f 95 3c 18 47 84 bd cd 31 f8 ba 1e 06 78 bd
       0.018211035 -0.064588726 -0.001893574 -0.06055271
000200 87 91 45 3d ad 24 87 bd 0e 25 27 bd b8 f5 53 3d
       0.04823449 -0.06598792 -0.040806822 0.051748008
000210 2c 1a 8f 3d de 0a 87 bd 09 16 4e 3c d5 21 47 3c
       0.06987414 -0.065938696 0.012578496 0.012154062
000220 b3 3e f2 bc f8 2b 87 3d 18 a1 dc bc c0 54 f0 bb
       -0.029570913 0.06600183 -0.026932284 -0.0073343217
000230 c2 41 48 3d 03 17 04 3d 2a bb a1 bc 9e 4a b1 bd
       0.048890837 0.03224851 -0.019742567 -0.0865681
000240 25 b7 20 3c 87 cc 9e 3b c5 7a 2a 3d 3a 3e d4 3c
       0.00980929 0.004846159 0.04162099 0.025908578
000250 ee c4 9a 3c 3e ac fb bc 62 a7 fd 3c 6e 67 82 3c
       0.018892732 -0.03072178 0.030963603 0.01591846
000260 2e 2a 82 3c c0 05 6f 3b 5e 10 84 3c 5f ba 54 bd
       0.015889253 0.0036471933 0.016121086 -0.05193555
000270 b1 24 00 3d 0e 03 d3 3c b2 23 d6 3c 82 b9 9f 3c
       0.03128499 0.025758293 0.026140068 0.019497637
000280 94 d6 7c 3c ff 51 4d 3d 0d fc 05 3d 00 0c 63 39
       0.015432019 0.050127026 0.032711077 0.00021652877
000290 24 ad 75 3c 43 1b 33 3d 8d 31 23 bd d4 28 68 3c
       0.014994893 0.04372717 -0.039842177 0.01416989
0002a0 fd 72 47 3d d2 7e ba 3c db 04 3b 3d 96 ae 98 3c
       0.048693646 0.02276555 0.045658927 0.018637937
0002b0 6d 8a 0b 3d e0 ff 35 3b 71 34 30 3d 00 22 dd 3b
       0.03406756 0.0027770922 0.043018762 0.006748438
0002c0 b0 7a 51 bd 0a 09 c7 bc 0c 80 29 bd ac 95 00 bd
       -0.051142395 -0.024296302 -0.04138188 -0.03139274
0002d0 5b de 0f bd e9 6f 44 3d 5e 07 c7 bc 02 92 3f 3d
       -0.035124164 0.04795829 -0.024295505 0.046770103
0002e0 b2 0b ca bd 94 14 69 bc c1 84 59 bc 89 5b 19 3d
       -0.09865512 -0.014226098 -0.01327628 0.03744081
0002f0 2e 27 cc bc 8d 93 55 3d 5f 39 00 bc 25 09 15 bd
       -0.024921026 0.05214267 -0.007826178 -0.036385674
000300 18 6a d3 bc f3 67 05 3d 76 d7 56 3d 7f 40 15 bd
       -0.025807425 0.032569837 0.052451573 -0.03643846
000310 b5 0e 34 bd 79 90 96 3c c6 34 84 bd f6 cb 63 bd
       -0.04395934 0.018379437 -0.06455378 -0.055614434
000320 2c 05 ea 3c b9 ae 49 bc c7 56 96 3c 62 69 43 bd
       0.02856692 -0.0123097235 0.018351926 -0.047707923
000330 4a 6c 00 be de fe b4 bd 88 43 9b b9 df a5 b4 3c
       -0.12541309 -0.088376746 -0.00029614219 0.02205175
000340 21 11 72 bc 36 0a 1e 3d 43 5b a6 bd 81 6f ec bd
       -0.014774592 0.038583957 -0.081228755 -0.11544705
000350 79 7c 92 bc ec 67 94 38 a1 20 8a bd 76 64 97 3c
       -0.017881619 7.076547e-05 -0.06744505 0.01848052
000360 6f 26 96 bc 79 5f 82 bd 94 fc ec 3c d5 67 9b 3b
       -0.018328873 -0.06365866 0.028929032 0.0047426024
000370 20 2b a3 bd e7 b0 2b bd 46 a1 e0 3c e5 8d 8c bd
       -0.0796721 -0.041916754 0.027420651 -0.06863002
000380 dd 44 09 bc fe e2 1c 3d a8 0a 5c bb a9 42 35 bc
       -0.008378235 0.038302414 -0.0033575688 -0.011063256
000390 01 17 f0 bc f4 74 97 3c 97 ab 14 bc 00 cb 32 bd
       -0.029307844 0.018488385 -0.009074113 -0.043650627
0003a0 e6 3d 64 3c 0c ef 32 bd 8d ef 28 bd e5 bd d4 3c
       0.013930773 -0.043685004 -0.04124408 0.025969455
0003b0 b8 a9 ef bd 95 4d 3a 3d 42 26 45 bd 09 f7 40 3d
       -0.11702293 0.045484144 -0.04813219 0.04711059
0003c0 56 64 a7 bc f6 cc 47 bd 06 67 f4 3c c0 26 2a 3a
       -0.020433586 -0.04877945 0.029834282 0.00064907596
0003d0 80 33 d2 bb af c2 3b 3d 45 52 36 3d 78 d6 19 bc
       -0.0064148307 0.04583996 0.044512052 -0.009389512
0003e0 34 ba 7a 3c 84 81 99 bc 2f e5 46 3d b6 6e 81 3c
       0.015303183 -0.018738516 0.04855841 0.015799861
0003f0 cc bc 4f 3c 60 73 d9 3b ef f8 49 bd 30 cb 28 bc
       0.01267929 0.006636068 -0.049309667 -0.01030235

convs.1.bias f4 [100]
000000 12 57 22 bd 76 f3 85 bc 3a 6e 56 bd 85 2e dd bc
       -0.039633818 -0.016351443 -0.052351214 -0.026999721
000010 3d 23 37 bc ca d9 82 bc 62 b5 44 bd e9 cb 0f bb
       -0.011177835 -0.01597299 -0.048024543 -0.0021941608
000020 17 2d bb bd 57 5e 32 bd fe 72 b4 bd b6 78 05 bd
       -0.091394596 -0.043547 -0.088109955 -0.032585822
000030 f4 79 fb bc df 1a 85 bc eb 72 7f bd e2 e4 f3 3b
       -0.0306978 -0.016248165 -0.062365454 0.0074430564
000040 4c cf ac bd fb 9f 52 bd d1 89 a7 bd 18 f6 b2 bc
       -0.08437976 -0.0514221 -0.08180583 -0.021845862
000050 56 8c 9d bd d6 74 ad bd ce eb 93 bd 8d 45 dc bd
       -0.076927826 -0.0846955 -0.072227105 -0.10755453
000060 8c f7 3d bd d5 64 6e bd 8b 6b de bc d5 4b 9b bc
       -0.046378657 -0.05820163 -0.02715089 -0.018957058
000070 77 75 15 bc 57 b3 10 bd 08 74 98 bd 57 e9 6e bd
       -0.009122244 -0.03532728 -0.07444006 -0.058328
000080 52 8a 94 3b 07 99 0f bd 20 bf e9 bc 5e 50 57 3c
       0.0045330906 -0.035058048 -0.028533518 0.01314172
000090 fb 27 96 bd 9e 2d d8 bc 52 eb 9b 3a b3 c9 d8 bc
       -0.073318444 -0.02638894 0.0011895692 -0.026463365
0000a0 d3 29 81 bd fc 20 97 bd 7e a0 81 bb f9 3e 6d bb
       -0.063068055 -0.07379338 -0.0039558997 -0.0036200865
0000b0 af 94 85 bd 36 12 73 3c e1 50 6b bb 5b 14 e8 bc
       -0.065225 0.014835885 -0.0035906362 -0.028330019
0000c0 ab 4b 44 3b 23 e5 82 bd d4 7b b3 bc 05 8d b7 3a
       0.0029952328 -0.063913606 -0.021909632 0.0014003819
0000d0 30 ba 2b bd e0 4a a5 bd 31 a0 3b 3c b5 42 f3 ba
       -0.04192561 -0.08070922 0.011451767 -0.0018559309
0000e0 f5 f8 01 bd f4 7f b4 bc 48 a7 c1 3a c6 3a c6 bd
       -0.031731565 -0.022033669 0.0014774585 -0.09679179
0000f0 1c 12 2c bd ac 8d da 3b fc 3c 3c bc da 5b 68 bd
       -0.042009458 0.0066697206 -0.011489149 -0.05672822
000100 2f 28 5a bd cb c2 a3 bd a5 87 9f bd 89 5f 96 3c
       -0.05326098 -0.07996138 -0.07789544 0.018356102
000110 ef 65 ef bc 56 00 8f bd 75 bf 3d bd 81 74 99 bd
       -0.02922341 -0.06982486 -0.046325166 -0.074929245
000120 1d 64 5e bd 30 d9 9f bd ae 83 31 bd 0f 3f 5d bc
       -0.054294694 -0.07805097 -0.04333847 -0.013503804
000130 d8 69 0d bd f8 dd 88 bc bb bd a7 bb 83 78 8f bd
       -0.03452477 -0.016707405 -0.005119053 -0.07005408
000140 3d d2 33 3b 23 fa 35 bd dd b8 a7 bd 9b ee 26 bd
       0.0027438544 -0.044428002 -0.08189557 -0.040754896
000150 6d 47 31 bd 7e c8 0f bd 52 74 30 bc 65 32 00 bd
       -0.043281008 -0.035103314 -0.01076992 -0.03129806
000160 7c e9 4f bc 09 fd 4b bd 12 50 16 bd 79 1d 10 bd
       -0.012689944 -0.04980186 -0.036697455 -0.035184357
000170 7e d8 80 3b 2f 5f 2d 3d 3b 2b 40 bd 4a d2 c5 bb
       0.003932058 0.042327102 -0.046916228 -0.0060370313
000180 50 e9 e1 39 8b 8e b1 bd 00 52 91 bd b9 07 e8 bb
       0.00043089176 -0.08669766 -0.070957184 -0.0070809987

convs.2.weight f4 [100, 1, 5, 91]
000000 75 88 92 3d 43 0b 7b bd 34 11 e1 bc bf 79 19 3d
       0.07154933 -0.061290037 -0.027474023 0.03746962
000010 b7 51 92 3c 6f f2 6e 3d 41 df 4f bc 2c 6b 89 3d
       0.01786123 0.05833667 -0.012687505 0.067098945
000020 2c 9d 0d 3d ae c4 bc 3d 8d 69 a9 3c e5 cb 9a bc
       0.03457372 0.09217201 0.020680213 -0.018896053
000030 ea b1 80 3c 54 5e a0 bd 90 cf 1b 3b 23 1c 98 bd
       0.015709836 -0.07830492 0.002377484 -0.07427242
000040 98 d3 55 bb 15 b2 fa bd 35 03 6d bd 18 7c 85 bc
       -0.003262734 -0.12240998 -0.057864387 -0.016294524
000050 ee aa 2e bc b7 4b 35 3c d8 f5 c0 bd 14 f3 f3 bd
       -0.01066087 0.011065415 -0.09421891 -0.11911598
000060 d4 41 28 3d 8e 91 ae bc 3d e0 5c bd 27 cd 03 be
       0.041078404 -0.02130964 -0.053924788 -0.12871228
000070 84 50 fa 3c d5 21 08 be 28 3f 3e bd 38 49 91 3d
       0.030555971 -0.13294156 -0.04644695 0.070940435
000080 18 19 09 bd 2d 05 1f 3c 81 9c 83 bc e3 55 7e 3c
       -0.033471197 0.009705824 -0.016065838 0.015523407
000090 05 39 9e 3d fe b9 e0 bb 4e 63 bd bd 9c ce 07 3d
       0.07725719 -0.0068581095 -0.092474565 0.033156022
0000a0 32 d4 da bc 32 c4 b0 bc 1c 33 6d 3d c2 11 89 bd
       -0.02671251 -0.021577928 0.05791007 -0.0669284
0000b0 71 f9 28 3c 10 f1 c6 bc 08 c1 6c bd 22 3d 76 bd
       0.010313378 -0.02428487 -0.057801276 -0.060116895
0000c0 2e 9d ab bd a0 9f 8a bd 38 4f d9 3b 80 01 d0 bd
       -0.08379589 -0.06768727 0.006631758 -0.10156536
0000d0 9d ce 29 bd 71 67 63 3c 63 d8 e0 bd 34 d2 93 3c
       -0.041456807 0.013879643 -0.109787725 0.018044569
0000e0 d4 82 88 3c 1e dd be bc 8c 40 67 3c 99 b0 a8 bc
       0.016663946 -0.023298796 0.01411451 -0.02059202
0000f0 65 91 3a bd f3 3f e5 bc 58 23 b6 3c a8 98 24 bd
       -0.045548815 -0.027984595 0.02223365 -0.040184647
000100 c0 df 13 3d 8e 53 12 bd 60 b4 ec 3a 44 24 0d 3c
       0.036102057 -0.035724215 0.0018059127 0.008614603
000110 e9 3b 32 bd 3a 23 8c bc ea d7 0c bd 78 4c c3 bb
       -0.043514166 -0.017106641 -0.0343856 -0.0059600435
000120 7d 5b 99 bc 74 5f 09 bc 9a 37 2b bd fe ac 12 bd
       -0.018720383 -0.008384574 -0.041801073 -0.03580951
000130 04 6a 8c bc f5 ca 38 bd 29 0c aa bc 40 92 da 3c
       -0.017140396 -0.04511543 -0.020757752 0.026681066
000140 5e d9 dc bc b6 cc 28 3d 91 b4 3c bd 6b 8d fa bc
       -0.026959118 0.041210853 -0.04607064 -0.030585011
000150 f4 c1 97 3c ff c1 2b bd 4c 94 ac 3c c0 51 26 bd
       0.018525101 -0.041933056 0.021066807 -0.040605307
000160 ac a2 16 3d 13 39 b6 bc f9 08 ce bc 19 62 b2 bc
       0.03677623 -0.022244012 -0.025150763 -0.021775292
000170 16 4c 83 bd ce 2d 8a 3d ca c7 96 bc 4d 7c 6d bc
       -0.064109966 0.06747018 -0.018405814 -0.014494968
000180 79 88 3f 3d d3 2d 19 bd a2 4a 9d 3c 31 43 af bc
       0.04676101 -0.037397217 0.019200627 -0.021394344
000190 52 d0 90 bc fc b6 c1 bb 4f 5e 6f 3b 7e a6 0e 3d
       -0.01767746 -0.005911706 0.0036524718 0.034826748
0001a0 7d 51 8c 3b ef ba a9 3d 3c 54 80 3a f9 08 2c 3d
       0.004282175 0.08287608 0.0009790729 0.042000744
0001b0 c0 f6 36 bd 79 fc d5 bc 00 50 6d 3c 53 28 cb bb
       -0.044668913 -0.026121365 0.0144844055 -0.0061998754
0001c0 3e e7 33 3d ee a7 46 3d 6a f8 81 bc b7 13 8b bc
       0.0439217 0.048499994 -0.015865523 -0.016977174
0001d0 f4 96 f7 bb c0 52 97 3d e6 d8 7c bd 6b 34 56 bd
       -0.007555837 0.0738883 -0.061730288 -0.052296083
0001e0 9b e9 16 3d 42 da 67 bd e2 fd 73 3c fb 4c 86 3d
       0.036843877 -0.05660463 0.014892073 0.065576516
0001f0 46 11 fa 3d c9 50 a5 3b bb d8 c5 3c 1c b8 3d 3d
       0.12210326 0.0050450307 0.024151197 0.04631816
000200 bd 59 54 bd 71 11 9e 3c 7b a5 03 bd fe 92 26 bc
       -0.051843394 0.019295426 -0.032140236 -0.010166882
000210 c0 4a 4b 3c b8 24 41 3d 8b 0b 26 bd 4a 01 38 3d
       0.0124079585 0.04715416 -0.040538352 0.044923104
000220 98 e6 34 bd 67 82 6f bd 9f 59 8c bc a2 ed 3b 3c
       -0.044165224 -0.05847397 -0.017132578 0.01147023
000230 a1 bd 8c bd d7 ed 3b bc 3f cb b5 bb 8d c9 78 3b
       -0.06872106 -0.01147028 -0.0055479105 0.003796193
000240 5e 4b 50 3d ae b9 85 bd aa d8 26 3d c4 34 19 3c
       0.050853126 -0.06529556 0.04073397 0.009350959
000250 8b 4a 29 bd 1e 9a 30 3d 2e b1 a1 bc dc 79 0b bc
       -0.041330855 0.043115728 -0.019737806 -0.00851294
000260 64 84 d6 3c 71 55 30 bd c0 ef f3 ba 2e 58 12 3d
       0.026186176 -0.043050233 -0.001861088 0.035728626
000270 90 7d 29 3c 68 49 c3 3b c1 e0 1d bd 67 8d b7 bc
       0.010344878 0.0059596784 -0.03854442 -0.022406293
000280 aa cb 1f 3d 64 fa 7b 3c 20 50 d2 ba 00 ae d2 38
       0.03901259 0.015379522 -0.0016045608 0.0001004599
000290 48 08 f9 3c 28 9b 9e 3c 18 ee f1 3c b4 7a a0 bc
       0.030399457 0.019361094 0.029532477 -0.01958976
0002a0 24 bd 43 bc 10 f7 5e bc fa 17 30 3d a8 7f ec 3c
       -0.01194695 -0.013608709 0.042991616 0.028869465
0002b0 6b 02 85 bc e0 56 42 3b e0 b9 e7 bb 84 06 97 3c
       -0.016236505 0.0029653832 -0.0070717186 0.018435724
0002c0 e0 99 39 3c a5 59 14 bd 3f 6e 36 bd 00 95 a9 bb
       0.011328191 -0.036218304 -0.044538733 -0.005175233
0002d0 00 5d 74 bc 85 77 14 bd 1e a9 9e bd a9 00 3c 3c
       -0.014914751 -0.036246795 -0.077471 0.011474767
0002e0 44 57 b4 bb da bf 34 bd 2a 96 05 bc ac 5d 64 bc
       -0.005503567 -0.044128276 -0.008153478 -0.013938349
0002f0 b0 0d 41 bd db 05 83 bc 86 28 02 bd 63 0b e5 3d
       -0.047132194 -0.015994003 -0.031776927 0.111838125
000300 a2 7d 6b 3b 2f 23 91 bc ac 8e 94 bc f6 b1 8d 3d
       0.0035933037 -0.017716972 -0.018134438 0.06918709
000310 cd fb ab 3b ba a0 19 bd bf 80 02 bd 3e db b0 3d
       0.005248523 -0.037506796 -0.031861063 0.08635567
000320 ff 05 5b 3d e4 a1 26 3c 6e 28 94 bd 02 09 79 3d
       0.053472515 0.010170434 -0.07234274 0.060799606
000330 6b df 57 3d d8 49 98 3c 71 b1 61 3d 48 01 ce 3c
       0.052703302 0.018589899 0.055100862 0.025147095
000340 a6 c1 1a bd 68 4a 6d 3b 4f 46 a7 3d d4 59 06 bd
       -0.037782334 0.003620768 0.08167707 -0.03280051
000350 92 27 56 bb be 52 84 bc 33 60 12 bc e9 6e d7 3c
       -0.0032677394 -0.016152736 -0.0089340685 0.026298003
000360 0b a1 89 3c b0 12 3d 3c 66 3d 5e bb 83 10 0a bd
       0.016800424 0.0115401 -0.0033911108 -0.033707153
000370 6c be 04 bd 75 52 c0 3c 9b 7d 9b bc 90 c5 81 3c
       -0.032408163 0.023476819 -0.018980792 0.015841275
000380 fd 75 c1 bc 5d e9 a4 3c 7f 8a ed 3c a3 f5 33 3d
       -0.023615832 0.020130808 0.028996704 0.04393543
000390 ba fb c5 bc 2d 1d 6f 3d 50 d8 3f bd b3 b3 d7 3d
       -0.024167884 0.058377434 -0.04683715 0.10532322
0003a0 20 b5 8b bc 27 24 9c bd 72 c8 13 bd aa f9 df 3b
       -0.01705414 -0.07624083 -0.03607983 0.006835182
0003b0 1a 36 a1 bd c8 c5 81 3c 86 f1 18 bd 88 7d f2 bb
       -0.07871647 0.01584138 -0.03733971 -0.0074002184
0003c0 8c cb a4 3c 16 d9 3f 3d fc 7b 71 bc 6e bb 22 bd
       0.02011659 0.04683789 -0.014739033 -0.039729528
0003d0 b8 75 0b 3d 98 a3 a3 bb 4e cc 93 bc 60 a7 92 3a
       0.034047812 -0.004993867 -0.018041756 0.0011188798
0003e0 1c eb 9e 3c d4 60 bb 3c 38 f7 4d bc 58 8d f8 3b
       0.019399218 0.02287332 -0.012571149 0.007585209
0003f0 b8 33 9f bc 70 fd f0 bc cc dc 93 bc 7e a8 3f 3d
       -0.019433841 -0.029417723 -0.01804962 0.046791546

convs.2.bias f4 [100]
000000 36 14 7e bd 9b 3e 03 3b 66 58 75 bc 58 dc a2 bd
       -0.062030993 0.002002633 -0.014974689 -0.079521835
000010 d1 d0 a2 bd 2e de 9d bd 95 43 a8 bd 2f a6 4c bd
       -0.07949985 -0.07708393 -0.08216015 -0.049963173
000020 02 3f a4 bd ab 50 c5 bd c5 af 7e bd 87 86 51 3c
       -0.0801983 -0.09634527 -0.062179346 0.0127884215
000030 90 45 ab bd 92 78 35 bd 68 ba 7a bd 6b 39 46 bd
       -0.08362877 -0.044304438 -0.061212927 -0.0483946
000040 5b 39 2f bd d9 e8 72 bd 01 64 a3 bc 00 ca 1d bc
       -0.042779308 -0.059304092 -0.019945147 -0.00963068
000050 fa 91 84 bd 83 33 a1 bd 88 2f 31 bd 80 48 9f bc
       -0.06473155 -0.07871153 -0.04325822 -0.01944375
000060 3e ca 90 bd 93 48 4b bd f8 3a 20 bd 70 d8 62 bc
       -0.07069825 -0.04962976 -0.039118737 -0.013845548
000070 ab cf ad bd 6a 2a 55 bc fa 0b a6 bc 7f 48 c2 bc
       -0.08486875 -0.013010601 -0.020269383 -0.02371621
000080 0e 8d 74 bd 0a ac d9 bc 31 b0 e9 3b 86 26 2f bd
       -0.059704833 -0.026571292 0.0071315994 -0.04276135
000090 de 75 8c bb 99 41 57 bd 4e 48 00 3d e4 10 62 bc
       -0.004286512 -0.052552793 0.031318955 -0.013797972
0000a0 b5 94 5a bd a0 b6 aa bc ba 85 d7 bb f6 39 53 bb
       -0.053364474 -0.020839036 -0.0065772207 -0.0032230592
0000b0 a7 fa f0 3b 1f f4 81 bd b0 fb 91 bb 2e f6 90 bd
       0.007354099 -0.063453905 -0.0044550523 -0.07078205
0000c0 b6 39 55 bc 46 69 e8 bb 71 c9 fc bc 32 13 06 bd
       -0.013014248 -0.0070926277 -0.030857773 -0.03273315
0000d0 8a f3 9e bc 37 50 42 bd d8 39 59 bd 41 df 63 bc
       -0.019403238 -0.04743978 -0.05303368 -0.013908208
0000e0 2f 8a 87 bb af 62 78 bc 20 cc 86 bd c0 2e b5 bc
       -0.004136346 -0.015160247 -0.065819025 -0.022117019
0000f0 67 ec 29 bd 43 4b 43 bd d1 55 98 bd 99 d5 1a bd
       -0.041485216 -0.047679197 -0.07438243 -0.03780136
000100 63 ef b7 bd 5c 5f 87 bb 2b e5 54 bd 16 5e 4f bd
       -0.08981206 -0.004131241 -0.051976364 -0.050626837
000110 33 9b 9c bd 0b 37 5c bd de d3 ca bc 31 31 8e bd
       -0.076467894 -0.05376343 -0.02475923 -0.06942976
000120 6f 0f 29 bd 3a 08 19 bd bd c4 bf bc b9 55 e2 bc
       -0.041274484 -0.03736136 -0.023409242 -0.027628766
000130 4e bc c1 bd f8 b4 64 bc 8a 71 99 bd d2 aa 97 bb
       -0.094597444 -0.013959162 -0.07492359 -0.0046285177
000140 6d f3 f1 bc e1 33 b6 bb dd 42 83 3c 08 29 85 bd
       -0.02953502 -0.0055603837 0.016023094 -0.06501967
000150 52 e0 6c bd d8 bf 4c bd 84 38 97 bd a9 8d a0 bd
       -0.057831116 -0.049987644 -0.073838264 -0.078395195
000160 18 8d 77 bd 3f b6 1c bd 1b b7 1d bc b1 cc 0e bd
       -0.06043729 -0.03825974 -0.009626175 -0.034863178
000170 fd f2 b9 bc 1e 1a 6e bc 59 df 20 bd ea 2b 76 bd
       -0.022698874 -0.014532594 -0.0392755 -0.060100473
000180 8f 70 ae bd 88 03 78 bc 43 3e a2 bd b8 c1 88 bd
       -0.085175626 -0.015137561 -0.07922032 -0.06677574

convs.3.weight f4 [100, 1, 6, 91]
000000 c8 4d d0 3c 67 4b 77 bd 6d 60 a3 3d ed 3c e9 bb
       0.025427714 -0.060374644 0.07977376 -0.0071178586
000010 0b ec db bd 64 12 6b 3d 4b 52 37 3b be 56 d2 ba
       -0.10738381 0.057390586 0.0027972634 -0.001604758
000020 da 5d e6 bc ea 60 a8 bc 04 9d 93 3d 0e 84 5e 3d
       -0.028120924 -0.020554025 0.07207683 0.054325156
000030 44 dc 82 3d a4 a1 b5 bc 9d 93 53 bd 9b e7 ec 3c
       0.063896686 -0.022171803 -0.051654447 0.028919032
000040 f1 f7 49 bd da aa 7e 3d c4 eb 4d bb 57 98 1a bd
       -0.04930872 0.062174655 -0.0031421045 -0.03774294
000050 1f 1b 94 bc 17 43 13 bd 45 f1 a6 3c c2 09 0c 3d
       -0.018079339 -0.035952654 0.020378718 0.034188993
000060 27 6e 0b 3d 2b 31 92 bb d8 3b 4f 3d 13 c5 7d bd
       0.034040596 -0.0044614277 0.05059418 -0.061955523
000070 29 b0 17 3d 03 3e b6 3c 21 47 06 3d 54 cc ba 3c
       0.037033234 0.022246366 0.032782678 0.02280251
000080 75 dd 77 3d a1 51 1d 3d 8b ef 08 3d 3a de 89 3c
       0.060513932 0.038407926 0.03343157 0.016829599
000090 e6 47 2f bd 3a 5b bd 3c 05 4d 86 3d 37 67 93 bd
       -0.042793177 0.02311479 0.06557659 -0.07197421
0000a0 9f fc ae 3d 7c 31 34 bc a5 a8 11 bd e5 89 04 3d
       0.085442774 -0.010998126 -0.035561223 0.03235807
0000b0 41 3d 9c bb 50 59 3c 3d db 7e ee 3d 23 dd 41 3d
       -0.004768044 0.045983613 0.116452895 0.047330033
0000c0 db e4 ec bc f6 19 85 3d 6c 60 6f 3c 78 12 3c bd
       -0.02891772 0.06499092 0.014610391 -0.04591605
0000d0 53 0e f4 bc f8 b9 50 bd ec 61 14 bd 3a 73 9c bc
       -0.029791987 -0.050958604 -0.036226198 -0.019097913
0000e0 10 1d ec bc e0 57 9f bb d0 15 91 bc d4 69 0f bc
       -0.028822452 -0.0048627704 -0.017710596 -0.008753259
0000f0 50 a1 24 bd 34 5e 14 3c e1 5a 2d bd af f9 21 3d
       -0.040192902 0.009055663 -0.042322997 0.039544757
000100 3e 2a bc 3c f6 5c c1 bc b0 3e e2 bb 00 62 0c bd
       0.022969361 -0.023603898 -0.0069044456 -0.034273148
000110 c3 a5 1b 3d 62 1a 0c bd 2f c2 a6 bc 42 34 e2 3c
       0.03799988 -0.034204848 -0.020356266 0.02761281
000120 80 5c da bb 19 0d 01 3d 98 58 84 3b ca d5 18 bd
       -0.006663859 0.03150663 0.0040388815 -0.03731326
000130 37 15 12 3d 40 94 45 ba 9f 7f 92 bc e9 4e cf bc
       0.035664763 -0.00075370446 -0.01788312 -0.025306182
000140 ec 4d 24 bc 68 f4 d9 bb 50 78 08 bb 38 9a 9d 3c
       -0.010028344 -0.00665145 -0.0020823665 0.019238576
000150 0e 71 2b bd b3 88 e7 bc e7 bf 0b 3d 4a f2 8c bc
       -0.041855864 -0.028263425 0.03411856 -0.017205376
000160 40 3d 14 bc 4a 56 ba 3c 2c 16 78 3c 20 cf 12 3d
       -0.009047806 0.022746224 0.015142005 0.03584206
000170 a1 05 91 3d fa e9 55 3d 6b ab d2 3c 07 ad 0b bd
       0.07081152 0.05222509 0.025716504 -0.03410056
000180 a4 d3 0e bd 72 4f 1e bd 4f f6 b4 3d b2 d8 8a bd
       -0.034869805 -0.038649984 0.08836042 -0.067796126
000190 ae 13 86 bd ca 30 b8 bb eb 26 8b 3c a4 43 94 bc
       -0.06546722 -0.0056210505 0.016986331 -0.01809866
0001a0 b1 5b 99 bd 37 57 a2 bb 16 87 96 3d 04 cc f6 ba
       -0.07488192 -0.0049542445 0.07349984 -0.0018829112
0001b0 42 8c 7a 3c 2a 75 85 3c ab 67 2b bd 27 ab ec 3c
       0.015292229 0.01629122 -0.041846912 0.028890206
0001c0 ce fc 4c 3d cf f0 b9 3d d8 58 12 bd fb 77 13 3d
       0.05004578 0.09079134 -0.03572926 0.036003094
0001d0 a5 fd da 3c 50 07 e5 3c 48 bf ae 3d 26 4a 80 bd
       0.026732275 0.027957588 0.08532578 -0.06264143
0001e0 1c c6 f8 3c 3a e9 70 bb 3b fd 53 bc a9 3b 98 3d
       0.030367903 -0.0036760108 -0.012938793 0.07433254
0001f0 61 86 82 bd c4 50 f1 bc 93 db ea bc f3 23 55 bd
       -0.06373287 -0.029457457 -0.028669154 -0.052036237
000200 39 72 a7 b8 f7 e0 29 3c 3a a7 59 bd 21 62 3b 3d
       -7.984456e-05 0.010368577 -0.053137995 0.04574788
000210 47 6d c8 bc 53 fa 60 bc b7 87 41 3a e9 98 e8 bc
       -0.02446617 -0.013731557 0.0007382589 -0.028393226
000220 0e 19 95 bd 4d 19 9e bc f6 3b 11 3c 4d de 34 bd
       -0.072801694 -0.019299174 0.008864393 -0.044157315
000230 4b f0 bb 3c 2e 50 8b bd a4 0d 8b bd 4f f7 58 bc
       0.022941729 -0.068024024 -0.06789711 -0.013242557
000240 52 47 a7 3c e8 0b f8 ba 56 e7 a7 3c b0 26 6c 3c
       0.02041975 -0.0018924447 0.020496052 0.014413521
000250 76 9a e8 3c 16 78 70 bc 47 09 1c 3d 7b 92 27 bd
       0.028393965 -0.014677068 0.038094785 -0.04091118
000260 3d 65 d1 bc cb b4 9e bc 98 4d 6d 3c a9 68 07 bd
       -0.02556097 -0.019373318 0.014483832 -0.033058796
000270 98 83 7b 3c 0b 55 2a 3d 59 9a d4 bc ef 5c f6 bc
       0.015351199 0.04158501 -0.025952505 -0.030073611
000280 8e dc 82 3c 7a da ec 3c 88 b6 26 bc a3 75 b9 bc
       0.01597431 0.028912771 -0.010175355 -0.022639101
000290 00 39 96 3a 38 a8 75 bc f4 42 8c 3c 79 8e cf bc
       0.0011461079 -0.01499372 0.01712177 -0.025336491
0002a0 f2 c3 ba 3c fa 97 e8 3c a1 db 1d bd d5 3f 0d bd
       0.022798512 0.02839278 -0.038539533 -0.034484703
0002b0 60 d4 c3 3b e9 7f 1f 3d c0 89 8a 3c 6e 33 ca 3c
       0.005976245 0.038940344 0.016911387 0.024682727
0002c0 2c bb 58 bc 78 d6 e0 bc 20 4a 89 bb e0 89 02 bc
       -0.013228219 -0.027446017 -0.0041897446 -0.007967442
0002d0 2a 15 df 3c 88 82 ec bb 79 41 7a bb 32 bf 6c bd
       0.027231771 -0.007217709 -0.0038185997 -0.057799526
0002e0 c0 4f 77 3d 9f 6f 40 3d 67 f0 f2 3c dd 83 18 bc
       0.06037879 0.04698145 0.029655648 -0.009308782
0002f0 3d 9f 50 3c 90 33 d8 3d 6a 44 93 3c 9b 4d da 3c
       0.012733278 0.1055671 0.017976958 0.026648333
000300 89 a1 23 3d 4e a5 0b bd 6e 6f e1 3c b6 4e 85 3c
       0.039948974 -0.034093194 0.027518954 0.016272884
000310 2c 73 5c 3c a0 89 30 bd a9 f4 29 bd df c9 27 3d
       0.0134551935 -0.0431 -0.04149309 0.040964004
000320 d5 7c da 3b 68 44 4b bd 18 18 03 bc 99 74 73 3d
       0.006667713 -0.049625784 -0.00800135 0.059437368
000330 17 d8 0b bb c4 4c 68 3d 6e 1b 93 bc 2e cb d8 3c
       -0.0021338516 0.056713834 -0.017957415 0.026464071
000340 ad 3f 8c bc a3 62 de 3c 2a d3 aa 3c c5 d9 2c 3c
       -0.017120207 0.027146643 0.020852644 0.010549967
000350 49 1e 1a bd 8c 81 51 bc 0d 35 1f 3d 41 dc d7 3b
       -0.03762654 -0.012787234 0.038868953 0.0065875356
000360 77 93 c8 bb 81 1c b1 bd 67 9a 5c 3c f1 cb 9b 3b
       -0.006121095 -0.08648015 0.013464547 0.0047545363
000370 b1 bc 62 3d d7 12 b8 bc 97 3a 7a bc 95 04 c4 bc
       0.05535573 -0.022469921 -0.015272758 -0.023927966
000380 bc f9 44 3d 6f 9c 5a bd 18 4b c9 3c 17 25 b4 3c
       0.048089728 -0.053371843 0.02457194 0.021990342
000390 63 4c bb 3c 99 10 57 3d 32 f9 5a 3d dc ac 2d 3c
       0.022863572 0.052506063 0.053460307 0.010600295
0003a0 9a 07 5c bd 66 74 eb bc 94 ba 23 3c 2e 79 17 3c
       -0.053718187 -0.028742027 0.009993214 0.0092452
0003b0 e4 ff 1e bd ff eb f7 bc d8 b1 34 3c a0 80 0a bd
       -0.038818255 -0.030263899 0.011028729 -0.033814073
0003c0 f0 f5 27 3c 55 c9 06 3d 58 94 20 bc 79 95 0f 3d
       0.010251507 0.03290685 -0.009800993 0.035054658
0003d0 ca 8e 27 bd 00 39 a6 b9 03 52 97 bc 10 04 e0 bb
       -0.04090766 -0.00031704456 -0.018471723 -0.006836422
0003e0 09 93 d7 bc d3 89 91 bc 90 ff 79 3c 16 f6 e5 3c
       -0.026315229 -0.017765915 0.015258685 0.028071444
0003f0 20 62 1f 3b 6c ee 5f bc 68 d6 1a bc 9c 9c 2b 3c
       0.0024319962 -0.013667684 -0.0094505325 0.01047435

convs.3.bias f4 [100]
000000 ac 24 ed bb 8c b1 80 bc 54 48 8b bd 93 47 84 bd
       -0.0072370376 -0.015709661 -0.06800905 -0.06458964
000010 93 3d 30 bd 76 cf aa bd 0c f4 85 bd 38 52 9e bd
       -0.04302747 -0.08340351 -0.06540689 -0.07730526
000020 20 32 6c bb 89 bd 7d bd 06 3c b6 bd 9b 80 62 3c
       -0.003604062 -0.061948333 -0.08898167 0.013824607
000030 69 98 b4 3c bf fc 4c bd 2c 56 38 bc 20 6c 21 bd
       0.022045331 -0.050045725 -0.011251014 -0.039409757
000040 7f 4f 92 bd 0e 7a 35 bd a8 28 82 bc 37 e6 45 bc
       -0.07144069 -0.044305854 -0.015888527 -0.012078813
000050 86 bf a4 bd 85 31 ba bc 9d 53 bf bc 97 75 71 bc
       -0.08044343 -0.02272869 -0.0233553 -0.014737508
000060 ac d0 31 bd ef 0a 13 bd 59 3d ca bc cf ec 4d bb
       -0.043411896 -0.0358991 -0.024687456 -0.0031421666
000070 fc 80 3c bc 3e ba b4 bc 1d d9 32 bd 9d f2 98 bc
       -0.011505362 -0.022061463 -0.043664087 -0.018670375
000080 7c 84 25 bd 71 5f 71 bd 5f 57 6e bd de f0 30 bd
       -0.04040955 -0.05892891 -0.058188792 -0.04319846
000090 26 06 60 bd 68 de a7 ba ea 8f d6 bc b9 c4 bd bc
       -0.054693364 -0.0012807371 -0.02619167 -0.023165094
0000a0 cc e8 c7 bc 88 ac ed bc ac 21 5d bd 10 6e 6f bd
       -0.024402998 -0.029012933 -0.05398719 -0.058454573
0000b0 0b c3 7d bd 5f 3f 19 bd e1 6d dc bc 39 99 83 bd
       -0.061953586 -0.03741395 -0.026907863 -0.06425709
0000c0 a5 0d a1 bd 53 52 97 bd e4 8d 1d bd 5a b8 87 bd
       -0.078639306 -0.07388749 -0.038465396 -0.06626959
0000d0 1f ba f8 bc a9 af 36 3c 18 78 94 bd 50 b6 a4 bd
       -0.030362187 0.011150279 -0.072494686 -0.08042586
0000e0 76 eb 49 bd 4b 3a c0 bc b9 a0 2e bc 40 39 53 bd
       -0.04929682 -0.023465296 -0.010658436 -0.05156827
0000f0 1c ba b1 bc 2e 2c 9e bd 44 ca ec bc a4 a6 39 bd
       -0.02169519 -0.0772327 -0.028905042 -0.045324937
000100 cc a5 47 bd b8 68 58 bd 24 eb 1b 3c 90 4f 97 bc
       -0.0487421 -0.052834243 0.009516511 -0.018470556
000110 5d dd 79 bd d3 84 88 bd ed a4 41 bd 1d 61 71 bc
       -0.061002124 -0.06665959 -0.047276426 -0.014732626
000120 a8 bb 49 bd 3f 76 29 bc 5d 49 ac bd 53 8b 07 bc
       -0.04925123 -0.0103431335 -0.084124304 -0.008272964
000130 00 3f 65 bc d8 e9 98 bd 98 ff a2 bd 19 af d6 bc
       -0.013992071 -0.07466477 -0.07958907 -0.02620654
000140 27 57 90 bc cc 27 46 bd 88 24 8d bd f2 a5 8c 3c
       -0.017619682 -0.048377797 -0.068917334 0.017168973
000150 0f 76 3f bd d1 3a 90 bd 17 65 44 bd 0c 77 bb bc
       -0.04674345 -0.07042468 -0.04794797 -0.022883914
000160 1f fb f5 bc 71 bb 7e bd 7d b2 ac bd f7 c3 d1 bc
       -0.03002697 -0.062190477 -0.084324814 -0.025606139
000170 d4 f2 12 bd bb 7d 83 bd 13 48 02 3b ab 4d 0a bd
       -0.03587611 -0.064204656 0.0019879385 -0.033765476
000180 24 9c 4c bd 29 30 6e bd b0 e6 2d bd bf a4 00 bd
       -0.049953595 -0.058151398 -0.04245633 -0.031407114

convs.4.weight f4 [100, 1, 7, 91]
000000 34 6e d1 3c 7b 05 91 3c a6 ee ec bc fd 99 b1 3c
       0.025565244 0.017702809 -0.02892239 0.021679873
000010 21 75 d6 3d 7b 92 98 3d 38 95 21 3c 7c 17 18 bd
       0.10471559 0.07449814 0.009862237 -0.03713177
000020 c5 90 e0 bc a7 50 80 3d 0d ab c7 3c 9a af 59 3d
       -0.027412781 0.06265383 0.024373556 0.053145982
000030 a6 3e 06 3d d5 4f 28 3d 8f 11 08 bc fd bb a6 bc
       0.03277459 0.04109176 -0.008304968 -0.020353312
000040 d6 82 5f 3d d8 58 49 3d cc 65 1c bd 47 16 7d 3d
       0.054568134 0.049156994 -0.03818302 0.061788823
000050 d8 f0 02 3d d3 a8 97 bc 0d cd 43 3d c7 4c 49 3d
       0.031967968 -0.018513119 0.047802974 0.049145486
000060 ea 4a 9b bd 9d b1 f2 3c 7d 66 55 3d c9 2e fe 3c
       -0.07582648 0.029625708 0.052099694 0.031028168
000070 b1 65 c6 3c 91 f9 93 3c 91 58 9d bd 65 6e 80 bd
       0.024218412 0.018063338 -0.07682908 -0.06271056
000080 67 2a be 3d 0e 76 cb 3c b9 a6 80 3d 0a a9 09 3d
       0.09285431 0.024836566 0.062818 0.033608474
000090 d2 e8 a9 bc 48 bb 57 3d 05 31 6c 3d aa e7 4b bc
       -0.0207409 0.05266884 0.057663936 -0.01244537
0000a0 e6 b2 40 bc 3a fd 31 3d 3c 27 eb bc 5d 67 62 3c
       -0.011761403 0.043454386 -0.028705232 0.013818589
0000b0 fa bb a0 3b 45 84 3c 3b cd 41 b1 ba d0 f7 54 3d
       0.004905221 0.0028765362 -0.0013523638 0.051994145
0000c0 68 9d 91 bc 53 f6 77 bc 14 3f b0 bd e4 c3 9f 3c
       -0.017775252 -0.015134412 -0.08605781 0.019502588
0000d0 b4 6f 05 3c 10 09 83 bd 4b 2e 5f bd 00 dc af 3c
       0.008144308 -0.06398213 -0.054487508 0.021467209
0000e0 f8 63 0d 3d c4 80 2e 3c 30 6d 28 bb 3a 69 0f bc
       0.034519166 0.010650817 -0.0025699846 -0.008753115
0000f0 80 40 15 3d d0 0f 13 bd 80 b0 79 3a 58 11 fc 3b
       0.036438465 -0.03590375 0.0009524897 0.007692497
000100 10 8f 79 bb 0a 97 ac 3c d0 2b b9 bb ec 58 3f bc
       -0.0038079657 0.021068115 -0.005650975 -0.0116789155
000110 68 98 ad 3b bc 77 c9 bc bc 63 fa 3c 60 71 da 3c
       0.0052977093 -0.024593227 0.030565135 0.02666539
000120 90 6f e2 3b 38 70 0b 3c 9c d0 32 3c 7c a1 f6 3c
       0.006910272 0.008510642 0.010913994 0.030106299
000130 10 01 fa 3b b0 0c 75 bc 50 4b 60 3b 7b 78 03 bd
       0.007629521 -0.014956638 0.0034224577 -0.03209732
000140 40 7a c7 3c b8 4e 9e bb 6c 63 e7 bc d8 05 ea 3c
       0.024350286 -0.0048311614 -0.02824565 0.02856724
000150 8c 79 f6 3c 62 e4 11 3d ab 34 21 bd 4c 70 19 bd
       0.030087255 0.035618193 -0.03935687 -0.03746061
000160 e2 1d ef bc 16 2d 8f 3c b8 8c 94 3c dd a4 f6 3a
       -0.029189054 0.017477553 0.018133506 0.0018817444
000170 44 84 ea bc dc 40 7a bc 53 bf 45 3d 7c c1 4a 3d
       -0.028627522 -0.015274253 0.048278164 0.049500927
000180 94 ad 26 3d 81 6e 72 3d 8b 24 a8 bc 97 94 37 3d
       0.04069288 0.059187416 -0.020525238 0.04481944
000190 72 f0 81 bd ed 5d d4 bd 51 90 bb 3c b2 1e 9d bc
       -0.063446894 -0.103694774 0.022895964 -0.019179676
0001a0 4b f2 ac bc 4a 83 f4 bb 04 60 40 3c 16 e1 68 bd
       -0.021111628 -0.00746194 0.011741642 -0.056855284
0001b0 56 01 f0 bc 6b c7 3f 3c b6 04 a5 3b 06 6b 66 3d
       -0.029297512 0.01170526 0.005035962 0.05625441
0001c0 8f 9d 06 3c b1 c9 23 bd 5c 50 c9 bd 3e 37 92 3b
       0.008216276 -0.03998727 -0.098297805 0.004462152
0001d0 25 3a 42 bd ef 43 ba 3d 9a 2e 5b bd 7f 03 22 bd
       -0.047418732 0.090949886 -0.05351124 -0.039554115
0001e0 58 6d 12 bd 70 1d 43 bd 58 8c 18 3d c6 49 3b bd
       -0.03574881 -0.047635496 0.037243217 -0.045724653
0001f0 90 71 e5 bc 2a 71 8e 3c dc 61 90 bd d6 15 fe bc
       -0.028008252 0.017387945 -0.07049915 -0.031016272
000200 99 9f 9e 3b 96 23 f2 3c e5 15 27 bd 84 b6 60 bd
       0.004840803 0.029557984 -0.040792365 -0.05486156
000210 d8 e7 49 bd 8c 0f 8c 3d 83 03 b7 bc df 67 8f 3d
       -0.04929337 0.06838903 -0.022340542 0.07002234
000220 8a 55 b3 bc e9 cb 54 bd e5 3c 89 3b 2c ae 4b 3c
       -0.021891374 -0.051952276 0.0041881674 0.0124316625
000230 fc 36 f8 3c a2 01 24 bd e4 14 b1 3d 55 58 94 bd
       0.030299656 -0.04004062 0.08646563 -0.072434105
000240 fc 35 19 bd 04 fa 92 3c 72 5c 5a bc 4a 61 0d 3d
       -0.037405 0.017941482 -0.013327705 0.03451661
000250 00 ea 0c 3c 60 9c a9 ba df ff 06 bd b0 66 08 bb
       0.008600712 -0.001294028 -0.03295886 -0.002081316
000260 0b 47 ce bc 8f d3 fc bc 96 b2 04 3d 38 1a b2 3b
       -0.02518036 -0.030862598 0.032396875 0.0054352544
000270 4a 00 1e 3d 42 61 b0 3c 1e 85 a3 3c 50 3f 3a bb
       0.038574494 0.021530751 0.019960936 -0.0028419085
000280 20 e9 de ba 80 71 b4 bb f8 1b 16 bd 76 33 8c bc
       -0.0017006733 -0.0055066943 -0.036647767 -0.017114382
000290 4c 61 fd 3c 87 78 ab bc c0 ed e1 bb c8 46 02 bc
       0.030930184 -0.020931495 -0.006894797 -0.007951446
0002a0 30 e7 15 3d 3c 94 3b bc b8 91 d1 bb d0 2d 7b 3b
       0.03659743 -0.011448916 -0.006395545 0.0038326867
0002b0 42 ae f0 bc aa 0b 04 3d 08 f8 88 bb 1c 41 75 bc
       -0.029379968 0.032237686 -0.0041799583 -0.014969137
0002c0 9c a5 c3 3c f8 d7 5a 3c 78 00 31 bc 08 c5 05 bc
       0.02388268 0.013357155 -0.010803334 -0.008164652
0002d0 d0 8f 0d bd 78 d7 51 bc 84 1a 6c bd 42 7b 8e 3c
       -0.03456098 -0.012807719 -0.057642475 0.017392758
0002e0 79 db 8b bc 1a ea a4 bc d9 1d 3e 3d ec 3c e3 bc
       -0.017072426 -0.02013116 0.046415184 -0.02773901
0002f0 7b a2 db 3b 3d f2 88 bd 2f 71 c4 3c db bb 0f bc
       0.006702719 -0.06686828 0.023979751 -0.008772816
000300 48 76 8e 3b fb 21 09 3d 5a d5 46 3a 85 e7 4d bd
       0.0043475963 0.033479672 0.00075848924 -0.050269622
000310 17 ad 90 3b a4 f0 d3 3c 31 79 a3 3d f0 5e 47 3c
       0.004415165 0.025871582 0.079821 0.012168631
000320 d0 86 5a 3c f1 dc 49 bd 01 40 e3 bc 49 3d 30 bd
       0.013337806 -0.04928297 -0.02774048 -0.043027196
000330 e8 8e 2a bd 1c cf c6 3c cc 3f 36 3c c8 87 db 3b
       -0.041640192 0.02426868 0.011123609 0.006699536
000340 00 52 15 bd f4 d0 8f bc d1 63 11 3d 32 fd 41 3d
       -0.036455154 -0.017555691 0.035495583 0.047360606
000350 95 77 0c 3d a6 5e 3e 3c 36 e5 79 bc a8 ed 96 bb
       0.03429373 0.011619246 -0.015252402 -0.0046059676
000360 05 08 ca 3b 84 f2 2e 3c aa d5 18 bd b2 62 d3 bc
       0.006165507 0.010677937 -0.03731314 -0.025803898
000370 e0 cb d1 bc 45 3f 71 bd f0 a1 83 3b ee d4 6a bd
       -0.02560991 -0.05889823 0.004017107 -0.05733197
000380 6b 5e 9e bb 3a 52 b0 3c aa bc b4 bc e2 3d c7 bc
       -0.004833033 0.021523584 -0.022062618 -0.0243215
000390 10 52 46 bd 0d b6 15 3c c6 b6 70 3b 98 56 9b bc
       -0.048418105 0.009137643 0.0036730035 -0.01896219
0003a0 2d 09 00 bd 1b be b7 bd 06 59 2f bd 70 bf cf 3c
       -0.03125875 -0.089718066 -0.04280951 0.02535984
0003b0 78 41 0a 3e 42 13 5f bc d6 3d 28 bc e4 07 73 bc
       0.13501537 -0.013615431 -0.010268649 -0.014833424
0003c0 3c d9 11 3c 80 1f 02 bb f9 40 b8 bc 70 b6 08 bb
       0.00890189 -0.0019855201 -0.022491919 -0.0020860694
0003d0 a2 13 22 3d 64 8f 30 bc 30 e6 07 bc 40 6f 86 3b
       0.039569505 -0.0107763745 -0.008294627 0.0041026175
0003e0 13 ed b3 bc 91 af 1a bd fc df 75 3c c8 c8 e6 bc
       -0.021963632 -0.03776509 0.015007015 -0.028171912
0003f0 ee 21 08 3d a6 a7 43 bc 54 12 d5 3c 20 3e 52 bc
       0.033235483 -0.011941826 0.026009716 -0.012832195

convs.4.bias f4 [100]
000000 ab 0d 4d bd fc bd 8e bd 13 19 8c bd c9 da 93 bb
       -0.050061863 -0.069698304 -0.0684072 -0.004512165
000010 f7 d2 05 bd 8a c0 ab bd a6 c4 80 bd 04 37 6d bd
       -0.032671895 -0.08386333 -0.06287508 -0.057913795
000020 84 c7 cc bb a2 d2 4f bd ba c0 e8 bd e8 0e 16 bc
       -0.00624937 -0.050737984 -0.11364885 -0.009158827
000030 f4 4c 35 bd fa 12 1a bd e5 41 93 bd 3c 8a 61 bd
       -0.04426284 -0.037615754 -0.07190303 -0.05506347
000040 23 b5 02 bd 0a 65 2d bd be a7 4c bd 7e 6b 5a bd
       -0.031911027 -0.042332686 -0.04996466 -0.05332517
000050 f6 71 fb bc 7b ff 75 bd 6d 13 0e bd 08 38 54 bd
       -0.03069399 -0.0600581 -0.034686495 -0.051811248
000060 05 52 6a bd 8b 65 99 bd a8 df c5 bc c3 15 4d bd
       -0.057207126 -0.07490071 -0.0241545 -0.05006958
000070 b2 49 94 bd 4e 3b 1f bd 96 3d b7 bd 4c ba 31 bd
       -0.07240619 -0.038874917 -0.089472935 -0.043390557
000080 c6 d9 54 bd 50 8d b6 bd 16 53 39 bd de 6a ba bd
       -0.051965497 -0.08913672 -0.045245253 -0.091024145
000090 3d 9f 4f bd 9b 57 77 bc 9c e8 6a bd 96 d2 6c bd
       -0.05068897 -0.01509657 -0.05735074 -0.057818018
0000a0 83 33 96 bd 8b 40 b1 bc 79 6f 5e bd 5c 8c dc bc
       -0.07334044 -0.021637222 -0.054305527 -0.026922397
0000b0 ec 3f 72 bd bd 32 15 bd 90 01 40 bd 3a 01 98 bd
       -0.059142992 -0.03642534 -0.04687649 -0.07422109
0000c0 3b 0b 27 bc 1e 11 98 bd b2 70 80 bd bf 8c 1e bd
       -0.010195549 -0.0742514 -0.06271495 -0.038708445
0000d0 93 86 bd bd c7 5b 43 bc f1 4c 7e bd b3 2c 5e bc
       -0.092541836 -0.011923737 -0.062085096 -0.013560462
0000e0 86 32 43 bd 79 ec 16 bd 9d 94 65 bd 95 67 7c bd
       -0.047655605 -0.03684661 -0.05604993 -0.06162222
0000f0 ab cc 6b bd 34 1a 5f bd bc 36 45 bd c9 e6 71 bd
       -0.057568233 -0.05446835 -0.048147902 -0.059057985
000100 05 ca d7 3a 5e 1f 87 bd d2 35 d6 bc 10 36 20 bd
       0.0016463405 -0.0659778 -0.02614871 -0.039114058
000110 98 72 12 bd 1c 9b 86 bd 0d dd 9e bc 7e 06 1e bd
       -0.035753816 -0.065725535 -0.019392515 -0.03858041
000120 5b 5f d1 bc 37 e6 9b bd 3e b5 2d bd 33 64 32 bd
       -0.025558164 -0.07612269 -0.042409174 -0.04355259
000130 36 9a 78 bd 60 d9 45 bd c8 ed 2b bd 21 36 8a bd
       -0.060693942 -0.048303008 -0.041974813 -0.067486055
000140 d5 9c 96 bd 1b cf 5d bd a4 2f 39 bd ec f0 46 bd
       -0.07354132 -0.05415259 -0.04521145 -0.048569605
000150 1d ec 30 bd 56 1f ed bc 17 57 20 bd be cf 91 bd
       -0.043193925 -0.028945606 -0.039145555 -0.07119702
000160 ab 0b 0e bd 38 82 e3 bc 29 99 55 bd d8 10 08 bd
       -0.034679096 -0.027772054 -0.052148018 -0.03321919
000170 39 db 5f bd b3 eb 62 bb 82 2d 20 bd 80 03 c0 bc
       -0.054652426 -0.003462535 -0.0391059 -0.023439169
000180 00 97 6c bd 25 0b 60 bd 00 34 6f bd 21 51 8c bd
       -0.057761192 -0.05469813 -0.0583992 -0.068514116
